pretext_model_weights.pt (torch, 526940 bytes, 35 tensors)

EEGNet1.block1.0.weight f4 [8, 1, 1, 64]
-0.102362595 -0.13829684 -0.06621507 -0.030964818 0.00034099954 -0.1893288 -0.13664244 0.050557822
0.008358642 0.008956116 -0.05708216 -0.12059714 -0.030678883 0.07009486 0.061123524 -0.054810952
-0.06694461 -0.05786411 0.048685808 0.05983596 0.09003751 -0.01984001 -0.052967392 -0.06861626
0.0066030943 -0.050662648 -0.053451244 -0.024958653 -0.03730384 0.102017134 0.08726738 -0.11125814
-0.09904767 -0.13412847 0.006393508 0.008904489 0.059937604 -0.09931894 0.0007872197 0.003718293
-0.08943374 -0.07201222 -0.045620173 -0.004353249 0.07041813 -0.09782567 -0.11798858 0.088652276
-0.1140796 0.0059722564 -0.038504954 -0.09137119 0.055944115 -0.13022377 -0.16696866 -0.08099385
0.0097358925 -0.04318463 -0.027800247 -0.124712974 -0.16261385 -0.036499675 -0.02596537 -0.20763683
0.075973906 -0.13664979 -0.08111811 -0.14815246 -0.15494606 -0.045347515 -0.1434254 -0.096479796
-0.13843508 -0.0146117965 -0.12892817 0.026418775 0.004757966 0.044464353 -0.06544792 0.039418094
-0.017029578 -0.008135114 -0.04940169 0.10519925 -0.018155595 0.033137757 0.045013983 0.10896641
0.046024088 0.036780264 0.09075737 -0.03326728 0.071170576 0.10233761 -0.09547711 -0.05257526
-0.008158626 -0.008424216 0.10385417 -0.093688734 -0.12575363 -0.090119146 0.022484154 0.036427245
-0.086604804 -0.06701434 0.09290772 0.066415906 0.10351503 0.08470854 -0.011712472 -0.08601477
-0.052217763 0.13988514 -0.009314989 0.06676868 -0.013963555 -0.085734695 0.02280521 -0.024595639
-0.019562598 -0.05849258 0.100635715 0.10047138 0.023088781 0.07888859 -0.009084161 0.015073986
0.12892391 0.037368953 0.019938072 0.0046938336 -0.048182275 -0.027316835 -0.016917018 0.14660889
0.13307695 -0.02824228 0.14486851 -0.06356222 0.09220693 -0.09796072 -0.01960294 -0.07063488
-0.1158632 0.1250096 -0.06451184 0.021713251 -0.0058544446 -0.012243998 -0.03786318 0.014624625
0.105986714 -0.10238096 0.065719865 0.089613594 -0.07803036 0.020158947 -0.09274987 0.12983096
-0.04338895 0.09257035 0.08344729 -0.087093 0.10147625 0.09820308 -0.04285676 -0.03572832
0.11041772 0.1079509 -0.015941624 0.031069797 0.053779587 0.02306154 0.032819908 0.06900463
-0.031341452 0.12231494 -0.07657391 0.0064080274 0.10944232 0.0018782725 0.09981889 0.15491365
-0.030979803 0.101806715 0.095918946 0.12473404 0.04195489 0.21952705 0.19372824 0.07893127
0.023185676 0.012698078 0.07528919 0.11470641 0.068146735 -0.06976638 0.06800021 0.01900074
-0.022529408 0.11968247 -0.01996862 0.1549994 -0.09004028 -0.014493175 -0.04977951 0.060957294
0.061727833 -0.06995411 -0.08445662 0.11082018 -0.0057359217 -0.095778376 -0.0748688 0.07843164
0.067816846 0.04541849 -0.04604401 0.04099154 0.08325939 -0.078094676 -0.055810884 -0.17113459
-0.11418645 0.025126833 -0.05002644 0.08278187 -0.12798327 0.023589697 -0.056664813 0.057904426
0.077991635 -0.11824618 0.05371485 0.0556966 -0.15278602 -0.07850654 0.04380592 0.06238975
-0.09484794 -0.023196898 -0.04519109 0.07389004 -0.16376401 -0.13416536 0.0071489206 0.05029716
-0.07628305 -0.008317889 0.038328722 -0.10516451 0.023987457 -0.16631255 -0.1105552 0.004379032
00000000: 7ba3 d1bd b09d 0dbe c49b 87bd eea9 fdbc
00000010: 2fc8 b239 69df 41be ffeb 0bbe b815 4f3d
00000020: b0f2 083c acbc 123c fcce 69bd a2fb f6bd
00000030: 4852 fbbc e58d 8f3d a95c 7a3d 7381 60bd
00000040: 411a 89bd eb02 6dbd c56a 473d 8d16 753d
00000050: 9665 b83d 8487 a2bc 56f4 58bd af86 8cbd
00000060: c55e d83b a383 4fbd b1ef 5abd 1776 ccbc
00000070: e9cb 18bd 5cee d03d 3db9 b23d 4fdb e3bd
00000080: 81d9 cabd f958 09be a280 d13b 22e4 113c
00000090: 2281 753d ba67 cbbd 6b5d 4e3a 9bae 733b
000000a0: 0929 b7bd 257b 93bd 38dc 3abd b3a5 8ebb
000000b0: 6137 903d d358 c8bd ffa3 f1bd 538f b53d
000000c0: 91a2 e9bd ebb2 c33b 5fb7 1dbd d220 bbbd
000000d0: a825 653d 6159 05be d5f9 2abe 1be0 a5bd
000000e0: 4b83 1f3c 5ee2 30bd 58bd e3bc 8469 ffbd
000000f0: 3f84 26be af80 15bd 54b5 d4bc c09e 54be
00000100: 3598 9b3d eced 0bbe 4021 a6bd 47b5 17be
00000110: 2eaa 1ebe 51be 39bd 1cde 12be 3397 c5bd
00000120: edc1 0dbe 5166 6fbc bf05 04be 306c d83c
00000130: b6e8 9b3b 4120 363d 8f09 86bd de74 213d
00000140: 9d81 8bbc 2449 05bc 6d59 4abd b472 d73d
00000150: 0bbb 94bc 75bb 073d 9560 383d c829 df3d
00000160: c183 3c3d e7a6 163d 00df b93d 4543 08bd
00000170: e1c1 913d 6296 d13d 8189 c3bd 2859 57bd
00000180: c2ab 05bc b905 0abc 7fb1 d43d e1df bfbd
00000190: 8fc5 00be 6390 b8bd b030 b83c bc34 153d
000001a0: dc5d b1bd d03e 89bd 6746 be3d 1005 883d
000001b0: b0ff d33d ac7b ad3d abe5 3fbc 8328 b0bd
000001c0: 4be2 55bd 0d3e 0f3e e59d 18bc 05be 883d
000001d0: 65c7 64bc ac95 afbd fed1 ba3c cb7c c9bc
000001e0: be41 a0bc ea95 6fbd 191a ce3d f0c3 cd3d
000001f0: af24 bd3c 5790 a13d bcd5 14bc e1f8 763c
00000200: a104 043e 3010 193d 2b55 a33c bbce 993b
00000210: c75a 45bd 8ec7 dfbc 8f95 8abc a420 163e
00000220: 5345 083e 5b5c e7bc 6958 143e e92c 82bd
00000230: fdd6 bc3d a19f c8bd 5896 a0bc 05a9 90bd
00000240: af49 edbd 8402 003e c91e 84bd fddf b13c
00000250: a4d6 bfbb 0d9b 48bc 6c16 1bbd 209c 6f3c
00000260: 900f d93d 1cad d1bd 2398 863d 5587 b73d
00000270: 62ce 9fbd 6024 a53c a5f3 bdbd 68f2 043e
00000280: 9db8 31bd 8695 bd3d 6ae6 aa3d d15d b2bd
00000290: c8d2 cf3d b21e c93d 928a 2fbd dc57 12bd
000002a0: b022 e23d 5d15 dd3d 0298 82bc 1686 fe3c
000002b0: fc47 5c3d 8eeb bc3c 2b6e 063d 4d52 8d3d
000002c0: e55f 00bd 4180 fa3d c8d2 9cbd 6efa d13b
000002d0: 4c23 e03d 5e30 f63a d96d cc3d afa1 1e3e
000002e0: 5bc9 fdbc 0a80 d03d 2771 c43d 8f74 ff3d
000002f0: e4d8 2b3d b3cb 603e b260 463e b8a6 a13d
00000300: e3ef bd3c 990b 503c 3831 9a3d 32eb ea3d
00000310: 8490 8b3d ade1 8ebd b243 8b3d 71a7 9b3c
00000320: 988f b8bc 151c f53d 3b95 a3bc 2ab8 1e3e
00000330: 0a67 b8bd c874 6dbc 99e5 4bbd 5bae 793d
00000340: 53d6 7c3d 1a44 8fbd 98f7 acbd b1f5 e23d
00000350: 66f4 bbbb 7427 c4bd d054 99bd c5a0 a03d
00000360: 8fe3 8a3d bd08 3a3d a598 3cbd bfe6 273d
00000370: e683 aa3d 1af0 9fbd f499 64bd e83d 2fbe
00000380: 96da e9bd cad6 cd3c 86e8 4cbd 8b89 a93d
00000390: 0c0e 03be 2e3f c13c 5d19 68bd 312d 6d3d
000003a0: 14ba 9f3d 0e2b f2bd 1a04 5c3d 1e22 643d
000003b0: f073 1cbe 09c8 a0bd d66d 333d 658c 7f3d
000003c0: a33f c2bd 6c07 bebc 4b1a 39bd a953 973d
000003d0: c1b1 27be a562 09be 7e41 ea3b 6504 4e3d
000003e0: 4a3a 9cbd c147 08bc 94fe 1c3d 7e60 d7bd
000003f0: 5881 c43c d64d 2abe c46a e2bd fc7d 8f3b

EEGNet1.block1.1.weight f4 [8]
0.9952538 0.9107198 1.0219452 1.0005738 1.0051322 0.94828993 0.968769 1.0027269
00000000: f4c8 7e3f ef24 693f 1acf 823f cd12 803f
00000010: 2ca8 803f 21c3 723f 3f01 783f 5b59 803f

EEGNet1.block1.1.bias f4 [8]
0.061724022 0.023431731 0.058131434 -0.04574146 0.056902856 -0.015422549 0.031776343 0.030761763
00000000: 54d2 7c3d e7f3 bf3c 3a1b 6e3d 665b 3bbd
00000010: f812 693d dcae 7cbc e927 023d 1800 fc3c

EEGNet1.block1.1.running_mean f4 [8]
0.019476548 0.0029066869 -0.01867685 0.0044692988 -0.021240102 -0.015673563 0.011665049 -0.014241881
00000000: 488d 9f3c 1d7e 3e3b 3100 99bc 3273 923b
00000010: b9ff adbc d865 80bc c31e 3f3c c756 69bc

EEGNet1.block1.1.running_var f4 [8]
140.90887 113.482635 171.3066 83.73405 223.9436 111.381096 145.08914 187.74904
00000000: ace8 0c43 1cf7 e242 7d4e 2b43 d577 a742
00000010: 90f1 5f43 1fc3 de42 d216 1143 c1bf 3b43

EEGNet1.block1.2.weight f4 [16, 1, 26, 1]
0.14299065 0.17375688 0.10857431 0.061528113 -0.11500975 -0.0037449836 -0.096090585 0.047033295
-0.14192899 -0.11683448 -0.13000043 0.034140136 -0.052832276 0.07813284 0.02335216 -0.048992164
-0.04981387 -0.15526712 -0.13271987 0.016419733 -0.20193657 -0.05622147 -0.11833726 0.13222446
-0.020241098 -0.03191925 0.06722643 -0.19766283 0.06439075 -0.065940335 0.12127448 0.060820155
0.028423931 0.17870238 -0.027443312 0.0362662 0.05942477 0.17699721 0.1057071 0.0888913
0.070455104 -0.003691074 0.00035826044 -0.055494998 0.2138442 0.22041622 -0.01768258 0.23746745
0.093320586 0.12853909 0.18218762 0.040774886 -0.14643627 -0.17461741 -0.015345234 -0.07173828
-0.0039612036 -0.15698394 0.13450323 -0.19392687 -0.15648024 -0.154981 0.1219855 0.13575436
0.012951283 0.045357894 -0.16556631 -0.21799488 0.12928629 0.086243 0.14555304 -0.17075633
-0.028960938 -0.10250195 0.122944884 -0.17971995 -0.12378586 -0.1951512 -0.09403057 0.18995023
-0.19106716 0.03663264 0.06530939 -0.16729869 0.18409196 0.023336321 0.015665103 -0.09617724
-0.17610559 -0.14641728 0.2078161 0.15249127 -0.08579083 -0.13327989 -0.06056935 0.03625147
0.0072987713 0.20024118 0.022059636 0.17462817 0.1042359 0.08853938 -0.14952391 0.031947833
-0.17493553 0.054417316 0.1371618 0.04691479 -7.798162e-05 0.1438268 -0.13655344 -0.018510738
0.09790545 0.17006452 0.043251824 -0.05388987 -0.0020979247 0.1097855 -0.065147586 0.23093607
0.16315067 0.22543219 0.13978676 0.19628625 -0.044537578 -0.07244693 0.022899792 -0.01743848
0.17954816 0.11566214 0.045382917 -0.08634229 0.051727593 -0.059511952 -0.22259444 0.13314058
-0.14305054 -0.03199193 0.03337191 -0.00015522876 0.20499112 -0.013044867 -0.2319359 -0.1474079
-0.17566988 -0.015938474 -0.1281806 -0.055438433 0.10796043 -1.9353029e-05 -0.14237252 -0.14686592
0.052838944 0.057585288 0.07029724 -0.13565342 -0.09990144 0.0987749 0.07594844 -0.09027879
-0.0021595762 -0.22293353 -0.11523515 0.17037313 0.060665086 0.17966984 -0.1553019 -0.14887038
-0.19802275 -0.09901963 0.14583562 -0.14812268 0.08226197 -0.088090785 -0.08081916 -0.027378935
-0.11626043 0.19001994 0.040282615 -0.07313283 -0.17250185 0.23425108 0.19227538 0.09501121
-0.14212419 -0.09717531 -0.17188823 0.102384806 -0.07195442 0.081809625 -0.057423342 -0.077141084
0.08090651 0.10744726 -0.0050423737 -0.16150948 0.08307303 -0.16349237 -0.19498931 -0.21415932
-0.12881109 -0.09650883 0.081983596 -0.085052 0.036747407 0.054882586 -0.07401227 -0.08821538
0.1447785 0.01543387 0.13417217 -0.14091912 -0.07926719 -0.101740316 0.047857825 0.1207112
0.01098709 -0.09247753 0.057806402 -0.13657719 0.022765815 -0.106796056 0.041385952 0.049016163
-0.17193301 -0.18764484 0.049205717 -0.19943528 -0.08477714 -0.20740266 0.06790581 -0.1658454
0.12239088 -0.0136078345 0.08640726 0.09062184 -0.041658033 0.022052389 0.058409326 -0.17073523
-0.12508282 0.055305276 -0.12688272 -0.1052195 -0.10080522 -0.15416548 -0.17005286 -0.081020206
-0.15817207 -0.015905302 -0.1870804 -0.03183597 0.03929682 0.011077594 -0.13494731 -0.14038527
00000000: 246c 123e 53ed 313e 355c de3d e704 7c3d
00000010: 3b8a ebbd 666e 75bb 24cb c4bd fca5 403d
00000020: d555 11be ea46 efbd d51e 05be 87d6 0b3d
00000030: a866 58bd 1c04 a03d 074d bf3c 02ac 48bd
00000040: a109 4cbd 58fe 1ebe b8e7 07be ad82 863c
00000050: 76c8 4ebe 7c48 66bd ce5a f2bd d965 073e
00000060: a9d0 a5bc c2bd 02bd 03ae 893d 2068 4abe
00000070: 4cdf 833d ba0b 87bd c15e f83d 8e1e 793d
00000080: 4ed9 e83c c2fd 363e ccd0 e0bc de8b 143d
00000090: 6367 733d c23e 353e f77c d83d a40c b63d
000000a0: c44a 903d f2e5 71bb e7d4 bb39 b94e 63bd
000000b0: f9f9 5a3e cab4 613e 0fdb 90bc ab2a 733e
000000c0: dd1e bf3d c09f 033e 648f 3a3e 9103 273d
000000d0: 64f3 15be e8ce 32be 946a 7bbc 85eb 92bd
000000e0: fccc 81bb 66c0 20be 37bb 093e c494 46be
000000f0: 5b3c 20be 57b3 1ebe 89d3 f93d 3103 0b3e
00000100: 9e31 543c 33c9 393d 378a 29be 0d3a 5fbe
00000110: a063 043e 2ca0 b03d db0b 153e bfda 2ebe
00000120: 7d3f edbc 8bec d1bd 87ca fb3d 8208 38be
00000130: 7183 fdbd b7d5 47be 1993 c0bd 5082 423e
00000140: 1ca7 43be 1b0c 163d eec0 853d 5950 2bbe
00000150: 9a82 3c3e d02b bf3c 1a54 803c 93f8 c4bd
00000160: 0655 34be 69ee 15be becd 543e ac26 1c3e
00000170: 1ab3 afbd 867a 08be 9117 78bd 6c7c 143d
00000180: 882a ef3b 060c 4d3e 69b6 b43c bad1 323e
00000190: a279 d53d 2254 b53d cc1c 19be bbdb 023d
000001a0: 4d22 33be b1e4 5e3d 2574 0c3e b929 403d
000001b0: 108a a3b8 5547 133e aad4 0bbe d5a3 97bc
000001c0: a782 c83d 6525 2e3e d328 313d a0bb 5cbd
000001d0: 567d 09bb 38d7 e03d 196c 85bd 817a 6c3e
000001e0: f810 273e b2d7 663e 4324 0f3e 43ff 483e
000001f0: 096d 36bd 0e5f 94bd 5898 bb3c 25db 8ebc
00000200: 79db 373e 46e0 ec3d 70e3 393d 3ad4 b0bd
00000210: 50e0 533d cec2 73bd ccef 63be 0156 083e
00000220: d77b 12be f809 03bd fcb0 083d e7c4 22b9
00000230: 31e9 513e 23ba 55bc 9b80 6dbe 19f2 16be
00000240: cee2 33be 6791 82bc c641 03be 6913 63bd
00000250: 5c1a dd3d 5058 a2b7 1aca 11be 0564 16be
00000260: a66d 583d 8dde 6b3d 00f8 8f3d bbe8 0abe
00000270: 2099 ccbd 7f4a ca3d db8a 9b3d 16e4 b8bd
00000280: ad87 0dbb b048 64be 6800 ecbd 4b76 2e3e
00000290: f47b 783d 5ffb 373e 7607 1fbe 7a71 18be
000002a0: 7ac6 4abe ceca cabd ef55 153e 79ad 17be
000002b0: f778 a83d f168 b4bd 8484 a5bd ca49 e0bc
000002c0: f319 eebd 9694 423e 62ff 243d aac6 95bd
000002d0: 53a4 30be 84df 6f3e d6e3 443e 3d95 c23d
000002e0: 0189 11be d903 c7bd 7803 30be 20af d13d
000002f0: d75c 93bd ce8b a73d bd34 6bbd 25fc 9dbd
00000300: 50b2 a53d 4f0d dc3d 7f3a a5bb be62 25be
00000310: 3122 aa3d 8b6a 27be 47ab 47be 954c 5bbe
00000320: 0ee7 03be 6ca6 c5bd 04e7 a73d be2f aebd
00000330: 7384 163d 90cc 603d bf93 97bd 44aa b4bd
00000340: d140 143e 58de 7c3c 6e64 093e 1a4d 10be
00000350: d656 a2bd 3a5d d0bd 9106 443d 6f37 f73d
00000360: 3203 343c dc64 bdbd 68c6 6c3d e4da 0bbe
00000370: 607f ba3c e4b7 dabd 5184 293d 2cc5 483d
00000380: 350f 30be f825 40be ef8b 493d c338 4cbe
00000390: a39f adbd 5d61 54be 3412 8b3d 60d3 29be
000003a0: 12a8 fa3d 65f3 5ebc 4af6 b03d f197 b93d
000003b0: 9da1 2abd 36a7 b43c 9e3e 6f3d 37d5 2ebe
000003c0: b615 00be c987 623d 8bed 01be 527d d7bd
000003d0: f872 cebd 8edd 1dbe 5622 2ebe eced a5bd
000003e0: dcf7 21be d64b 82bc 0192 3fbe 6f66 02bd
000003f0: b4f5 203d cc7e 353c a12f 0abe 28c1 0fbe

EEGNet1.block1.3.weight f4 [16]
0.9921305 0.9982534 0.9748258 0.91681635 1.0346515 1.0021217 0.98707837 1.0160754
0.9997884 0.989102 0.96088684 0.97544444 0.96428657 0.96360993 1.0084299 1.0340685
00000000: 44fc 7d3f 898d 7f3f 2f8e 793f 7ab4 6a3f
00000010: 766f 843f 8645 803f 2bb1 7c3f c20e 823f
00000020: 22f2 7f3f ca35 7d3f aefc 753f bab6 793f
00000030: 7cdb 763f 24af 763f 3b14 813f 5b5c 843f

EEGNet1.block1.3.bias f4 [16]
-0.015426561 0.01897939 0.05258411 -0.029841907 0.00089610484 0.00060873077 0.01317796 0.03986625
-0.00085459545 0.03242577 -0.021766402 0.01304029 0.049489424 0.0064402744 0.024358112 0.0032826343
00000000: b0bf 7cbc aa7a 9b3c 7062 573d 0477 f4bc
00000010: 94e8 6a3a 3b93 1f3a 5fe8 573c cb4a 233d
00000020: ee06 60ba e2d0 043d 744f b2bc f1a6 553c
00000030: 6cb5 4a3d f008 d33b aa8a c73c 7721 573b

EEGNet1.block1.3.running_mean f4 [16]
-0.032694105 0.09456426 -0.024876526 0.0033704278 0.08888292 -0.058475412 0.026258675 0.038746487
-0.027939836 -0.062673315 0.0062188897 0.0031219255 -0.025695197 0.005011218 -0.019314969 0.018691039
00000000: 41ea 05bd e8aa c13d dbc9 cbbc 65e2 5c3b
00000010: 4008 b63d ea83 6fbd 6f1c d73c a3b4 1e3d
00000020: 15e2 e4bc de5a 80bd d4c7 cb3b 3899 4c3b
00000030: bc7e d2bc 2535 a43b 6d3a 9ebc f31d 993c

EEGNet1.block1.3.running_var f4 [16]
0.44864416 1.7030938 0.7788357 0.17854188 1.3675385 0.99380463 0.4196262 0.67957926
0.7857883 1.6543397 0.5500603 0.18629493 1.3546797 0.13054986 0.988083 1.0426109
00000000: b0b4 e53e fafe d93f c761 473f afd3 363e
00000010: 800b af3f fb69 7e3f 3fd9 d63e e8f8 2d3f
00000020: 6c29 493f 67c1 d33f c0d0 0c3f 19c4 3e3e
00000030: 2566 ad3f ddae 053e 02f3 7c3f 4674 853f

EEGNet1.block2.0.weight f4 [16, 1, 1, 16]
-0.18967316 -0.17319384 0.04551511 -0.06921297 -0.082889706 0.0076338714 0.044871025 -0.11222825
-0.13284752 0.026084447 0.04830269 0.05018188 -0.2236087 -0.059929263 0.14304927 -0.23418918
0.042238872 -0.094963245 0.2909086 0.1126235 0.23185158 0.26059914 -0.17879596 0.25897676
-0.008580021 -0.03334085 0.0891871 0.22841942 -0.14095372 0.1324451 0.046411753 0.24269418
0.1385244 0.22470467 -0.10825172 0.093314484 0.0020939114 0.053600397 0.16369237 0.027656835
-0.12862378 0.1550442 0.10736722 0.0054388507 -0.24646555 -0.1238796 -0.046480127 -0.05743828
-0.23248151 0.056998122 0.09373679 -0.24677081 0.16129223 0.04787051 0.14950976 -0.0019756157
0.070423186 -0.15219443 0.038078617 0.03742807 0.10614208 -0.0013499062 0.056477703 -0.119263105
0.26479533 -0.025742767 -0.089044474 0.033301353 0.060182355 0.12907241 0.20297359 -0.16400303
0.19208167 -0.23000818 0.04702978 -0.16154148 0.21006982 0.28095585 0.28482106 0.15812877
0.015757563 -0.07733442 -0.046788324 -0.038877293 0.06463355 0.24156678 0.013416121 -0.08753057
0.02158394 -0.24322435 -0.07901513 0.1773244 -0.25140378 -0.014166417 -0.15605615 -0.11309706
0.14394398 0.22180316 -0.11804553 -0.10206818 0.16715501 -0.24782254 -0.22862819 0.020265654
0.07056843 -0.16702932 -0.19258563 0.25487643 0.15716298 0.0033238353 0.07754546 0.12564144
-0.006240167 0.13438599 -0.041940335 -0.009735617 -0.22459885 -0.110524796 -0.1835057 0.21374294
-0.05188867 0.15001562 0.19769841 -0.039908502 -0.14883593 0.28480446 0.1658595 0.24604227
0.26573417 -0.16593066 0.021680702 -0.017551636 0.020828638 0.1774144 0.14453603 -0.14155714
0.20768997 0.08155192 -0.11090068 0.06431871 0.19214854 0.118238 -0.04794184 0.14930628
-0.017549759 0.109583795 0.27327135 0.03813218 0.18250377 -0.13588306 0.07848686 -0.24473347
-0.013979962 0.039674122 0.14562412 0.23667686 0.015575044 -0.02515862 -0.06897568 0.26012188
0.19846036 0.21440677 0.14566225 0.0938101 0.056432754 -0.07005921 0.093900524 0.1504597
0.22422247 -0.17513008 0.09955695 0.032085113 0.1387298 -0.21839225 -0.12155566 -0.061019845
0.09450026 -0.033480085 -0.02991525 0.025772762 0.01863701 -0.16013862 0.21232319 -0.07842184
0.26936024 -0.12708923 -0.13410936 -0.014721609 -0.15208508 -0.02529423 0.27311358 -0.05044762
-0.23868039 0.23326999 0.14518775 0.20098494 -0.16216154 0.14592597 -0.10245257 0.113823846
0.0022062706 0.078849666 0.03833579 0.06870778 -0.27884352 0.14240085 -0.049292173 -0.093335934
0.18659537 0.14641224 -0.15474717 -0.25253597 0.109049015 0.23994868 0.22392295 0.11874186
-0.24180406 -0.09802499 0.09896786 -0.14972797 0.12047166 -0.15960848 0.17463438 -0.06467518
-0.19627167 0.20970206 -0.030250797 -0.058392055 0.07428277 0.1378735 0.03633955 -0.23974729
0.14518149 0.19298324 -0.12835608 -0.19941296 0.19243515 0.2663818 -0.065017425 0.17617954
0.26373932 -0.07046779 -0.17147008 0.19914556 0.27980065 0.13722405 -0.05273471 0.119730234
-0.19417849 0.22624089 -0.1551402 0.02922057 -0.115518406 0.062380373 0.017618079 0.27280888
00000000: ae39 42be ba59 31be 0d6e 3a3d 88bf 8dbd
00000010: 14c2 a9bd 8e25 fa3b aeca 373d edd7 e5bd
00000020: 2e09 08be 0daf d53c 0bd9 453d 848b 4d3d
00000030: aef9 64be 6378 75bd 827b 123e 4acf 6fbe
00000040: ab02 2d3d 177c c2bd f9f1 943e 26a7 e63d
00000050: 806a 6d3e 406d 853e 4a16 37be 9a98 843e
00000060: 3793 0cbc 6a90 08bd baa7 b63d c8e6 693e
00000070: 2c56 10be b09f 073e 401a 3e3d d384 783e
00000080: 57d9 0d3e fb18 663e 14b3 ddbd aa1b bf3d
00000090: 013a 093b 178c 5b3d f99e 273e 9690 e23c
000000a0: f4b5 03be e8c3 1e3e 58e3 db3d 6338 b23b
000000b0: 7761 7cbe 96b4 fdbd f261 3ebd 6744 6bbd
000000c0: a20f 6ebe dd76 693d 13f9 bf3d 7db1 7cbe
000000d0: ca29 253e de13 443d 1619 193e 5579 01bb
000000e0: 083a 903d dbd8 1bbe 53f8 1b3d 2d4e 193d
000000f0: 0561 d93d 56ef b0ba 2a55 673d 3740 f4bd
00000100: 4193 873e 7fe2 d2bc f35c b6bd 0067 083d
00000110: c681 763d 8f2b 043e 4fd8 4f3e 69f0 27be
00000120: 0fb1 443e 4487 6bbe 4ca2 403d 216b 25be
00000130: 8b1c 573e 72d9 8f3e 11d4 913e 82ec 213e
00000140: 0116 813c 8261 9ebd 1da5 3fbd cc3d 1fbd
00000150: 985e 843d 485d 773e 4acf 5b3c 3a43 b3bd
00000160: ced0 b03c ce0f 79be afd2 a1bd 8794 353e
00000170: ffb7 80be 421a 68bc 2fcd 1fbe 6e9f e7bd
00000180: 0d66 133e 5e20 633e dbc1 f1bd 1f09 d1bd
00000190: af2a 2b3e 31c5 7dbe 821d 6abe 2804 a63c
000001a0: 2e86 903d bc09 2bbe 2b35 45be 2a7f 823e
000001b0: 55ef 203e b4d4 593b 27d0 9e3d 26a8 003e
000001c0: 517a ccbb 7b9c 093e a1c9 2bbd 2382 1fbc
000001d0: 3efd 65be d35a e2bd ebe8 3bbe 6edf 5a3e
000001e0: 3789 54bd b29d 193e 7471 4a3e 1977 23bd
000001f0: 7268 18be e4d1 913e 13d7 293e 81f2 7b3e
00000200: 4f0e 883e bae9 29be ba9b b13c 73c8 8fbc
00000210: d2a0 aa3c 1fac 353e 4101 143e 5bf4 10be
00000220: aeac 543e b104 a73d e51f e3bd 87b9 833d
00000230: 96c2 443e c426 f23d aa5e 44bd bfe3 183e
00000240: 83c4 8fbc 786d e03d 39ea 8b3e 7d30 1c3d
00000250: 45e2 3a3e ee24 0bbe b8bd a03d 699b 7abe
00000260: 360c 65bc 5581 223d 7d1e 153e 6b5b 723e
00000270: 782e 7f3c 7319 cebc 1f43 8dbd b22e 853e
00000280: 3139 4b3e 738d 5b3e 7c28 153e 821f c03d
00000290: 0826 673d 347b 8fbd eb4e c03d 1c12 1a3e
000002a0: 939a 653e 4d55 33be 84e4 cb3d ae6b 033d
000002b0: 2f0f 0e3e 38a2 5fbe 2df2 f8bd f2ef 79bd
000002c0: 5a89 c13d 6a22 09bd d410 f5bc 6621 d33c
000002d0: a5ac 983c 61fb 23be 406b 593e a19b a0bd
000002e0: 96e9 893e ae23 02be f753 09be e732 71bc
000002f0: 31bc 1bbe d835 cfbc 8bd5 8b3e 2aa2 4ebd
00000300: a268 74be 54de 6e3e 19ac 143e ffce 4d3e
00000310: ad0d 26be 9e6d 153e a7d2 d1bd 7a1c e93d
00000320: 1497 103b ef7b a13d fd05 1d3d aab6 8c3d
00000330: 94c4 8ebe 87d1 113e 97e6 49bd e926 bfbd
00000340: db12 3f3e 17ed 153e 0b76 1ebe 654c 81be
00000350: 1755 df3d 1bb5 753e 0f4c 653e ef2e f33d
00000360: 7c9b 77be 53c1 c8bd a9af ca3d 4a52 19be
00000370: d8b9 f63d 6870 23be 5bd3 323e 6c74 84bd
00000380: 71fb 48be 23bc 563e 85d0 f7bc 822c 6fbd
00000390: 9121 983d b62e 0d3e c8d8 143d 5080 75be
000003a0: 75aa 143e 669d 453e c76f 03be e932 4cbe
000003b0: b80d 453e 3263 883e db27 85bd 6968 343e
000003c0: d708 873e 6b51 90bd da95 2fbe d0ec 4b3e
000003d0: 0842 8f3e 7684 0c3e 5a00 58bd 2035 f53d
000003e0: bad6 46be b1ab 673e 13dd 1ebe fa5f ef3c
000003f0: ea94 ecbd 9082 7f3d ca53 903c 9bad 8b3e

EEGNet1.block2.1.weight f4 [16, 16, 1, 1]
0.18777478 0.21044014 -0.09426442 0.16964118 -0.08902814 0.19652209 -0.07456652 -0.29108593
-0.05057029 0.248595 -0.016175935 0.10207087 0.14233035 0.07249757 -0.036181048 -0.27869785
-0.14351033 0.09173785 0.029730076 0.11963189 -0.23722379 -0.0036770173 0.24410084 -0.02603782
-0.20459823 0.18936512 0.2236175 -0.09054111 0.024726572 -0.021388767 -0.17463055 -0.26477432
-0.052276183 -0.17020461 0.23856689 0.0927035 0.079803586 0.103444114 0.09858216 0.032238934
-0.042638406 -0.21627833 -0.11786219 0.07189927 -0.055360146 -0.18896897 -0.11016349 0.04707597
-0.1792359 -0.18312062 0.075653374 0.18444361 0.11777992 0.2147276 0.08168967 -0.052031316
-0.079753086 -0.2067938 -0.16290852 -0.08333907 0.074658126 0.11240411 0.0035888539 -0.1272569
-0.21700132 -0.19939415 -0.1347898 0.07579779 -0.0040482627 0.07372427 0.042673934 -0.039171003
-0.24967957 -0.15950999 -0.21907356 0.046498727 -0.010561917 0.25736403 -0.2408925 0.15784648
-0.085464716 -0.14172405 0.24571797 -0.10708558 0.13671324 -0.082639575 0.08379786 0.19771314
-0.23295783 -0.20927168 0.018153029 0.026855642 0.0016766536 0.21951362 -0.12653688 0.21697251
0.27906036 0.13759284 0.09873086 -0.015249632 -0.24846263 -0.0007492399 0.18494228 -0.31729004
0.15219659 0.22027157 -0.090831555 0.16113935 -0.040222526 0.20822509 -0.18253055 -0.020982679
-0.09955627 -0.09155105 0.019299714 -0.10264431 -0.17529432 0.07812321 -0.18020321 0.19429192
-0.18619414 0.039278295 -0.045466363 -0.19076131 0.21550304 -0.076241165 -0.19032666 0.06450012
0.08838263 0.25057733 -0.2272689 0.13944413 -0.061861355 -0.09531412 0.0084463265 -0.25691566
0.06737439 -0.1319313 -0.12065927 0.21626355 0.0135001615 -0.030216044 0.2652677 0.22129314
0.06984344 0.09808755 0.038617913 -0.21613762 -0.0023202954 0.005734791 -0.0074000745 -0.22749738
0.21328625 0.06345331 0.25859818 0.20106591 0.034607727 0.12510563 0.24613571 -0.20858811
0.20496441 0.102611125 -0.19571051 -0.0014679931 -0.28589877 -0.17425045 -0.24289049 -0.06840827
0.15472662 0.054409042 -0.033651695 -0.24114859 0.106623 -0.0818455 0.101535596 -0.1986477
-0.22571711 -0.049417235 -0.035706308 -0.06603147 0.23981048 -0.13056262 -0.18955523 0.26353678
-0.20719184 -0.19251059 -0.15897518 0.16478728 -0.16557473 0.010139128 0.002455453 -0.02618406
0.19563764 0.043038335 -0.15012288 0.12730114 -0.08128317 0.13933368 -0.107847475 -0.019685138
0.076915324 -0.014757368 0.13048907 0.14375466 -0.12261046 0.108661406 -0.042731244 -0.080496036
-0.12449372 -0.12741399 0.070581384 0.066111684 -0.017752651 0.23923387 0.1906623 -0.08670388
-0.1279609 -0.05703836 0.003852986 0.2644177 -0.09427612 0.13133648 0.04197816 -0.037109043
0.15635687 -0.17488898 0.15545677 0.17041814 0.1457547 0.15129498 -0.20536081 0.1280517
-0.2692667 -0.31429335 0.08025163 -0.06774705 0.19986007 0.04011721 -0.22023772 0.3190798
-0.21956131 -0.04782607 -0.034640018 0.08428261 0.20110443 0.22856215 0.087719746 0.1626774
-0.03967631 -0.13307022 -0.26094127 -0.19205488 0.121132344 -0.2823983 -0.058109496 -0.099749655
00000000: 0848 403e 9f7d 573e b40d c1bd 6bb6 2d3e
00000010: 6354 b6bd 163d 493e 55b6 98bd 3709 95be
00000020: cb22 4fbd b08f 7e3e 6583 84bc 880a d13d
00000030: 0cbf 113e 9b79 943d 9432 14bd 7cb1 8ebe
00000040: 5ff4 12be 0ee1 bb3d 7d8c f33c 9001 f53d
00000050: cbea 72be 1dfa 70bb 92f5 793e 444d d5bc
00000060: 3382 51be eee8 413e fcfb 643e 9e6d b9bd
00000070: 618f ca3c 7f37 afbc 5ad2 32be 8090 87be
00000080: 8d1f 56bd 1e4a 2ebe e14a 743e 55db bd3d
00000090: 1070 a33d 82da d33d 72e5 c93d f90c 043d
000000a0: 9ca5 2ebd 1178 5dbe bb61 f1bd ed3f 933d
000000b0: 52c1 62bd 1581 41be 659d e1bd bbd2 403d
000000c0: 9e89 37be f983 3bbe 28f0 9a3d c9de 3c3e
000000d0: 9936 f13d 8de1 5b3e ea4c a73d ca1e 55bd
000000e0: 9655 a3bd c1c1 53be 7ed1 26be adad aabd
000000f0: 5ce6 983d 2034 e63d fa32 6b3b a24f 02be
00000100: 9835 5ebe fb2d 4cbe 5606 0abe df3b 9b3d
00000110: 4aa7 84bb c0fc 963d ddca 2e3d c671 20bd
00000120: 00ac 7fbe 9656 23be d254 60be 7375 3e3d
00000130: e40b 2dbc 38c5 833e 86ac 76be 82a2 213e
00000140: 2008 afbd 1c20 11be 7e9d 7b3e af4f dbbd
00000150: 8efe 0b3e f03e a9bd 369e ab3d 5075 4a3e
00000160: 7f8c 6ebe 514b 56be a9b5 943c 5d00 dc3c
00000170: 29c3 db3a 2ec8 603e e292 01be 0b2e 5e3e
00000180: 00e1 8e3e 23e5 0c3e 6833 ca3d 98d9 79bc
00000190: fd6c 7ebe a368 44ba 8261 3d3e d773 a2be
000001a0: 6cd9 1b3e df8e 613e e505 babd b701 253e
000001b0: 60c0 24bd f538 553e 4ae9 3abe dee3 abbc
000001c0: 28e4 cbbd 1e7f bbbd 6f1a 9e3c 2e37 d2bd
000001d0: 5b80 33be 10ff 9f3d 3187 38be 76f4 463e
000001e0: ada9 3ebe 47e2 203d f03a 3abd ef56 43be
000001f0: d4ac 5c3e 5424 9cbd fee4 42be a418 843d
00000200: f401 b53d ac4b 803e 2eb9 68be 71ca 0e3e
00000210: 5562 7dbd 0d34 c3bd 7662 0a3c 738a 83be
00000220: 96fb 893d 0019 07be 351c f7bd 3174 5d3e
00000230: c82f 5d3c a387 f7bc 2bd1 873e ab9a 623e
00000240: 140a 8f3d 20e2 c83d d12d 1e3d 2e53 5dbe
00000250: 1910 18bb eaea bb3b 537c f2bb 13f5 68be
00000260: b667 5a3e cff3 813d fb66 843e 39e4 4d3e
00000270: d5c0 0d3d b11b 003e 000b 7c3e 1f98 55be
00000280: 31e2 513e c825 d23d 5668 48be ad69 c0ba
00000290: 5361 92be b66e 32be 49b8 78be a319 8cbd
000002a0: a870 1e3e 04dc 5e3d 5cd6 09bd a8ef 76be
000002b0: 295d da3d 9d9e a7bd e5f1 cf3d 4d6a 4bbe
000002c0: 6322 67be ba69 4abd c740 12bd 823b 87bd
000002d0: e190 753e 35b2 05be c41a 42be 4bee 863e
000002e0: 192a 54be 7f21 45be 64ca 22be ffbd 283e
000002f0: 6c8c 29be 961e 263c aaeb 203b f47f d6bc
00000300: 3c55 483e f748 303d d0b9 19be 3b5b 023e
00000310: ca77 a6bd 7dad 0e3e 23df dcbd ba42 a1bc
00000320: c885 9d3d e3c8 71bc ed9e 053e 6c34 133e
00000330: 311b fbbd df89 de3d f506 2fbd 1bdb a4bd
00000340: 90f6 febd d078 02be f98c 903d 9065 873d
00000350: 026e 91bc b9f9 743e fa3c 433e ce91 b1bd
00000360: 2f08 03be 0ea1 69bd 6182 7c3b c261 873e
00000370: d713 c1bd 127d 063e 4bf1 2b3d a7ff 17bd
00000380: 041c 203e 1916 33be 0f30 1f3e 1882 2e3e
00000390: b840 153e 12ed 1a3e 1b4a 52be fc1f 033e
000003a0: 53dd 89be 0feb a0be f75a a43d f7be 8abd
000003b0: 1ea8 4c3e f251 243d ff85 61be 6d5e a33e
000003c0: aed4 60be 45e5 43bd b1e2 0dbd 5c9c ac3d
000003d0: 52ee 4d3e 320c 6a3e 69a6 b33d e894 263e
000003e0: a083 22bd 8f43 08be 189a 85be 09aa 44be
000003f0: 3c14 f83d 8396 90be 3904 6ebd 8c49 ccbd

EEGNet1.block2.2.weight f4 [16]
0.9364343 0.88232803 0.9996804 0.94829774 0.94585454 0.9344437 0.9447633 0.8774438
0.9309837 0.93738383 1.0004154 0.9389221 0.9262415 0.88841057 0.88240355 0.9759169
00000000: 29ba 6f3f 40e0 613f 0eeb 7f3f a4c3 723f
00000010: 8623 723f b437 6f3f 02dc 713f 28a0 603f
00000020: f354 6e3f 63f8 6f3f 9d0d 803f 335d 703f
00000030: 2a1e 6d3f e06e 633f 33e5 613f b1d5 793f

EEGNet1.block2.2.bias f4 [16]
-0.062229536 -0.06952039 -0.07525721 -0.09431564 -0.123592265 -0.10610261 -0.08574231 -0.102989316
-0.09389445 -0.05785429 -0.075354345 -0.082551 -0.09559426 -0.08653055 -0.12716922 -0.06052978
00000000: 66e4 7ebd b560 8ebd 7420 9abd 8f28 c1bd
00000010: f11d fdbd 534c d9bd aa99 afbd 10ec d2bd
00000020: bc4b c0bd 9ff8 6cbd 6153 9abd 8010 a9bd
00000030: ecc6 c3bd ee36 b1bd a638 02be 13ee 77bd

EEGNet1.block2.2.running_mean f4 [16]
-0.044281673 -0.032941367 -0.08104455 -0.07151372 -0.10587493 0.008860557 -0.030228324 -0.069460616
0.039113898 0.06571313 -0.051636208 0.0030800272 -0.05579754 -0.057061788 -0.08387779 -0.018797487
00000000: b360 35bd 87ed 06bd affa a5bd c975 92bd
00000010: f5d4 d8bd df2b 113c 64a1 f7bc 5e41 8ebd
00000020: e535 203d 9b94 863d 7d80 53bd 48da 493b
00000030: f68b 64bd 9fb9 69bd 1ec8 abbd 30fd 99bc

EEGNet1.block2.2.running_var f4 [16]
0.12110229 0.109967 0.11616515 0.14164433 0.25189188 0.17031538 0.20810354 0.07211614
0.13763489 0.136271 0.21381874 0.14700463 0.052246325 0.06369241 0.29413304 0.15859957
00000000: 7a04 f83d 6136 e13d ffe7 ed3d 360b 113e
00000010: f9f7 803e 2867 2e3e 1819 553e a0b1 933d
00000020: 29f0 0c3e a08a 0b3e 4df3 5a3e 6288 163e
00000030: 3e00 563d 2b71 823d 9b98 963e ed67 223e

EEGNet1.lin.weight f4 [100, 624]
-0.030495223 0.009100151 -0.067904904 -0.04256237 -0.0135862045 0.03924227 -0.01448846 0.012617681
0.024443956 0.058435556 -0.017579567 -0.018481342 0.016476216 -9.755031e-05 -0.018005153 0.04287771
0.028567351 -0.011764039 0.008238122 0.0017302794 0.026330618 -0.027743885 -0.0111840125 -0.002800893
0.008486413 -0.0017253613 -0.0007395333 0.03622222 -0.031328857 0.013952161 -0.044820912 -0.009149887
0.04323245 0.007719123 -0.101577185 -0.04585148 0.008016563 0.0055972477 0.06257065 0.015912801
0.05734831 -0.01382668 -0.050296947 0.009824888 0.003649865 -0.017630301 0.011167229 -0.0064245868
0.012984934 0.035303973 -0.035972446 0.019255197 -0.02989859 0.028282955 0.0019019229 -0.01389589
0.011895411 0.044445146 0.011852357 0.035003424 0.02442173 0.0220557 0.055796716 -0.04359103
0.03737201 0.075139515 0.05282556 0.014314133 -0.0582095 -0.003539683 0.044774435 -0.0068079084
0.0792203 0.0026745046 -0.009087501 -0.028532064 -0.0159992 -0.03591001 -0.0012707771 0.034797024
0.040894277 -0.03223328 0.01505154 -0.045824993 -0.024793418 -0.038892414 0.0143048465 -0.020259213
0.00573057 -0.050465133 0.057644185 0.014719489 0.0052171764 -0.03066362 -0.013403912 -0.043615345
-0.021831157 0.010713425 0.011818887 -0.015938008 0.03307761 0.0036666906 0.011849498 0.019152371
-0.031588227 0.014605503 -0.010260111 -0.048448168 0.033944115 0.0010996449 0.017089102 -0.002268613
0.038988486 0.00015833371 0.08662927 0.024787664 0.025774933 0.0076260646 -0.00010492609 0.016511958
-0.0016943066 -0.05563555 -0.014624951 0.012942448 -0.012094562 0.0007399638 -0.011562513 0.04710116
0.0101683885 0.047511436 -0.045739032 -0.0012985739 -0.015008671 -0.017940925 -0.0725527 -0.022146888
-0.035496354 0.016511038 0.08618528 0.02451361 0.040415276 -0.005846138 -0.052251317 -0.020036478
-0.03654807 0.05225335 -0.033908285 0.031116413 -0.016866984 -0.053420424 -0.013084539 -0.008815418
0.025774613 0.027472429 0.007039358 -0.06848451 -0.04111924 0.052309632 0.043949828 0.05766829
-0.017316092 -0.10433012 0.019632982 0.026190773 -0.03801901 0.014707734 0.056519337 0.032571103
-0.05585046 0.023617942 0.006876757 -0.02621747 -0.016011233 -0.028641932 -0.010138693 0.05371996
0.0064711072 0.08945563 0.010510945 0.06059071 0.020648371 -0.040260658 -0.026573235 -0.041851245
-0.022961 0.05790087 0.09767419 -0.013026207 0.0074707735 0.021032674 0.052531026 0.03968649
0.007871852 0.05641872 -0.028368937 0.0061977776 0.053475842 0.056910694 -0.035446107 -0.10473409
-0.05878373 -0.00019799174 -0.011946654 -0.058163796 0.01086605 -0.040736746 -0.02616502 0.032854047
-0.011143706 0.03158049 -0.041223824 -0.06098271 -0.05883626 -0.0073613264 -0.00055401097 0.0011292967
0.026805151 0.051642507 -0.010469889 -0.010627334 -0.03711863 0.02307852 -0.022219123 -0.03922006
0.019263431 0.0028256648 -0.046437446 -0.07238714 -0.019140527 0.016219646 0.046010178 -0.005278352
-0.009794385 -0.06349693 0.0042665005 -0.018731127 -0.048562616 0.045714706 0.033674397 -0.004772341
0.016382564 0.014627704 -0.0022872377 0.06630172 -0.033276714 -0.03479095 0.020108687 -0.031380273
-0.028972521 -0.04587031 0.05743868 0.021425974 -0.036194127 0.03857682 0.017132912 -0.046162866
00000000: 1ed1 f9bc cd18 153c ba11 8bbd e155 2ebd
00000010: ac98 5ebc 81bc 203d 0161 6dbc 64ba 4e3c
00000020: b13e c83c 1f5a 6f3d 0603 90bc 2f66 97bc
00000030: 21f9 863c ed93 ccb8 8b7f 93bc 8aa0 2f3d
00000040: 1406 ea3c f5bd 40bc 30f9 063c 8bca e23a
00000050: 4fb3 d73c 2547 e3bc 263d 37bc 308f 37bb
00000060: 990a 0b3c 8525 e2ba 3ddd 41ba c05d 143d
00000070: b052 00bd 9b97 643c 2296 37bd 68e9 15bc
00000080: 8214 313d b2f0 fc3b b307 d0bd c3ce 3bbd
00000090: e757 033c 1e69 b73b 0a25 803d 905b 823c
000000a0: 10e6 6a3d 4d89 62bc 2c04 4ebd 91f8 203c
000000b0: 9332 6f3b 6c6d 90bc c1f6 363c 5785 d2bb
000000c0: c3be 543c e69a 103d d857 13bd 13bd 9d3c
000000d0: e3ed f4bc a8b1 e73c f149 f93a 96ab 63bc
000000e0: f8e4 423c 1d0c 363d 6330 423c c05f 0f3d
000000f0: 1410 c83c 28ae b43c 198b 643d 828c 32bd
00000100: 6513 193d bfe2 993d 9d5f 583d d385 6a3c
00000110: 166d 6ebd 07fa 67bb 6665 373d e014 dfbb
00000120: 413e a23d be46 2f3b bee3 14bc 13bc e9bc
00000130: c110 83bc 6016 13bd 3490 a6ba 5387 0e3d
00000140: c280 273d 0b07 04bd bc9a 763c fdb2 3bbd
00000150: 911b cbbc a74d 1fbd e05e 6a3c a6f6 a5bc
00000160: 81c7 bb3b 87b4 4ebd 4f1c 6c3d 032a 713c
00000170: d9f4 aa3b 4632 fbbc 159c 5bbc 01a6 32bd
00000180: 41d7 b2bc 5d87 2f3c 01a4 413c 6d90 82bc
00000190: 637c 073d dc4c 703b 6624 423c 6fe5 9c3c
000001a0: a862 01bd eb4b 6f3c 061a 28bc 9671 46bd
000001b0: fc08 0b3d f621 903a 72fe 8b3c 03ad 14bb
000001c0: 64b2 1f3d 6206 2639 b06a b13d 800f cb3c
000001d0: f425 d33c 11e4 f93b c40b dcb8 1644 873c
000001e0: 7f13 deba 1ae2 63bd 7e9d 6fbc 900c 543c
000001f0: 4528 46bc 21fa 413a b270 3dbc 25ed 403d
00000200: 5099 263c 5a9b 423d da58 3bbd e934 aaba
00000210: eee6 75bc d9f8 92bc 8396 94bd 646d b5bc
00000220: a064 11bd 2842 873c e881 b03d c4d0 c83c
00000230: 7d8a 253d f690 bfbb 7a05 56bd 8a23 a4bc
00000240: 6eb3 15bd 9c07 563d 6ae3 0abd d9e7 fe3c
00000250: a12c 8abc 60cf 5abd 8960 56bc 8b6e 10bc
00000260: 4825 d33c dc0d e13c 6aaa e63b 9b41 8cbd
00000270: a66c 28bd a042 563d bc04 343d 9635 6c3d
00000280: 7ada 8dbc 08ab d5bd 59d5 a03c 088e d63c
00000290: d2b9 1bbd b5f8 703c d280 673d 4769 053d
000002a0: 74c3 64bd 6a7a c13c 6b56 e13b 05c6 d6bc
000002b0: fd29 83bc 7ca2 eabc c31c 26bc 7609 5c3d
000002c0: 950b d43b 8334 b73d 1936 2c3c f72d 783d
000002d0: c626 a93c 5ce8 24bd 1db0 d9bc 366c 2bbd
000002e0: b518 bcbc 7629 6d3d 6809 c83d df6b 55bc
000002f0: 64cd f43b b74c ac3c c62a 573d 4d8e 223d
00000300: f1f8 003c 5117 673d f965 e8bc ba16 cb3b
00000310: 7c09 5b3d 301b 693d f02f 11bd d47e d6bd
00000320: 35c7 70bd 019c 4fb9 e6bb 43bc 293d 6ebd
00000330: 8407 323c 93db 26bd 0658 d6bc f791 063d
00000340: 1794 36bc 8b5a 013d 50da 28bd 02c9 79bd
00000350: 4afe 70bd 4837 f1bb 0c3b 11ba e904 943a
00000360: 7a96 db3c 1887 533d e689 2bbc 451e 2ebc
00000370: b409 18bd 2a0f bd3c e104 b6bc 37a5 20bd
00000380: 58ce 9d3c ca2e 393b 3135 3ebd b53f 94bd
00000390: 98cc 9cbc 10df 843c 2b75 3c3d 07f6 acbb
000003a0: a178 20bc ae0a 82bd 00ce 8b3b 0572 99bc
000003b0: 98e9 46bd 583f 3b3d 2aee 093d 4c61 9cbb
000003c0: ba34 863c 0aa9 6f3c 7be5 15bb 32c9 873d
000003d0: 2a4d 08bd f580 0ebd f9ba a43c 9a88 00bd
000003e0: c857 edbc 82e2 3bbd d244 6b3d 8685 af3c
000003f0: 4b40 14bd ba02 1e3d 525a 8c3c 4615 3dbd

EEGNet2.block1.0.weight f4 [8, 1, 1, 64]
-0.10697444 -0.11830082 0.020402065 -0.112196304 0.012069886 -0.054972064 0.10125324 -0.07955812
-0.0833222 -0.044176325 -0.039999146 -0.027126122 -0.08667004 -0.050759938 -0.123000704 -0.09300094
0.031132914 -0.094950795 0.017630897 0.118029036 0.11715208 0.086385906 0.023261253 0.113967575
-0.05081147 -0.009106433 -0.09497973 -0.00020562214 -0.055451762 0.05462017 -0.045272224 -0.09376837
-0.048455827 0.06097705 0.0036743511 0.09476801 0.078404695 -0.04119355 -0.085533366 -0.03849067
-0.08161328 -0.061756615 -0.049532857 0.1524639 -0.030434268 0.11789564 -0.107971705 -0.0760766
-0.13779686 -0.050298117 -0.10862595 -0.020628469 -0.059821278 -0.08636293 -0.098793775 -0.04721153
-0.15985653 0.026129257 -0.07621616 -0.06340884 -0.031571243 0.018508213 -0.0430455 0.026200756
-0.042540655 -0.030201493 -0.034916203 -0.039069615 -0.14650126 -0.0021201293 -0.11298007 -0.13445659
0.034327876 -0.037686057 0.08378837 -0.104600705 -0.116692066 0.028372008 0.041058175 -0.093880266
0.013940819 0.11495037 -0.024788093 -0.06732744 -0.107227065 0.010753241 0.0023844407 -0.06574804
0.07174395 0.061442588 -0.08282924 0.10033259 0.08970899 -0.09802171 0.084729 -0.048554756
-0.064243875 -0.1209202 -0.007004115 0.0112307165 -0.027054574 -0.0050916 0.026525777 -0.13401747
0.09200728 0.056705594 -0.037765972 0.017034588 0.07543561 -0.08177135 -0.07495072 0.084150694
0.02089754 -0.007996042 0.029419536 -0.015664902 0.049494673 0.057649575 -0.03795405 -0.105028756
-0.029164268 -0.051316153 -0.082367174 0.06731217 0.09996382 -0.078840084 -0.106152356 -0.11259704
-0.062473882 0.063546926 0.12705936 -0.07930558 0.15123715 0.13554522 0.07863978 -0.041200068
0.12966214 0.014159461 0.1654195 0.053998142 0.13684486 0.027348755 0.027044699 -0.05244208
0.14183958 -0.10678004 0.0044612912 -0.028249562 0.0042651123 -0.0660847 0.050326232 0.1125812
0.080293216 0.0015891228 0.046886638 0.0010937923 -0.067114994 -0.09552898 0.062006723 0.13206267
0.07201948 -0.022989733 0.040175002 0.025360141 -0.10303646 -0.065416545 -0.06338206 -0.065144375
0.088611476 -0.0059308526 0.034489762 0.024123171 0.033253886 -0.008019644 0.105042085 -0.015668217
-0.012186626 -0.03407891 0.090441056 -0.058408678 0.074569345 -0.02909385 -0.10861667 -0.08286592
0.04246565 -0.072234064 0.06965839 -0.1130782 0.009055421 0.043055516 0.04363323 -0.057063274
0.16644664 0.16130686 0.17017025 0.19125564 -0.00734192 0.17625335 0.1772529 -0.024423108
0.12569332 0.16658108 0.18325567 0.0010932533 0.047430474 0.043236047 0.013725574 0.03706994
0.048458442 0.054928027 0.02349571 0.0041281586 0.0854664 0.09883712 0.05740067 0.040240597
0.021885632 -0.021853974 0.064553544 -0.046693802 0.118827 -0.026166616 -0.04049566 0.017219443
0.040544618 0.093366295 -0.07895439 -0.018748557 0.046658535 0.067776605 0.106255814 0.05980424
-0.09263923 -0.006181292 0.088424 0.0054441825 0.08028832 -0.08241271 -0.060289234 0.031837687
0.018130487 -0.011428451 0.039295495 0.023540784 -0.06464023 -0.08039249 0.12635508 0.08790275
-0.06598453 0.03580359 0.10845688 0.094389915 0.11585608 -0.04973676 0.10210421 0.06388247
00000000: 6a15 dbbd b347 f2bd 3b22 a73c 2dc7 e5bd
00000010: c5c0 453c 632a 61bd dc5d cf3d 5eef a2bd
00000020: d4a4 aabd 3cf2 34bd 25d6 23bd 9a37 debc
00000030: 1080 b1bd a7e9 4fbd cbe7 fbbd 4777 bebd
00000040: 740a ff3c 9075 c2bd ac6e 903c 35b9 f13d
00000050: 6eed ef3d 18eb b03d 628e be3c d567 e93d
00000060: b01f 50bd 2633 15bc bc84 c2bd 469c 57b9
00000070: 6321 63bd 66b9 5f3d 5e6f 39bd a209 c0bd
00000080: 9e79 46bd 12c3 793d 62cd 703b bb15 c23d
00000090: a492 a03d 91ba 28bd 1e2c afbd 65a8 1dbd
000000a0: dd24 a7bd 81f4 7cbd f7e2 4abd 7f1f 1c3e
000000b0: 4951 f9bc 4573 f13d 4520 ddbd 0cce 9bbd
000000c0: 9f1a 0dbe 6605 4ebd 4877 debd 09fd a8bc
000000d0: 2807 75bd 0cdf b0bd 6454 cabd e160 41bd
000000e0: 6eb1 23be 060d d63c 3817 9cbd 7edc 81bd
000000f0: d950 01bd 899e 973c 7a50 30bd f8a2 d63c
00000100: 1c3f 2ebd 1f69 f7bc 4b04 0fbd 7607 20bd
00000110: 6d04 16be def1 0abb 1862 e7bd fdae 09be
00000120: 639b 0c3d b25c 1abd 3d99 ab3d e538 d6bd
00000130: 40fc eebd 6a6c e83c 9e2c 283d 4c44 c0bd
00000140: 0868 643c 196b eb3d 6610 cbbc f8e2 89bd
00000150: dd99 dbbd 5d2e 303c 4744 1c3b e9a6 86bd
00000160: 7eee 923d 39ab 7b3d 60a2 a9bd 2c7b cd3d
00000170: 59b9 b73d 9bbf c8bd 6686 ad3d 5ae1 46bd
00000180: 4b92 83bd 03a5 f7bd c682 e5bb 0a01 383c
00000190: 8ea1 ddbc 70d7 a6bb 964c d93c e03b 09be
000001a0: 506e bc3d 2044 683d 7eb0 1abd 1f8c 8b3c
000001b0: fc7d 9a3d bd77 a7bd c37f 99bd 3357 ac3d
000001c0: 5131 ab3c d501 03bc 3d01 f13c ae53 80bc
000001d0: edba 4a3d f621 6c3d b575 1bbd 5119 d7bd
000001e0: e7e9 eebc e330 52bd 1fb0 a8bd f7da 893d
000001f0: d5b9 cc3d e976 a1bd 6866 d9bd 4799 e6bd
00000200: 9de4 7fbd e424 823d d91b 023e f76a a2bd
00000210: e9dd 1a3e 5ecc 0a3e e50d a13d 67c1 28bd
00000220: 27c6 043e 15fd 673c bb63 293e 282d 5d3d
00000230: 0f21 0c3e 7f0a e03c d88c dd3c 82cd 56bd
00000240: 653e 113e 7eaf dabd 0630 923b a06b e7bc
00000250: 5bc2 8b3b 6a57 87bd e122 4e3d f990 e63d
00000260: c570 a43d 1d4a d03a 340c 403d 945d 8f3a
00000270: 9673 89bd b3a4 c3bd c3fa 7d3d 703b 073e
00000280: f37e 933d f754 bcbc 8b8e 243d 12c0 cf3c
00000290: c804 d3bd 1cf9 85bd 74ce 81bd 6a6a 85bd
000002a0: ef79 b53d 9957 c2bb 2345 0d3d f59d c53c
000002b0: 3a35 083d d364 03bc 4e20 d73d a25a 80bc
000002c0: 6aaa 47bc 5496 0bbd 2939 b93d f03d 6fbd
000002d0: d0b7 983d 3a56 eebc 6b72 debd 9cb5 a9bd
000002e0: 76f0 2d3d 74ef 93bd 0fa9 8e3d 8b95 e7bd
000002f0: 305d 143c fb5a 303d c2b8 323d 2ebb 69bd
00000300: fd70 2a3e a02d 253e 1c41 2e3e 85d8 433e
00000310: 7d94 f0bb c27b 343e c981 353e f812 c8bc
00000320: c0b5 003e 3b94 2a3e 60a7 3b3e 7e4b 8f3a
00000330: 7546 423d 4818 313d 3be1 603c a6d6 173d
00000340: 5c7c 463d 36fc 603d 137a c03c 8145 873b
00000350: 0209 af3d 1e6b ca3d f71c 6b3d 53d3 243d
00000360: 7f49 b33c 1b07 b3bc a634 843d 0042 3fbd
00000370: 925b f33d 5f5b d6bc c7de 25bd ca0f 8d3c
00000380: 1d12 263d d436 bf3d d7b2 a1bd 9396 99bc
00000390: 051d 3f3d 76ce 8a3d a69c d93d 4af5 743d
000003a0: a3b9 bdbd 6f8c cabb a417 b53d 1d65 b23b
000003b0: 346e a43d ffc7 a8bd d8f1 76bd 3c68 023d
000003c0: 6386 943c 663e 3bbc 50f4 203d 9ad8 c03c
000003d0: 1962 84bd d1a4 a4bd 3a63 013e 5b06 b43d
000003e0: e622 87bd c9a6 123d a41e de3d 804f c13d
000003f0: f445 ed3d c6b8 4bbd 031c d13d d0d4 823d

EEGNet2.block1.1.weight f4 [8]
1.012512 0.90288633 0.97520506 0.99249595 1.0282708 1.0452342 0.9574956 0.9675065
00000000: fe99 813f 8f23 673f 0aa7 793f 3714 7e3f
00000010: 619e 833f 3cca 853f 6f1e 753f 82ae 773f

EEGNet2.block1.1.bias f4 [8]
0.011454325 -0.063144356 -0.0011484035 -0.016851658 0.009437503 0.001416011 0.027362972 -0.033937916
00000000: ecaa 3b3c d451 81bd 0786 96ba 7d0c 8abc
00000010: c29f 1a3c 7299 b93a 5028 e03c 7c02 0bbd

EEGNet2.block1.1.running_mean f4 [8]
0.0093988925 0.006813831 -0.007944944 -0.023590729 -0.020610973 -0.004796841 -0.027253233 0.008963568
00000000: d0fd 193c 8f46 df3b 832b 02bc 5841 c1bc
00000010: 58d8 a8bc d22e 9dbb 2c42 dfbc eedb 123c

EEGNet2.block1.1.running_var f4 [8]
112.717545 51.612778 81.011635 200.41165 132.43556 133.12117 244.85751 64.79039
00000000: 626f e142 7c73 4e42 f505 a242 6269 4843
00000010: 816f 0443 051f 0543 86db 7443 ae94 8142

EEGNet2.block1.2.weight f4 [16, 1, 26, 1]
0.004864834 0.08926404 0.09014407 0.158176 -0.05328008 -0.20863037 -0.17879805 -0.07119344
-0.08075119 -0.103904985 0.019511683 0.1487686 -0.005175256 -0.14000833 -0.17807211 0.13109241
0.030263605 -0.019917963 -0.041901488 -0.023038099 -0.10007544 -0.0014982228 -0.07174423 0.020272683
-0.16493137 0.014988369 0.048521496 -0.08468847 -0.06313608 0.13046657 0.0071137687 -0.00076296454
0.15506655 0.18999362 -0.08389023 0.10844522 0.036517356 0.15962788 0.06543834 0.16201752
-0.05576096 -0.16250362 -0.04019678 -0.029996503 0.19329762 -0.02556662 -0.17149734 0.10976996
-0.1421317 -0.101195306 0.2046761 0.13253425 -0.19213252 -0.107423045 -0.0035290916 -0.07629146
0.16392241 0.08646339 -0.008797732 0.17102113 -0.038444597 -0.05089713 -0.08145676 0.09072332
0.159427 0.081862144 0.11863468 0.12303476 -0.07855789 0.15226842 0.0062538967 0.19199832
0.009463833 -0.16356735 0.014317299 0.17162976 -0.033479206 0.056368522 -0.17353752 0.08679915
-0.106113814 -0.12719573 -0.10774778 -0.109607525 0.054284506 0.07708847 -0.11425003 0.19243836
-0.090841115 -0.050649785 0.17155905 0.19058709 0.104733564 0.13043253 0.15734452 0.0147834895
-0.14505112 -0.034259602 -0.13373955 0.09709393 -0.16026264 -0.033919673 0.08378167 0.09546999
0.034126416 -0.13155158 0.100077115 -0.10892541 0.11198881 0.23368622 -0.016227338 0.13071461
-0.10380588 -0.10181721 -0.10721271 0.05681286 -0.083000876 0.090024255 0.17846775 0.015075635
0.09136334 0.2305848 -0.13002893 0.21192524 0.06625158 0.064251 -0.13136023 -0.15113905
0.16068932 -0.15272747 -0.04113398 -0.0645016 -0.17214435 0.1561985 -0.04689211 -0.1468753
0.010745036 0.16473098 -0.1423769 0.043423645 -0.14382501 0.22741972 -0.044083312 0.18950954
-0.026345393 0.042945065 -0.014003833 0.07267484 0.042451855 0.083631344 0.06928643 -0.09662527
-0.07546836 0.13150056 -0.10268911 0.19652742 -0.20241669 0.0583434 -0.058899187 0.050987475
0.114508554 0.16616121 -0.08258544 0.028652051 0.06616771 0.105484635 -0.067000054 0.13543738
0.16950928 0.04327823 -0.07956961 0.07646091 0.12852399 0.15493152 0.13656233 -0.0049277414
0.27002332 -0.038932975 -0.003021902 -0.032538123 0.1395397 0.17776401 -0.16225529 -0.07422482
0.08989591 0.06563687 -0.17619641 0.20753291 0.074826665 -0.0048472 -0.12693714 0.034265876
0.18292756 0.18116982 0.0114081 0.18126091 0.04671509 -0.004965516 0.0037331032 -0.18504767
-0.0025183896 0.21108904 -0.057529703 0.0064075463 -0.02232206 0.087332055 0.12497777 0.0015703214
0.06580993 0.078383215 -0.07917836 0.11268084 0.0069719376 0.16011423 -0.06660927 -0.02014465
-0.14191279 -0.046430673 0.07725055 -0.051126182 -0.084161386 -0.05501663 -0.08372022 0.06653416
0.055517785 0.051523574 -0.16081274 -0.1965214 -0.17709284 -0.17934981 -0.101849526 0.035582725
0.017034957 0.010536632 -0.12689404 -0.07240765 -0.021171888 -0.060431585 0.0025301233 0.06608682
0.015507373 0.16479959 0.027413584 0.17273189 0.1311435 0.071156524 0.056379307 0.07271245
0.033315726 0.012586197 0.27077255 0.046673164 0.043699287 0.28167444 -0.109912366 -0.055240557
00000000: 2f69 9f3b 11d0 b63d 749d b83d e4f8 213e
00000010: 373c 5abd 33a3 55be d616 37be decd 91bd
00000020: e160 a5bd 23cc d4bd f7d6 9f3c cc56 183e
00000030: 3295 a9bb 585e 0fbe 8958 36be 173d 063e
00000040: 61eb f73c ff2a a3bc e5a0 2bbd 65ba bcbc
00000050: 5af4 ccbd 0460 c4ba a4ee 92bd e612 a63c
00000060: c5e3 28be c791 753c 7abe 463d 2671 adbd
00000070: 7d4d 81bd 0799 053e 9e1a e93b af01 48ba
00000080: c4c9 1e3e b08d 423e a4ce abbd 8718 de3d
00000090: 3993 153d 7e75 233e 8904 863d ece7 253e
000000a0: 9b65 64bd 5967 26be 61a5 24bd 3abb f5bc
000000b0: d0ef 453e 1771 d1bc 009d 2fbe 13cf e03d
000000c0: f98a 11be 7c3f cfbd 9d96 513e 0fb7 073e
000000d0: 63be 44be 9d00 dcbd 5548 67bb b23e 9cbd
000000e0: 47db 273e b813 b13d 5d24 10bc 2a20 2f3e
000000f0: 1578 1dbd 8279 50bd cdd2 a6bd 26cd b93d
00000100: d540 233e 57a7 a73d bdf6 f23d a6f9 fb3d
00000110: f6e2 a0bd 41ec 1b3e 7ded cc3b 359b 443e
00000120: 310e 1b3c 337e 27be 1b93 6a3c b6bf 2f3e
00000130: 7e21 09bd aee2 663d d2b3 31be c1c3 b13d
00000140: 3352 d9bd 993f 02be deaa dcbd e979 e0bd
00000150: 6e59 5e3d 8fe0 9d3d ebfb e9bd 900e 453e
00000160: e80a babd 2676 4fbd 2dad 2f3e 4329 433e
00000170: 8d7e d63d 1b90 053e ec1e 213e 7336 723c
00000180: 4888 14be cc53 0cbd 05f3 08be 2fd9 c63d
00000190: e41b 24be 5bef 0abd b995 ab3d c585 c33d
000001a0: 24c8 0b3d 75b5 06be 3bf5 cc3d 4914 dfbd
000001b0: 645a e53d 714b 6f3e 32ef 84bc 0dda 053e
000001c0: 2d98 d4bd 8b85 d0bd 5692 dbbd 9ab4 683d
000001d0: 5dfc a9bd a35e b83d 40c0 363e ccff 763c
000001e0: b41c bb3d 6c1e 6c3e 4e26 05be ee02 593e
000001f0: e9ae 873d 0796 833d 4c83 06be 32c4 1abe
00000200: be8b 243e 9764 1cbe 1b7c 28bd 6a19 84bd
00000210: 9c46 30be 80f2 1f3e f111 40bd 7b66 16be
00000220: f30b 303c 3daf 283e 40cb 11be fedc 313d
00000230: dd46 13be b7e0 683e b490 34bd ca0e 423e
00000240: 4bd2 d7bc 2ae7 2f3d 5570 65bc 8cd6 943d
00000250: ffe1 2d3d e946 ab3d 0be6 8d3d 78e3 c5bd
00000260: 288f 9abd 15a8 063e ab4e d2bd 7c3e 493e
00000270: 5246 4fbe 7df9 6e3d 4640 71bd 3ed8 503d
00000280: 7683 ea3d 2a26 2a3e 8e22 a9bd b5b7 ea3c
00000290: f082 873d 5408 d83d 5337 89bd 19b0 0a3e
000002a0: d793 2d3e 8344 313d 64f5 a2bd 8a97 9c3d
000002b0: cb9b 033e 5ea6 1e3e ffd6 0b3e e478 a1bb
000002c0: 7f40 8a3e 2f78 1fbd 1a0b 46bb b246 05bd
000002d0: 7fe3 0e3e c507 363e 4026 26be 2f03 98bd
000002e0: 591b b83d a06c 863d d56c 34be 8283 543e
000002f0: b93e 993d 43d5 9ebb cffb 01be 605a 0c3d
00000300: 5d51 3b3e 9584 393e 0ae9 3a3c 769c 393e
00000310: 5258 3f3d c4b5 a2bb 14a7 743b 237d 3dbe
00000320: 910b 25bb ba27 583e 44a4 6bbd 65f6 d13b
00000330: c1dc b6bc 26db b23d 58f4 ff3d 3ed3 cd3a
00000340: 5bc7 863d 6187 a03d 4428 a2bd 36c5 e63d
00000350: da74 e43b fcf4 233e 716a 88bd 6506 a5bc
00000360: 9651 11be 172e 3ebd 8935 9e3d b069 51bd
00000370: ce5c acbd 1e59 61bd 8275 abbd 1043 883d
00000380: 9e66 633d 620a 533d 18ac 24be e83c 49be
00000390: d357 35be 7aa7 37be 7c96 d0bd 31bf 113d
000003a0: e58c 8b3c d6a1 2c3c 83f0 01be 764a 94bd
000003b0: ab70 adbc 1c87 77bd 6dd0 253b 8758 873d
000003c0: a312 7e3c 39c1 283e 7492 e03c a1e0 303e
000003d0: 7b4a 063e 83ba 913d fded 663d 44ea 943d
000003e0: 1276 083d 5636 4e3c b3a2 8a3e 5c2c 3f3d
000003f0: 06fe 323d a237 903e bc19 e1bd ec43 62bd

EEGNet2.block1.3.weight f4 [16]
0.9650489 1.053279 0.9488684 0.9420514 0.99759465 0.9633407 0.96505255 1.0148275
0.99639815 0.9850282 1.0340084 1.0477722 1.0558743 0.9495098 0.98653615 0.9747838
00000000: 720d 773f d9d1 863f 0ae9 723f 482a 713f
00000010: 5d62 7f3f 7f9d 763f af0d 773f dee5 813f
00000020: f313 7f3f cf2a 7c3f 635a 843f 661d 863f
00000030: e426 873f 1313 733f a28d 7c3f 6e8b 793f

EEGNet2.block1.3.bias f4 [16]
-0.042097446 -0.010168619 -0.040042877 -0.009153912 0.04137807 0.042236224 0.019446021 0.12754823
-0.0879744 0.07602287 0.048102684 0.048133764 0.019080168 -0.010809792 0.012002672 0.003127397
00000000: 5f6e 2cbd 489a 26bc 0004 24bd 4afa 15bc
00000010: 0d7c 293d e4ff 2c3d 434d 9f3c 019c 023e
00000020: ec2b b4bd e1b1 9b3d 5207 453d e927 453d
00000030: 034e 9c3c 8e1b 31bc dba6 443c 04f5 4c3b

EEGNet2.block1.3.running_mean f4 [16]
-0.011062924 0.011995129 -0.03887504 -0.004296171 -0.0042340118 -0.0016796727 -0.019930908 -0.008532111
-0.006318142 0.016106712 -0.0016800218 -0.002627805 -0.03651755 0.0037517752 0.026752645 0.035660435
00000000: 4441 35bc 3887 443c 6f3b 1fbd e5c6 8cbb
00000010: 77bd 8abb 7728 dcba 2546 a3bc 44ca 0bbc
00000020: 6b08 cfbb 39f2 833c 2d34 dcba 4137 2cbb
00000030: 6d93 15bd 58e0 753b 5d28 db3c ad10 123d

EEGNet2.block1.3.running_var f4 [16]
0.29981142 0.22355393 0.4234088 0.17688042 0.45253325 0.22470461 1.8181711 0.30593687
0.3022352 1.3990041 0.46174794 0.8692152 1.8510535 0.18932168 0.60416216 0.87170756
00000000: e280 993e 52eb 643e 0ac9 d83e 2420 353e
00000010: 70b2 e73e f718 663e d5b9 e83f c2a3 9c3e
00000020: 92be 9a3e 9112 b33f 3a6a ec3e e384 5e3f
00000030: 52ef ec3f 8bdd 413e 5faa 1a3f 3a28 5f3f
