logs/pretext_task/version_0/checkpoints/epoch=3-train_loss=0.75-train_f1=0.44-val_loss=0.70-val_f1=0.50.ckpt (torch, 183470 bytes, 39 tensors)

block1.0.weight f4 [8, 1, 1, 250]
00000000: 8f24 81bc bfed 293d f89a 0e3d 79ea edbc
00000010: 9a40 16bd 918e 69bd d970 a5bd 37c1 fe3c
00000020: 3eb5 ef3c f517 a53c e607 88bd 8361 66bd
00000030: 58dd 11bd a346 59bc eabe 7bbd 5d17 9f3c
00000040: 4a6f 18bc 2bf2 f63c 99da 1e3c d6e7 dbbc
00000050: 4e3f 25bd db90 97bd 0726 4e3d 3d97 12bd
00000060: ec7f a33c cdee 49bc e064 3e3d 2c48 143b
00000070: 6530 57bd d0b3 5ebd 0228 0d3d 527e 3a3d
00000080: 5a9b af3c ba75 623d e001 803d e032 843d
00000090: e582 923d fb41 dcbc 68b1 503d 0fc0 05bd
000000a0: ee52 cebc 6ab8 953d f0ed 01bb fdaa 2fbc
000000b0: 7370 ff3c 176c bcba cae6 a0bc f568 41bd
000000c0: 9fcd 07bd edfa de3c e640 71bd 0840 58bd
000000d0: ce5e 553d 6999 6b3d 09fa 3bbd b1da f3bb
000000e0: 6589 5abd dcd9 e0bb 2a6c 88bc d1e2 4b3d
000000f0: 0ced 40bc 8b2d f3bc 8c38 7cbc 96b2 403d
00000100: a002 123d 8324 823c c1ca 07bc 7c67 eebc
00000110: 508c cb39 0217 503a 8ac7 6fbd 56ca ccbc
00000120: 6b73 2fbd 447a fabc cbe3 87bd c157 6ebd
00000130: 1c60 79bd f222 c6b9 8cf2 823c 986a 693d
00000140: 687b 50bd 2963 1e3d dafa ebbb 80f0 25bd
00000150: f37a 133d 8488 38bd 5bc9 11bd b778 603d
00000160: 40f8 20bb 5a63 493d b9cf 5fbd 61f5 8d3c
00000170: f81d d43b f446 f3bb 64e8 863d 6b38 f8bc
00000180: f72f 593c c817 223c 4024 8b3d c4fb 1ebc
00000190: 218c a13c 42f2 dc3b 3811 543d de2e 08bd
000001a0: ebd6 2bbd a927 683d 336b 4a3c dff1 eabc
000001b0: 01d6 823a c69e 6e3d 8a13 2e3d 356f 65bd
000001c0: d0ca 81bc d214 eabc b81e 343d e909 623d
000001d0: 09fd 59bc 3673 b83c 21a6 093d f641 6fbd
000001e0: 8a47 44bd 0ea5 153d 81c8 b83c 4277 0ebd
000001f0: 4dbb 1d3d d500 8b3c e7e0 cf3a 8731 c53c
00000200: dbc2 de3c ef7b 26bc 9036 fd3c c4ba 4a3c
00000210: 5276 7cbd cb75 eb3c 0f48 5dbc c735 553d
00000220: a23d 4dbd 24d0 51bd e042 a0bc 006f 093c
00000230: ee14 1fbd ff16 18ba 9e6e 36bd ea72 423d
00000240: 1ead b43b bea9 0f3d 4ef2 763d e34d d03c
00000250: 18a7 c43c 451d dc3c 0182 633c 61bd 27bd
00000260: 079b 5ebc f8dc 61bc ee50 13bd 9192 743d
00000270: 8564 ea3b 7d6f 20bc 4067 e83c f90e e3bc
00000280: b717 2f3d a7c1 693a ddd8 833c cba8 5b3d
00000290: 23f4 bc3c a5dc 553d dcdd 84bd b343 73bc
000002a0: 9976 c13c b024 72bc 95c1 94bd f9e9 37bd
000002b0: b38a d0bc f6cb a0bd f8bc 98bd 6f2a cd3c
000002c0: 801f 303d 94fb 7cbc 6cef 213c 7abe 56bc
000002d0: 0c5b 05bd f46e 4a3d 140f f83c 0ee7 433d
000002e0: d406 40bd f7af 203d 8cba 333d cf65 10bc
000002f0: 9fea 90bd adb3 f43a 9f64 61bc 2038 cbbc
00000300: 6d4a d23c cb9e 3a3d 51e2 b7bc 98a5 a3bb
00000310: 7677 c7bb 03f4 033d 6219 c83b b6dc 213d
00000320: 755a 65bc fac0 3d3d 6bac 693d a850 6a3d
00000330: 8c8a 003d 853f 603d 3794 043b 05c0 b63b
00000340: bdac 483d eb6f 85bc 1711 f73c d8a1 47bc
00000350: e89b 353d 7c48 94bd 4321 1abd 2832 90bd
00000360: 22db 6dbd a800 f4bb 631e ecbc 13ca c8bc
00000370: 9014 a03c 48e7 12bd 1afb 3a3d 68c9 7d3b
00000380: 7237 e0bb 4435 803c cbf7 e4bc 6bc5 51bd
00000390: d73b 753d 8872 b4bc fa1a ffbc 6c79 dbbb
000003a0: ad50 7f3d 1bb4 00bd c37c 843c 8266 763d
000003b0: 58b8 b53c 50f6 4a3d d0c5 64bd b9e9 6dbd
000003c0: f0a2 54bd bb79 4dbd be95 bb3b cafd 313c
000003d0: 59de 3abd 4c19 0bbd 4296 2cbc d507 38bc
000003e0: 90af 52bd 45f2 c7bb 35b0 1abd b9ea 6fbb
000003f0: 0afd e63c 3f81 3e3d 409d ee3c 26e3 2fbc
-0.015764503 0.041486498 0.03481576 -0.02904247 -0.036682703 -0.057020728 -0.080781646 0.031097991
0.029261228 0.020153025 -0.066421315 -0.05624534 -0.03561148 -0.01326147 -0.061461367 0.01942032
-0.009303877 0.030144772 0.009695672 -0.026843946 -0.040343575 -0.07400676 0.050329234 -0.035788763
0.019958459 -0.012325001 0.04648292 0.0022626026 -0.052536387 -0.0543707 0.034461983 0.045530625
0.021436382 0.055288054 0.06250358 0.06455016 0.071538724 -0.02688693 0.050950438 -0.032653864
-0.025186028 0.07310565 -0.001982566 -0.010721919 0.03118155 -0.0014375475 -0.019641299 -0.047219235
-0.03315508 0.02721926 -0.058899783 -0.05279544 0.052092366 0.05751935 -0.04589275 -0.0074418415
-0.053353686 -0.0068619084 -0.01665314 0.049776856 -0.011775266 -0.029684803 -0.015394341 0.047045313
0.035647035 0.01588655 -0.008288086 -0.02910208 0.00038823718 0.0007937999 -0.058539905 -0.024998825
-0.04283468 -0.030575879 -0.06635245 -0.058189157 -0.060882673 -0.0003779154 0.015984796 0.05698642
-0.05089894 0.038668785 -0.0072015347 -0.04051256 0.036005925 -0.045052066 -0.03559242 0.054802623
-0.002456203 0.049167015 -0.05464146 0.01732892 0.006473299 -0.0074242298 0.06587294 -0.03030034
0.013256065 0.009893365 0.067940235 -0.00970358 0.019720139 0.0067427466 0.051774234 -0.03324782
-0.04195301 0.056678448 0.01235466 -0.028679786 0.0009981991 0.058256887 0.042499103 -0.05601426
-0.015843779 -0.028574381 0.04397461 0.055185232 -0.013304957 0.022515874 0.0336057 -0.058412515
-0.047919787 0.03653436 0.022556545 -0.034781702 0.038508702 0.01696817 0.0015859873 0.024071468
0.027192524 -0.010161384 0.030909806 0.01237363 -0.061636277 0.028742692 -0.01350595 0.05205324
-0.050107606 -0.05122389 -0.019563138 0.008388281 -0.03883832 -0.00058017665 -0.044539087 0.04747287
0.0055138012 0.03507399 0.060289674 0.025427764 0.024005458 0.026869426 0.013885976 -0.04095209
-0.013586766 -0.013785593 -0.035965852 0.05971009 0.007153096 -0.009792206 0.028369546 -0.0277171
0.042747226 0.0008917101 0.01609462 0.05362777 0.023065632 0.052212376 -0.06487629 -0.014847684
0.023616122 -0.014779255 -0.07263485 -0.044900868 -0.025456762 -0.078514025 -0.07457918 0.025044648
0.04299879 -0.01544084 0.009883743 -0.013106937 -0.032557532 0.04942222 0.030280627 0.047827773
-0.04688151 0.039230313 0.043879077 -0.008813336 -0.070760004 0.001866927 -0.0137569 -0.024807036
0.025670255 0.045561593 -0.022446783 -0.0049941055 -0.006087239 0.03221513 0.0061065415 0.039517127
-0.013998617 0.046326615 0.057049196 0.057205826 0.03138213 0.054748077 0.0020229944 0.0055770897
0.04899286 -0.016288718 0.030159516 -0.012184583 0.044338137 -0.07240388 -0.037629377 -0.070408165
-0.05807031 -0.0074463673 -0.028823083 -0.024510419 0.019541055 -0.0358651 0.045649625 0.0038724784
-0.006842547 0.015650399 -0.027950188 -0.051213663 0.05987152 -0.022027269 -0.031140793 -0.006697824
0.062332798 -0.031421762 0.016172772 0.060156353 0.022182629 0.04955131 -0.05585271 -0.058084223
-0.0519132 -0.05016492 0.005724638 0.010863731 -0.045622203 -0.03395967 -0.010533871 -0.011232336
-0.05143696 -0.006101879 -0.0377657 -0.0036608411 0.02819683 0.046509977 0.029127717 -0.010735309

block1.1.weight f4 [8]
00000000: 3739 7d3f 507b 7b3f 7cc8 7d3f 936f 803f
00000010: 4f1c 823f 00a3 813f acaf 803f 29a9 7d3f
0.9891543 0.98235035 0.9913404 1.003405 1.0164889 1.0127869 1.0053611 0.9908624

block1.1.bias f4 [8]
00000000: dc35 163c b160 4d3c 957b ac39 3d9c 6ebb
00000010: 5fdb 54bb 1b31 44bb 11a1 983c 83fb c43b
0.0091681145 0.01253526 0.00032898472 -0.0036409043 -0.0032479388 -0.0029936496 0.01863149 0.006011428

block1.1.running_mean f4 [8]
00000000: c06f d73a 6a4d 773b 1181 e3ba 2de1 0b3b
00000010: 9d24 713b 93f4 d63a 8bfe 89bb ed38 e5ba
0.0016436502 0.0037735351 -0.001735719 0.0021343932 0.0036795505 0.0016399793 -0.004211252 -0.0017488279

block1.1.running_var f4 [8]
00000000: f45b 0b42 320f dd41 d1b6 1b42 72e3 b241
00000010: 1ee6 aa41 4328 5541 d715 c741 5653 0742
34.839798 27.63242 38.92853 22.361057 21.362362 13.3223295 24.885664 33.831383

block1.2.weight f4 [16, 1, 26, 1]
00000000: 6f11 a83c aa5d 1fbe 1f5f 0c3d 5bed 183e
00000010: 991e bd3d 6d6e b7bd 358a 243e 0e16 31be
00000020: d5ed 1ebd 9c7a 3a3e df1d 433e 43d5 28bc
00000030: 065b e1bd d8c7 8abd 5872 09bc e8c6 2d3d
00000040: f87a 8a3c 8912 2cbe 9691 d63c 23c9 ca3d
00000050: 29a6 38bd 4000 9c3d 096b aabd f055 a3bd
00000060: eae2 05bd 355a d83d 4311 9f3c 9af1 243e
00000070: 0b18 2bbe d0a0 7a3c 187b d13b 5708 d53d
00000080: 5b2a e9bc e9c2 133e 9bc3 063e e8ef fbbd
00000090: ff4c 0d3e c2fd 343e 3814 83bd 2bf9 263e
000000a0: 67cb 4e3e e156 ef3c bd8b b1bd 7afc 5e3d
000000b0: 1a25 55bd fb9c 42bd e7a3 b13c d270 b9bd
000000c0: 3667 e43c 6fbc 26be 971f 163e 31fd 26be
000000d0: 5951 0f3e bab3 a7bd ea84 98bd 0b88 2a3e
000000e0: e0b7 243a 7a3d 2f3e b8a6 183e af09 3f3c
000000f0: 9579 133e 4474 1a3e 46c4 a4bd 1551 8abc
00000100: ed56 0f3e 0715 4dbd a86e 21be 0b6f 1e3c
00000110: 9dbd 2f3d b6f1 b3bc 6b17 c3bb 9fb2 3a3c
00000120: 0d52 ac3d 58ed 2a3e 5a44 193d cf4a 4ebc
00000130: 5209 d2bd 3704 8ebb 89c1 3c3e 7c03 02be
00000140: 606e 293e 3b01 293e 585a e63d 6504 0c3e
00000150: 8a74 483e 86cd f2bb 5747 80bb 9bb3 fb3d
00000160: 8210 2e3e 24ab 013c c641 183e f0c7 8b3d
00000170: d347 b2bc 59c6 563d f419 33be 4e06 153e
00000180: 2c86 cb3c b557 9c3d 984b 333e 399c eebd
00000190: 1af0 8f3c 4811 403e e0fb 25be 395e 753d
000001a0: 805f 83bd 7d25 483e 7c3a 8a3c 777b e0bd
000001b0: b711 a9bc 1491 01be dac8 303e fdfe 0f3e
000001c0: e86a 0abe 4ce9 433e 0d09 133e 2e00 93bd
000001d0: 1321 3dbe b483 09be 1062 6d3d 9ee0 f2bd
000001e0: 43c0 16bd 6a04 093e 74ba 6a3d d8a1 d63d
000001f0: fa1d 0ebe ba4e 4e3d d6ee cf3d 912f c83d
00000200: d51a cdbd 9c35 813d 0bc5 6ebd ff5e b2bd
00000210: b5af 04be 8f7f e8bc 667e ecbd 4d93 3b3d
00000220: e5e4 49be 09a5 d33d 62d0 a43d f827 7abd
00000230: b43f 6f3c 674d f2bd 4a1b febc cdd5 483e
00000240: 0c9e 20bd 4f0d d5bd b7fd 3d3d c784 393e
00000250: 31f3 613c 2f86 51bd d372 6e3d 1317 d53c
00000260: e0c7 0cbe add4 ddbd b3fb eebd 108e 42be
00000270: 0863 31be 4864 773d e960 cd3d 35fa d83c
00000280: acc4 11be 8a1c 3bbe 2712 33be 43e7 39be
00000290: 2fdd 053e 295f 343e 2d24 b73d 86ac 473e
000002a0: 5767 2c3d cb84 903d 9823 26be 8495 f9bd
000002b0: 7dcd 3bbe a14c 4b3e 0a97 613d beef d03d
000002c0: 9832 19be 361e 77bd b66b 2d3e dc04 19be
000002d0: 1f2f 2d3e 1323 eb3d 1392 debc df45 5bbd
000002e0: 12d8 a43d 03c8 0cbe 1752 253e 6377 ae3d
000002f0: 266c ef3d 6c38 3f3e 294f 603d 2c20 9cbd
00000300: edc4 14be 4644 83bd ff23 99bd eaee 7a3d
00000310: 715e d4bd bf22 8d3c 920e b1bd bb6d bebd
00000320: 179f 94bd 0eaf d23d 286d 303e fe3c 60bd
00000330: a1ce 3dbe 660c d8bd d463 37be cf98 3c3e
00000340: 23a3 36bc b810 2fbb adf1 a43c 2043 f3bd
00000350: d7df babd d97a 2bbe 9355 29be 507a 42bd
00000360: d075 063e e6c8 21bd e5e7 e6bd 999b cf3d
00000370: 920b 3abe b84e 313d de70 2b3d 7eb4 2e3e
00000380: 317a 97bc acc2 17bd aca4 00be 6aab ccbc
00000390: aa36 293e de1b 24be f17b 42bc 3aab 95bd
000003a0: 627b cf3b 1e20 e6bd 7c51 853d 0e79 193e
000003b0: 722c cdbc 1df9 ac3d 9810 b33c daa8 a9bb
000003c0: 4c80 f6bd 558d 9ebc b204 7bbd ba2c ff3c
000003d0: 7c31 113e 7e76 93bd a6a8 073e c299 0f3e
000003e0: 6c92 e53d c0bc 20be 0a7b 213e cefe 703d
000003f0: 6d90 28be b7bc 3a3e 50da 12bb 963b 373e
0.020516125 -0.15563074 0.034270402 0.14934294 0.09234352 -0.08956609 0.16068347 -0.1729357
-0.038801033 0.18210834 0.19054364 -0.010304752 -0.110036895 -0.067763984 -0.008389078 0.04242602
0.01690434 -0.16803946 0.026192468 0.09901645 -0.045080338 0.07617235 -0.083211966 -0.07975376
-0.032687105 0.105640806 0.01941741 0.16107789 -0.1670839 0.01529713 0.0063928477 0.10401981
-0.02846258 0.14429821 0.13160555 -0.12301618 0.13798903 0.17674926 -0.06400341 0.16305988
0.2019478 0.029216232 -0.08669231 0.05444 -0.052037336 -0.04751299 0.0216846 -0.09054722
0.027881246 -0.16282819 0.14660488 -0.16307522 0.13995875 -0.08188577 -0.07447226 0.16653459
0.0006283503 0.17113295 0.14907348 0.011660024 0.14401849 0.15083414 -0.08045249 -0.016884366
0.13998003 -0.05006888 -0.15764868 0.009670029 0.04290544 -0.021965843 -0.0059537194 0.011395126
0.084140874 0.16692102 0.0374187 -0.012591078 -0.10255684 -0.0043339985 0.18433203 -0.12696642
0.16546011 0.16504376 0.112477005 0.13673551 0.19575706 -0.007409754 -0.0039147544 0.122901164
0.16998485 0.007914338 0.1486884 0.068252444 -0.021762764 0.052435253 -0.17490369 0.14553186
0.024844252 0.07633916 0.17509305 -0.11650891 0.017570544 0.18756592 -0.16209364 0.05990431
-0.064146996 0.1954555 0.01687359 -0.10961049 -0.02063833 -0.12652999 0.17264119 0.14062114
-0.13517344 0.19131964 0.14358921 -0.07177769 -0.18469648 -0.13429147 0.057954848 -0.118592486
-0.03680445 0.1338059 0.05730672 0.10480088 -0.13878623 0.05036805 0.10152976 0.097746976
-0.100148834 0.06309053 -0.058293384 -0.08709525 -0.12957652 -0.028381137 -0.11547546 0.045794774
-0.19716223 0.10334212 0.08047558 -0.061073273 0.01460259 -0.118311696 -0.031018872 0.19612809
-0.039213225 -0.10402929 0.04638454 0.18117057 0.0137908915 -0.051153358 0.058214974 0.02601198
-0.13748121 -0.1083158 -0.116691016 -0.18999505 -0.17322934 0.06039837 0.1002825 0.026486496
-0.1423518 -0.18272606 -0.17487393 -0.18154626 0.13072656 0.17614426 0.08942447 0.19499406
0.04209074 0.07056578 -0.16224515 -0.12186721 -0.18340106 0.1985345 0.055075683 0.10201977
-0.14960706 -0.060331546 0.1693562 -0.1494326 0.16912507 0.11481299 -0.027169263 -0.05353343
0.08049025 -0.13748173 0.16144596 0.08518865 0.116905496 0.18673867 0.054762993 -0.07623324
-0.14528246 -0.064095065 -0.07477569 0.061263002 -0.10369576 0.017228482 -0.08645357 -0.09298273
-0.072569065 0.10287295 0.1722914 -0.054745667 -0.18535854 -0.1054924 -0.17909175 0.18417667
-0.011147293 -0.0026712846 0.020134771 -0.118780375 -0.09124725 -0.16746081 -0.1653655 -0.047479928
0.1313088 -0.039498232 -0.11274699 0.101371 -0.18168476 0.043287963 0.041855685 0.1706104
-0.018490883 -0.037050888 -0.12562817 -0.02498408 0.16524759 -0.16026255 -0.01187037 -0.073080495
0.006331847 -0.112365946 0.065096825 0.14987585 -0.025045607 0.08445952 0.021858498 -0.0051775994
-0.120361894 -0.019354502 -0.061283775 0.031149257 0.14179033 -0.07200335 0.13247928 0.14023498
0.112095684 -0.15697002 0.15769592 0.05883675 -0.16461344 0.18236051 -0.0022407956 0.17893824

block1.3.weight f4 [16]
00000000: 336b 7b3f 19c4 803f 45fd 7a3f b7ed 7e3f
00000010: 4a6c 7c3f d81d 813f ff3f 813f df74 7f3f
00000020: 7160 803f 58b9 823f bff0 803f c76f 823f
00000030: 70d5 7d3f 1d62 813f 3a67 803f d04a 7c3f
0.9821045 1.0059844 0.9804271 0.99581474 0.98602736 1.0087233 1.0097655 0.99787706
1.0029432 1.0212812 1.007347 1.0190362 0.99153805 1.0108067 1.0031502 0.98551655

block1.3.bias f4 [16]
00000000: 3087 c2bb efb8 baba ad3b 29bc 63ca 11bc
00000010: 3fde 3e3c 91fb cdb9 edc5 323b 9e48 503a
00000020: d7c7 f2ba daa0 c73c c32d 493b 4759 933c
00000030: bc26 a73b e6ba 9abc a4b7 00bc 8469 aebc
-0.0059365258 -0.0014245788 -0.010329169 -0.00889835 0.011649667 -0.0003928808 0.0027278617 0.0007945391
-0.0018522692 0.024368692 0.0030697442 0.017986907 0.005101053 -0.018887948 -0.007856283 -0.021290548

block1.3.running_mean f4 [16]
00000000: f457 623a 8e88 2f3b 5c89 623b 2711 e23b
00000010: 2a67 033a e52f 9dba 5a98 3fb9 833a e339
00000020: b1c0 0039 583c 0e3a 7156 cb39 9158 16b9
00000030: 3c1e d23b b60b 36bb cb99 7737 c9cf b0b9
0.0008634322 0.0026784274 0.0034566736 0.0068990174 0.0005012626 -0.0011992423 -0.00018271935 0.0004334041
0.00012278814 0.0005425862 0.0003878358 -0.00014338108 0.0064122956 -0.0027777976 1.4758155e-05 -0.00033724148

block1.3.running_var f4 [16]
00000000: ad3c 173f 9ef8 293f a339 323f 0713 7d3f
00000010: f611 1c3f c75a 3c3f e2c9 2a3f d8aa 1d3f
00000020: 28dd 2f3f 23fe 3a3f 2057 173f 42c8 3b3f
00000030: 4033 613f 53cc 313f bfa5 213f 3ca4 3f3f
0.5907696 0.66394985 0.69619197 0.9885716 0.60964906 0.73576015 0.667143 0.6158881
0.6869683 0.7304403 0.5911732 0.73352444 0.87968826 0.694524 0.63143533 0.74859977

block2.0.weight f4 [16, 1, 1, 63]
00000000: adfc 63bd 5fac 413d 2f90 603b c1fb 4d3d
00000010: 90a7 dbbc 0ac3 aa3c b109 9dbd cc0d debd
00000020: a129 a2bb cc51 583d 8f78 65bc 3e0c b43b
00000030: e365 98bd 99c0 b03d ba49 6e3d 23fb a9bc
00000040: 144f a9bd 2e25 6fbc ee95 413d 977a a33d
00000050: 2488 33bd 0de4 b83c afcf 693d b218 503d
00000060: 00c7 b23d 0de6 173d 6fcf 80bd 5170 ae3b
00000070: a2fd d4bd a3a4 5e3d 9183 993d bce6 98bd
00000080: 168c 01be aa60 aabd 3691 d63d da91 d03d
00000090: 9e8e e2bd d548 78bd 5cd0 9d3d 3dfa 7cbd
000000a0: 12a7 663a 1e95 b63d 67d8 4e3d e5af 6c3d
000000b0: 4cdd d6bd 5ed3 64bd 6981 8cbd 4d30 943b
000000c0: de4a 10bd e7fc 5e3d d964 013e 93f8 b63d
000000d0: 9661 cabc c7a8 8dbd 8b8f 83bd 9e16 cb3d
000000e0: ae5b 8fbd ffaf 853c 6606 8ebd cdaf 04be
000000f0: 1bee a83d 80b2 933d 7d49 783d 2669 33bd
00000100: 05cc ccbd 418f ebbc d845 8a3d 2158 adbb
00000110: 361a bebd 5553 5abd ce59 9dbb 7124 91bc
00000120: e864 f83c 0108 f9bc 872d 383c 23c8 ff3d
00000130: c432 023e 6721 d13b d5c4 953d 5d11 b83d
00000140: f256 cbbd f75d bfbd b270 d3bc 04b0 d23d
00000150: c4fd 743c 6979 91bc e0bc d43d ae9b f33d
00000160: 3f77 6bbd 1187 aabd 067b a8bd 6fc1 cbbd
00000170: a270 c43d 2803 d43d cedf de3d 4f91 e1bd
00000180: 21fd 81bc 7230 8fbd 4d29 d33d 436e 263d
00000190: a166 873d f464 aa3c 8b85 32bd 6c37 e3bc
000001a0: d0d8 7c3d 6436 86bd a2e4 8a3d 6205 cbbd
000001b0: baef dc3d d346 973b 1382 7d3d 36c8 b23d
000001c0: fe2b 963d db3a 933c 66e0 cfbd f12f 093c
000001d0: 4e26 a0bd 3e03 7bbd a90c 81bd 6232 bebc
000001e0: cccb afbd 6e6b 0b3e 5166 bf3c b8b5 2a3d
000001f0: 4446 cbbd 13ed 563d fd74 253d fba3 c8bd
00000200: e44e 433d e572 adbb 2a96 cbbc e608 bb3d
00000210: 257c c7bd f4ca 0abd 8f0c 043d 3c31 c7bd
00000220: 6d17 eabc d0e1 9bbc c363 7b3d 2e0d a2bd
00000230: 0407 643d 60e3 c4bd bebd 0cba 14f5 3cbd
00000240: 40ff 7bbd 061f f83d 445c ea3d d954 9e3d
00000250: 4a88 a53d 4349 58bd 75e6 02bd 502e ae3c
00000260: a128 a43c 1111 433d da33 043c f127 923d
00000270: b2b5 563d 7041 83bc c36a 42bd 17fc 96bd
00000280: da28 7a3d a427 16bd 46c0 f3bd a303 7cbc
00000290: 3dde c83d 3fac 7b3c 62bc bd3d cc35 513d
000002a0: 3e7e c5bc a7d4 58bd 27e6 8dbd 7672 80bd
000002b0: 99f7 5b3d 45a0 cc3d 576e 0c3c 2f72 5f3d
000002c0: 96bc 97bd 8dac de3b 0ea5 09bd 3ff3 21bd
000002d0: aa89 68bd e820 913d c1e1 fabc b592 29bd
000002e0: 7b03 e13d 6cd0 ea3d 0d43 a73a 5758 c53d
000002f0: 4869 ca3d 5da5 c93d 7b47 05bc 573f 0b3c
00000300: ed07 01be 4dca 4fbd 84cb e2bd 02a5 81bd
00000310: 6f00 13bc 4fab 623c 55df c73d ab28 cbbc
00000320: db18 ed3d 1a8f 5c3d b7da b4bc 76e0 96bd
00000330: afd9 9dbd 0108 363c 5b78 31bd a87e fd3c
00000340: 986d e8bd 86e8 b4bd dbce fbbd 1fcd a33d
00000350: 2d9b e53c baa7 b63b 4624 a43d 769e d93d
00000360: 5387 18bd 12ee f0bd 326f f63d 127b 63bd
00000370: bf27 bfbd 366d 0c3c 882d bc3d 3f00 d9bd
00000380: 21f8 e7bd 5fc2 033d 2c36 f73c 37f5 adbd
00000390: 0566 953d e90a 383c 8303 853d b7f6 3a3d
000003a0: 7227 05bd de5b 97bd e4b8 363c e20e 113d
000003b0: 4b35 abbd 1cd3 6d3d 4918 a23c dfe1 453d
000003c0: 21f7 72bd 11d9 c9bc 5290 503c aa1d d1bd
000003d0: 96cb 49bc 330f b9bd 1800 24bd 7464 ea3d
000003e0: 4d31 17bd ecfc f3bd fc4c 62bd 3b39 cd3d
000003f0: 2e69 d6bd 5309 4abd 2226 2fbd aeaa ec3d
-0.055660892 0.047283527 0.0034265628 0.05028892 -0.026813298 0.020844955 -0.07667864 -0.10842475
-0.00494881 0.052812383 -0.014005794 0.0054946234 -0.07441308 0.08630485 0.05817578 -0.020749634
-0.08267036 -0.014596267 0.047262125 0.079823665 -0.043831006 0.02256968 0.057082828 0.0508048
0.087293625 0.037084628 -0.06289565 0.0053234478 -0.10399939 0.05435623 0.074957974 -0.07465884
-0.12651095 -0.083192185 0.104769155 0.10184069 -0.11062358 -0.060616333 0.07705757 -0.061762083
0.0008798699 0.089151606 0.050499346 0.057784934 -0.10491428 -0.055865638 -0.068606205 0.0045223595
-0.03522765 0.054440405 0.12636127 0.089341305 -0.024704736 -0.06916957 -0.06423863 0.09916423
-0.069999084 0.016319273 -0.06934814 -0.12957688 0.0824854 0.072117805 0.06061696 -0.04380145
-0.09999851 -0.028754832 0.06751603 -0.005290047 -0.09282343 -0.053302128 -0.0048019653 -0.017717572
0.030321553 -0.030399324 0.011241323 0.12489345 0.12714678 0.0063821557 0.07312933 0.08987687
-0.09928693 -0.09344094 -0.025810573 0.102874786 0.014953081 -0.017758088 0.103875875 0.11894928
-0.05748677 -0.08326543 -0.0822659 -0.09949004 0.095917955 0.103521645 0.10882531 -0.110140435
-0.015867772 -0.06991662 0.10310612 0.040632498 0.06611372 0.020800091 -0.043584388 -0.027736388
0.061730206 -0.06553343 0.067818895 -0.09913136 0.10787912 0.004616597 0.061891627 0.087295935
0.073326096 0.0179724 -0.101502225 0.0083732465 -0.07819806 -0.06128239 -0.06301243 -0.023217384
-0.08583793 0.136152 0.023364218 0.041677207 -0.099255115 0.052472185 0.04039477 -0.09796902
0.047682658 -0.0052932375 -0.024851877 0.091325566 -0.097404756 -0.033884957 0.03223854 -0.097261876
-0.028575623 -0.019028574 0.061374437 -0.0791267 0.055670753 -0.09613681 -0.000536885 -0.046132162
-0.061522722 0.12115292 0.114433795 0.07731027 0.08082636 -0.052804243 -0.031958062 0.021262318
0.020038905 0.047623698 0.008069003 0.071365245 0.052419372 -0.016022414 -0.047465097 -0.07372301
0.061074115 -0.036658898 -0.119019076 -0.015381726 0.098080136 0.015360891 0.09264447 0.051076695
-0.024108049 -0.052937176 -0.06928664 -0.06271832 0.053702924 0.099915065 0.008571229 0.054552253
-0.07409017 0.006795472 -0.033604674 -0.03953862 -0.05677191 0.070863545 -0.030625226 -0.041399676
0.10986992 0.114655346 0.0012761072 0.0963599 0.09883362 0.09845994 -0.008134718 0.008498988
-0.1260068 -0.05073004 -0.11073974 -0.06330301 -0.008972271 0.013834788 0.09759394 -0.024799665
0.115770064 0.05384741 -0.022076948 -0.07367031 -0.077075355 0.011110307 -0.04332767 0.030944183
-0.11349028 -0.08833413 -0.12295314 0.07998108 0.028028095 0.005574194 0.08014731 0.10625927
-0.03723843 -0.11764158 0.120329276 -0.05553729 -0.09333753 0.00857096 0.09188372 -0.1059575
-0.11326624 0.03216779 0.030177198 -0.08494037 0.07294849 0.01123307 0.064948104 0.04564544
-0.03250832 -0.07390569 0.01115248 0.035414584 -0.08359774 0.058062658 0.01978697 0.04831111
-0.05931771 -0.024639638 0.012729721 -0.10210736 -0.012316605 -0.09036102 -0.040039152 0.11444941
-0.03691225 -0.119134754 -0.0552492 0.100206815 -0.1046928 -0.0493253 -0.042760976 0.11555992

block2.1.weight f4 [16, 16, 1, 1]
00000000: 9360 fb3d a617 d6bd 2f5d 403e 3e41 553e
00000010: 59c3 bcbd f7b1 943d d3bf 2a3e 80be 963c
00000020: 1fa3 9f3d b3df 8d3d 8144 3a3e 9c48 f43d
00000030: 5415 053d 9968 3b3e 918e 78be 0873 1ebe
00000040: a051 8f3d 7c43 5ebe 6897 f6bd bdaa 553e
00000050: 238b 6b3d a039 fcbd 6470 f8bd 963e cc3d
00000060: e247 7bbe 7d61 62be 323b 55be 3375 4e3e
00000070: 9722 3ebe ad05 743d 6f38 6b3c f869 853c
00000080: 61bf 3c3e 8e4a 28be cedf 1f3e 17e6 5abe
00000090: d040 40be 180d d83d 397c 323d 70c2 803e
000000a0: 45dd 633e 1c9d b03d cc53 55be 8737 0d3e
000000b0: 1622 08be b08d 1c3e c98f 3abe 2e46 263e
000000c0: bd0f f4bd 83ff 713d c0d9 ce3c 1f3e 6d3e
000000d0: adef 98bd f260 3ebe bde5 80be 89b6 593e
000000e0: 0bd7 f13d f52b 993d 9e21 63bd 5a36 6cbe
000000f0: 718e d3bd 57ad 073d 6d3c 57be 0815 0bbe
00000100: 5748 05be 2293 2b3e b9e8 9abd 98fd 6ebe
00000110: ff58 09bd 61f9 9dbc bc42 c03d 2d30 ba3d
00000120: 67d9 66be 1653 763e b434 cbbd 5a9e 673e
00000130: 7188 c03d 8511 443e bb2a 1dbe bbf0 0fbe
00000140: e847 1d3c d22a ffbd 3281 06bd 56c3 36bb
00000150: 701e b3bc 2211 633e 29aa 413d d7e2 463e
00000160: f5a5 58bc bbd5 173e 8d94 eb3d 3055 623e
00000170: 6e3d cc3d 3e9d a93c 8125 73be a954 733a
00000180: 0a8e a33d 696e 4dbe 361a 393d 2a65 613e
00000190: 1555 57be 3ebf 643e c629 68bd 14cd acbd
000001a0: 7fe7 bebd 25d6 4c3d 09d3 c73d 4969 5f3e
000001b0: 7a5a d93d 13ab 603e 595e f437 49f2 65bb
000001c0: bcca 6d3e b02e b0bc a618 cd3d c4a2 f33d
000001d0: 2819 433c 2bfc 61be 3c64 04be 8f01 ae3d
000001e0: 795d 78bd 1ceb cd3d ac35 eb3c 212f 39be
000001f0: 09a5 4abd cb82 ae3c 162f 05bd 69c8 a1bd
00000200: d3c6 843d 4b7b b3bd 5608 a93d bf64 2e3e
00000210: ee09 adbd a938 78be 5f64 9c3d ca6b 3ebe
00000220: 3557 823d d526 6bbe a4b7 b6bc 824e 45be
00000230: a478 243e 7aeb 2e3e dbb1 153e 5636 87bc
00000240: 1fa5 f0bc dced 26be 5353 01be 6a9c 1a3d
00000250: 4414 ff3d 363e 90bd 305f a03c c43e 67be
00000260: 8a48 80be 0a78 623c b286 86bc daf5 d0bd
00000270: 3212 56be 262c a9bd 23ef 0e3e 03b4 693d
00000280: a0e2 0a3c 4ce1 83bd fe06 3a3c a1bd 6cbe
00000290: fd45 4cbe b4a5 313e 370e ff3d 2b51 103e
000002a0: 0bd3 9fbd 55e6 c6bd 1d05 77ba 421b 64be
000002b0: 455b 31be 0991 643e b708 dfbd 77df 713e
000002c0: a776 653e 599a 473d ceb1 793c 3d20 1c3e
000002d0: d8b7 a13d f10c 67be a09a 5ebe 47c1 54be
000002e0: b79b 6d3e 936e 6c3e 25eb b83d e36e 6cbe
000002f0: 5729 1cbe a746 1cbe f54c b73d d2b1 373e
00000300: c829 13be 0c52 40bc ebdd 2dbd 7894 ca3c
00000310: d84d 83bd a30e ba3c f7eb 253d cbea d0bc
00000320: 6744 42be 6a81 233e 328c aa3d 6981 72be
00000330: e711 08be 697b 053e e292 babd 35d7 c9bd
00000340: a302 b4bd 4567 033e 8ea5 d93c 04f9 093e
00000350: 16b6 debd 1438 1d3e 4548 24be 95f2 4d3e
00000360: 4f57 2bbe f32f 423e caa4 6b3e 27bc 19bd
00000370: ab5e 50be 4da5 fd3d ead8 a8bd 52ab 093e
00000380: 3d84 a33c e765 03be e4da 3ebe f71e 913d
00000390: bc8c 113d 21a8 d73d 615c 93bd 3b79 4d3d
000003a0: 9233 67be 1cf9 283e 38db 643e 6471 65be
000003b0: a2e1 623e d45a 39be 8730 6c3e cca0 fc3d
000003c0: 2b3f 94bd b164 d43d 1a2b 6e3d 814e 113e
000003d0: 8607 463e 5472 833e 7e06 09be 122b d3bd
000003e0: d22e 743a 9c92 1e3e fef5 443e 3c41 39be
000003f0: 21e1 abbd 48ca 0e3d 6f54 1cbd 9461 d4bd
0.122742794 -0.10453729 0.18785547 0.20825669 -0.09216947 0.072605066 0.16674738 0.018401384
0.07794785 0.06927433 0.18190195 0.11927912 0.032491043 0.1830162 -0.24273135 -0.15473568
0.069979906 -0.21705431 -0.12040597 0.20865913 0.057505738 -0.123156786 -0.12130812 0.09972875
-0.2453914 -0.22107501 -0.20823362 0.20161895 -0.18567882 0.059575725 0.014356717 0.016285881
0.1843238 -0.1643469 0.15612718 -0.21376835 -0.18774724 0.105493724 0.0435755 0.25148344
0.22252376 0.08623716 -0.20832747 0.13790713 -0.13294253 0.15288424 -0.18218912 0.16237709
-0.11917064 0.059081566 0.025250316 0.23168229 -0.074675895 -0.18591669 -0.25175276 0.21261038
0.11808594 0.07479087 -0.05545198 -0.23067608 -0.10329903 0.033124294 -0.21019144 -0.13582242
-0.13015877 0.16755345 -0.075639196 -0.23338926 -0.03353214 -0.019283952 0.093877286 0.0909122
-0.2254387 0.24055132 -0.09922162 0.22619 0.09401024 0.19147308 -0.15348332 -0.14056675
0.009599663 -0.12459339 -0.032838054 -0.0027887425 -0.0218651 0.22174504 0.047281418 0.1942247
-0.013223161 0.14827625 0.11502943 0.22102809 0.09972654 0.020704862 -0.23744775 0.00092823297
0.07986076 -0.2006165 0.045191012 0.22011247 -0.2102855 0.22338578 -0.056680463 -0.08437553
-0.09321498 0.05000891 0.09757049 0.21817507 0.1061296 0.2194026 2.9131e-05 -0.003508704
0.23221868 -0.021506637 0.10014467 0.118962795 0.011907853 -0.2206885 -0.12928861 0.08496391
-0.060636017 0.10054609 0.028712116 -0.18084385 -0.049473796 0.021302601 -0.032515608 -0.07899553
0.06483235 -0.08763751 0.08253543 0.17030619 -0.084491596 -0.24240364 0.07636332 -0.18595806
0.0636429 -0.22964032 -0.022304364 -0.1926823 0.16061646 0.17082015 0.14618628 -0.016505402
-0.02937561 -0.16301674 -0.12629442 0.037746824 0.12455037 -0.07043116 0.019576639 -0.22582537
-0.25055343 0.013822565 -0.01642165 -0.102031425 -0.20905378 -0.08260374 0.13958411 0.05705644
0.008476883 -0.06439456 0.011354206 -0.23119213 -0.19948573 0.17348367 0.12453883 0.14093463
-0.07803925 -0.09711901 -0.0009423064 -0.22276023 -0.17319973 0.22320952 -0.10890334 0.23620401
0.22408544 0.04873118 0.015240146 0.15246673 0.078963935 -0.2256353 -0.21738672 -0.20776854
0.23203932 0.23089056 0.09029225 -0.23089175 -0.15250145 -0.15261327 0.08950225 0.17938927
-0.14371407 -0.0117383115 -0.042447966 0.024728999 -0.06411332 0.022712057 0.040508237 -0.025502583
-0.18971406 0.15967336 0.083275214 -0.23682179 -0.13288079 0.13035358 -0.09110047 -0.098555006
-0.087895654 0.12832363 0.0265682 0.13473898 -0.10874574 0.15353423 -0.16043194 0.20112069
-0.16732524 0.18963604 0.23012081 -0.03753295 -0.20348613 0.12385044 -0.08244498 0.1344426
0.019960517 -0.12831841 -0.18638188 0.07085984 0.035534605 0.10530115 -0.07195354 0.050164443
-0.22578266 0.16501278 0.2234925 -0.22406536 0.22156385 -0.18101054 0.23065387 0.12335357
-0.07238611 0.10370768 0.058146574 0.14190103 0.19338807 0.25673163 -0.13381383 -0.103109494
0.0009314838 0.15485615 0.19234464 -0.18091291 -0.08392549 0.03486088 -0.03816646 -0.10370174

block2.2.weight f4 [16]
00000000: 4103 753f ffb3 763f 8110 763f 513e 773f
00000010: a061 793f 01ac 753f 2740 763f 8a25 753f
00000020: 7dde 753f 8278 783f e2ce 763f 5116 763f
00000030: d63a 783f 86da 783f 7f74 783f 5d5b 763f
0.9570809 0.963684 0.9611893 0.9657946 0.9741459 0.9596558 0.9619164 0.95760405
0.96042615 0.9705888 0.9640943 0.961278 0.96964777 0.9720844 0.9705276 0.9623316

block2.2.bias f4 [16]
00000000: 9b4b cebc bae4 f1bc 0548 d3bc 32d6 c3bc
00000010: c3fa 81bc 1031 27bd 10e6 06bd 8cff e9bc
00000020: 8221 dbbc e7cb afbc d54a 12bd 9a25 e9bc
00000030: 6a37 bdbc 1b7b 65bc 7eae 86bc 0119 01bd
-0.025182536 -0.02952801 -0.025791178 -0.023905847 -0.015866643 -0.040818274 -0.03293425 -0.028564237
-0.026749376 -0.021459533 -0.035715897 -0.028460313 -0.023097713 -0.014006401 -0.016440626 -0.031517986

block2.2.running_mean f4 [16]
00000000: 9c07 133b 7475 27bd 2934 84bc 287f aebc
00000010: 9a94 483a 7f54 c5bb b658 3fbc 534e 01b9
00000020: f839 323c b4fc 8abc 2bc2 e4b9 4de1 b9bc
00000030: 4f48 48bb 7fd6 96bc d65e 873c 80cc dfbb
0.0022434955 -0.040883496 -0.016138153 -0.021300867 0.0007651538 -0.0060220356 -0.011678865 -0.00012331577
0.010878079 -0.016966201 -0.00043632215 -0.02269044 -0.0030560677 -0.018412827 0.016524713 -0.006829798

block2.2.running_var f4 [16]
00000000: 9844 0f3f be00 123f 2a7c 123f bb1f 113f
00000010: f5b9 103f 4a45 0d3f a95a 103f 5cff 0a3f
00000020: 9d12 103f 741d 0c3f 2e77 103f 6a88 133f
00000030: 83a8 0b3f 9f84 0e3f facc 103f d2fa 0c3f
0.5596404 0.5703238 0.5722071 0.5668904 0.5653375 0.5518385 0.56388336 0.542959
0.562784 0.5473244 0.56431854 0.57630026 0.54554003 0.55671114 0.5656277 0.5507022

lin.weight f4 [2, 4960]
00000000: 7772 c13b eca5 633c b168 0d3c 48cf 013c
00000010: 44c4 0ebc 0b11 febb 6f30 ba3b e47b ecbb
00000020: 574f 003c 43a1 5ebc e46d 2e3c 6c30 0f3c
00000030: 5a71 643c dc6b 41bc 6be5 19bc fd95 12bc
00000040: 14d6 d33b e01a 7b3b dd7a 50bc 419d 863b
00000050: e16f 513b 412f 43bc a66f 86bb 8d4b 903a
00000060: 1bbe 0a3b f56f 4e39 a1da 01bc 7913 c7bc
00000070: 56f5 c03b 5ada d8bb 9037 543b 6e19 34bc
00000080: 7523 563b af2c 9b3b 054e 7abc e42c 543c
00000090: 8018 c53b 4543 673c d352 56bc 3283 733c
000000a0: 19f8 c13c 5024 65bb 0a9d 943c b460 45bc
000000b0: 1ee1 89bc f6b9 973a d80e ebb9 82b8 6a3c
000000c0: 14e5 85bb ff6b 3fbc 5b4b 713b 6657 a03b
000000d0: d392 22bb 8520 b8bb 647b 973b cb0b 0bbb
000000e0: 6506 833c 7b67 8ebc f883 3b3b 8ffc 603c
000000f0: 0fbe 943b 2389 303a 6dde 443c 69b8 b4bb
00000100: 1c04 73bc 2387 c43b 5032 da3b 8095 fe3b
00000110: 5e82 a03a 5c90 d33b d4b6 80bb f8d3 a3bb
00000120: 5fba e33a f426 23bc 9f36 d5bb 19cf 2cba
00000130: e5e5 65b9 1f2b a33b bfc8 803c 8c3a 603c
00000140: 5bac 1cbc 956c 153c b45f a2bb aa51 463c
00000150: 4157 d73a eedd ab3c ce77 e0b9 d0dd 5bbc
00000160: 2a04 f3bb f4ca 063a 9c36 513b 28c2 d4ba
00000170: 6112 2b3c d51f 42bc 36f7 043c 12f1 48ba
00000180: ea21 32bc 655e a8bb 6e91 e7bb 68f6 33bc
00000190: 53a3 6fbb cf51 5abb 156e 923b 75b0 333c
000001a0: 54b6 f63b 280a 4f3c 37f3 8cbb 324b 57bc
000001b0: bd80 323c bfc3 a93b b3dd 4bbc 71aa 04bc
000001c0: 20a7 123c 8372 22bc a47b a9bc 5e99 5b3c
000001d0: a420 96bc 561e 8aba 7680 9abc 6ade 80bc
000001e0: c321 81bb 97b0 af3c b22a 803c 6a0e f23a
000001f0: 1b69 22bb 8f75 993b 0bda 1d3c afc9 bebb
00000200: 35db d6ba 6ee7 28bb 76fc 4bbc 16ae 983c
00000210: b656 253b 84ce 863c a839 3a3c f820 1d3c
00000220: 28d2 1fbb 1260 6ebc 0ac7 29bb 3331 9a3b
00000230: e177 0a3c 84c4 0b3a 13e9 1fba 73f9 96bc
00000240: 3003 b33b b858 48bc 3767 0b3c debe 8e3b
00000250: 8cdb 0cbb 1752 643c b62c 83bc 792a 823b
00000260: a115 303c dd04 0cbc 2e21 86bb 72bd 993b
00000270: 99fc e83b 470c 8fbb 4597 6b3b 947a 34bc
00000280: dc66 f93b 74cd 803c 511d a1bb b8c8 2a3c
00000290: c88d bbbb 6d6a 21bc 06cf 163c 8155 813c
000002a0: fd14 a1b9 723c 19bc b11a 4a38 c61a e739
000002b0: dea4 273c 52bb 74bc 4e02 ee3b b9ab 16bc
000002c0: 8ba2 743a 0e6e 543c 7388 4fbb 8136 4ebb
000002d0: b9fb 2bbc f365 553a 345c 63bb e372 26bc
000002e0: 7c1f be3b 951e 8c3c b341 1fba e533 8d3c
000002f0: 7d3e f03b 3ff4 86bc 005c 89bc de7b 323b
00000300: 2a63 be39 e608 29bc 0d2b 3fbc 50fc 4e3b
00000310: e122 3ebb 3bcd a7bb e174 81ba 8079 d9bb
00000320: 0376 68bb e292 093a 484f bb3b 84c6 1a3c
00000330: 79cd 1dbb bec1 c2ba 37c6 dcbb 00c6 d03c
00000340: 4d1f 0c3c 8257 e63b 9c14 2f3c a893 5abb
00000350: 863a 2e3c 04ea c5b8 bbb5 a1bc d216 49bc
00000360: 5387 a7bc 8f0d 393b 09c1 8d39 947c 8bb8
00000370: 5e41 dfba e807 49ba 520c 6dbb c7ac d2ba
00000380: 395a 8d3c 0510 753c 432c f9bb 089c 4abc
00000390: ef3e 623b 13fe 03bc b54a 7ebc 6c63 a5ba
000003a0: cf08 853c 00b8 d9bb 06ca 3dbc 635b f33a
000003b0: 3da5 c0bb 0812 7c3c f56f 28bc 6559 23bc
000003c0: 5d33 f93b 8cbd b63b 6355 e13a 827d aabb
000003d0: 1659 20bb ce52 2dbb ae6d 2dbc ae14 0dbc
000003e0: 094c 4bbc 4ce7 99bb c13e 2a3c 1d19 7b3a
000003f0: add5 b7bb e977 ed3b 37b1 b93a de5b c23a
0.005903538 0.013894539 0.008630917 0.007922955 -0.008713786 -0.0077534965 0.0056820433 -0.0072169174
0.007831416 -0.0135882525 0.010646317 0.008739572 0.013943041 -0.011805501 -0.009393076 -0.008946893
0.006464729 0.003831558 -0.012724605 0.0041081016 0.0031957554 -0.011913122 -0.004102665 0.0011008844
0.002117044 0.00019687398 -0.00792566 -0.024301277 0.0058886213 -0.0066178264 0.003238175 -0.010992391
0.0032674943 0.0047355513 -0.01527739 0.012950156 0.0060148835 0.014115159 -0.01308127 0.014862822
0.023677872 -0.003496427 0.018141288 -0.012046982 -0.016830977 0.0011575806 -0.00044833752 0.014326217
-0.004086146 -0.011683463 0.0036818597 0.004893231 -0.0024806752 -0.005619111 0.0046228636 -0.0021216746
0.01599426 -0.017383328 0.0028612595 0.01373209 0.0045392583 0.0006734302 0.012015921 -0.0055151475
-0.014832523 0.005997555 0.0066588297 0.0077692866 0.0012245884 0.006456418 -0.003928045 -0.004999634
0.0017374269 -0.009958018 -0.0065067555 -0.0006592139 -0.00021924784 0.0049795057 0.015720723 0.013685834
-0.009562577 0.009120126 -0.0049552564 0.012104431 0.0016429202 0.020979848 -0.0004281387 -0.013419583
-0.007416268 0.00051419367 0.003192342 -0.001623218 0.010441394 -0.01184841 0.00811558 -0.0007665317
-0.010872344 -0.005138206 -0.007066897 -0.010984041 -0.0036565855 -0.0033312922 0.004468689 0.010967364
0.0075290594 0.012636699 -0.0043014544 -0.013140487 0.010894951 0.0051808055 -0.012442994 -0.008097277
0.0089509785 -0.009914997 -0.02068884 0.013403265 -0.018326111 -0.0010537605 -0.018860083 -0.015731055
-0.0039407923 0.02144651 0.015645359 0.001846743 -0.0024781886 0.0046832035 0.009634505 -0.0058223824
-0.0016392233 -0.0025772708 -0.012450328 0.018637698 0.0025228686 0.016455896 0.011366285 0.00959038
-0.0024386737 -0.014549272 -0.002590599 0.004705572 0.008451433 0.00053317123 -0.00061000994 -0.018429494
0.0054630265 -0.012228183 0.008508495 0.0043562492 -0.0021493165 0.013935587 -0.01601253 0.0039723483
0.010747344 -0.008546081 -0.004093311 0.004691773 0.00711019 -0.0043654772 0.0035948318 -0.011015553
0.0076111387 0.015722968 -0.004916825 0.010423832 -0.0057236888 -0.009852034 0.009204632 0.015787842
-0.0003072395 -0.00935279 4.818541e-05 0.000440797 0.0102321785 -0.014937239 0.0072634583 -0.009196215
0.0009332082 0.012965692 -0.0031667023 -0.0031465592 -0.010497027 0.0008140497 -0.0034692409 -0.010159227
0.005802093 0.017104426 -0.00060751586 0.01723666 0.007331668 -0.016473887 -0.016767502 0.0027234475
0.00036313507 -0.010317063 -0.011667979 0.0031583495 -0.0029012489 -0.005120901 -0.0009876752 -0.0066367984
-0.003547073 0.00052480225 0.005716238 0.009446744 -0.002407877 -0.0014858765 -0.0067374962 0.025485039
0.008552385 0.0070294747 0.010686066 -0.003335217 0.01063407 -9.437281e-05 -0.019739976 -0.012273507
-0.02045027 0.0028236841 0.00027037438 -6.651241e-05 -0.0017033031 -0.00076687196 -0.0036170674 -0.001607322
0.017254936 0.014957433 -0.0076041534 -0.012366302 0.0034522375 -0.0080561815 -0.015520741 -0.0012618131
0.016239552 -0.006644249 -0.011583811 0.0018566664 -0.005879073 0.015385158 -0.010280599 -0.009970044
0.007605 0.005576795 0.0017191585 -0.00520295 -0.0024467162 -0.002644706 -0.010585232 -0.008610887
-0.012408265 -0.004696762 0.010390938 0.00095786323 -0.005610189 0.0072469604 0.0014167194 0.0014828404

exp_avg f4 [8, 1, 1, 250]
00000000: 07c0 35bb 2b5a 25bb 4f3e 15bb 59ac 09bb
00000010: 940b fcba a15c dbba 212e beba 6748 b3ba
00000020: b6e0 c5ba 7dfc ebba 9389 06bb a40c 0ebb
00000030: 396e 09bb 5fea f4ba db7a ceba 2931 a8ba
00000040: 3a0e 82ba f754 2dba 670e 62b9 7d1c bb39
00000050: 29b4 7e3a dfeb c73a e90d fa3a 8934 0b3b
00000060: 2bb4 113b 5501 103b 90a1 013b 6b37 c43a
00000070: 05e5 4d3a be02 e737 dc62 1aba d37f 81ba
00000080: 70b1 a0ba 400b bbba d087 d9ba de9c f6ba
00000090: 1b7d 01bb 1ea5 f5ba bd53 daba c15a bfba
000000a0: 45f3 a9ba bfa9 92ba dde4 58ba 1474 e4b9
000000b0: 19ea 22b9 d584 5eb9 8c8d 18ba a476 8bba
000000c0: 7ac8 baba f3af cfba 3486 d3ba 03f2 cdba
000000d0: e36f c1ba fe13 acba 3b69 8fba e31c 7dba
000000e0: 6879 76ba d1f7 74ba ad7d 59ba e81f 2cba
000000f0: fbbe 0cba 8813 12ba bdb7 29ba 968c 28ba
00000100: 5f3b efb9 0fce d8b8 30af 9639 fd18 253a
00000110: f06f 633a 5e63 823a 7157 863a 9e1c 863a
00000120: e6c2 883a 1470 893a ed91 743a 048b 193a
00000130: c46a 6638 f843 e5b9 8db4 31ba c573 1cba
00000140: 7497 abb9 4c06 4eb8 641d 3639 cf75 dd39
00000150: 1e2e 4d3a 7719 9a3a 2cd3 ba3a 5b0b b43a
00000160: e31e 8a3a 69a9 263a f8d6 b339 e180 7439
00000170: 2839 5039 da80 8638 ba83 6ab9 9305 0dba
00000180: 8e69 2dba c346 f6b9 9a51 82b8 ba1a 9939
00000190: 22f8 c139 b912 3839 18fe dcb7 0922 03b8
000001a0: 222d 2739 2fa2 ac39 6b29 8939 d404 a137
000001b0: a61a 25b9 91c6 03b8 eb1f c039 c78a 453a
000001c0: 7978 633a 5d1b 373a 9d01 f939 bcc4 f839
000001d0: 4d05 543a 2600 b33a 19b9 f83a 477e 0f3b
000001e0: 125c 0f3b 35d4 013b 81ac e13a 39be c73a
000001f0: 854e b53a dcdf a43a dde8 903a 0bc1 6a3a
00000200: 92d7 203a 149a 8b39 d474 3fb8 6b74 23b9
00000210: cbc7 8237 8014 ba39 6ed2 183a 280b 083a
00000220: bb11 7439 fe6a 2837 bf32 3838 a77e 8739
00000230: 05fc d339 fddf a539 99a5 1c38 b718 91b9
00000240: d6cc 14ba 0b1e 67ba 5ed1 a9ba 6268 e0ba
00000250: fc6f faba 8c13 e8ba aeb3 afba 58a2 59ba
00000260: f1e2 edb9 c942 a1b9 6e9b b6b9 4396 e2b9
00000270: 32f4 d8b9 f8c2 58b9 6076 ca38 3d5c b639
00000280: a307 e239 133d 9739 f729 f437 31d5 7fb9
00000290: 3781 ddb9 4f1b e2b9 016f 7db9 a4dd ec38
000002a0: 0ea9 013a 55c3 4d3a 6ddc 683a 8e6d 5b3a
000002b0: eb1e 3e3a 15d5 173a 4871 d139 6234 1c39
000002c0: 3bfc 15b9 3f83 c6b9 c3b7 0dba dcdd 3aba
000002d0: 9041 81ba 94ac b1ba d28f d7ba 50b2 daba
000002e0: 2be3 b2ba 3f2f 5dba 5fef b7b9 2a40 9fb8
000002f0: a897 f9b8 e75e ddb9 43a4 58ba eff4 9aba
00000300: 1490 bcba 04e4 d6ba 171e f2ba d046 05bb
00000310: 59e6 0abb b432 08bb cae7 ffba 8c43 f7ba
00000320: 4358 faba e654 fdba 124d e8ba 3a2a b3ba
00000330: 7b86 53ba cd06 85b9 3198 3d39 5232 033a
00000340: 74f4 383a 5931 543a 3898 4e3a f4a6 283a
00000350: 3e8c da39 d56a 4839 ad18 1bb7 9a02 35b9
00000360: 6878 94b9 772f cdb9 008b 02ba 8ce9 1eba
00000370: 18c2 3fba d51b 6bba 78f1 8aba 9255 97ba
00000380: c5ce 96ba 3ccd 8eba d0b6 91ba bce4 aeba
00000390: ddc7 e3ba c727 0dbb 125d 20bb 5f77 29bb
000003a0: 7bb7 2dbb eb67 30bb e4fa 30bb 5bd5 2cbb
000003b0: dca6 22bb 6d06 15bb 90d2 05bb 4e19 ebba
000003c0: 1529 ccba d075 b5ba 1059 a4ba 91c1 8fba
000003d0: e029 51ba 5d8e bdb9 57a7 f138 ba5b eb39
000003e0: 628e 103a 5d96 043a 70d8 8fbb b3dd 98bb
000003f0: 97fb a9bb 1906 c0bb 3284 d4bb 0c55 e0bb
-0.0027732865 -0.0025230746 -0.0022772735 -0.0021007268 -0.0019229525 -0.001673598 -0.0014509597 -0.0013678194
-0.0015096876 -0.0018004325 -0.0020528778 -0.0021675015 -0.002097024 -0.0018685571 -0.0015753167 -0.0012832034
-0.0009922453 -0.0006612087 -0.00021558405 0.00035688645 0.0009716177 0.001525279 0.0019077632 0.002124103
0.0022232633 0.002197345 0.0019780137 0.0014970129 0.0007854256 2.7538623e-05 -0.0005889365 -0.0009880014
-0.0012259912 -0.001427032 -0.0016596261 -0.0018815061 -0.0019758407 -0.0018741225 -0.0016657036 -0.001459919
-0.0012966177 -0.0011189504 -0.00082738494 -0.00043574034 -0.00015536732 -0.00021221054 -0.0005819432 -0.0010640216
-0.001425042 -0.0015845284 -0.0016138018 -0.0015712384 -0.0014758076 -0.0013128517 -0.0010941395 -0.00096554885
-0.0009402246 -0.0009344789 -0.000829662 -0.00065660337 -0.00053690345 -0.00055723684 -0.00064742175 -0.00064296403
-0.00045629867 -0.00010338064 0.00028740754 0.0006297974 0.0008676043 0.0009947827 0.0010249448 0.0010231917
0.0010434061 0.0010485672 0.0009329606 0.0005857202 5.4935706e-05 -0.00043728924 -0.00067789183 -0.0005968179
-0.00032728503 -4.912009e-05 0.00017367821 0.0004224018 0.00078270014 0.0011756857 0.0014253608 0.0013736294
0.0010537769 0.00063576415 0.00034301705 0.00023317664 0.00019857718 6.4136184e-05 -0.00022365051 -0.0005379554
-0.0006615155 -0.00046973498 -6.2140825e-05 0.00029202347 0.00036996702 0.00017554582 -2.6344365e-05 -3.126453e-05
0.00015943174 0.00032927233 0.00026161535 1.9194944e-05 -0.00015745554 -3.1417763e-05 0.00036644874 0.0007535633
0.00086773146 0.00069849734 0.00047494183 0.00047448825 0.0008087948 0.001365666 0.0018976062 0.0021895336
0.0021874947 0.0019810323 0.0017217548 0.0015239186 0.0013832605 0.0012578922 0.0011055727 0.0008955157
0.0006135638 0.00026626943 -4.5646753e-05 -0.0001558826 1.5590243e-05 0.00035491958 0.00058296963 0.00051896507
0.00023276258 1.0038491e-05 4.391628e-05 0.0002584357 0.00040432825 0.00031638137 3.7347523e-05 -0.0002767497
-0.0005676275 -0.00088164274 -0.0012956073 -0.0017120952 -0.001910686 -0.0017706021 -0.0013404989 -0.0008302084
-0.00045373247 -0.00030758072 -0.0003482955 -0.00043218033 -0.0004138067 -0.00020671997 9.65416e-05 0.00034782468
0.0004311177 0.00028846468 2.9106608e-05 -0.00024398115 -0.00042248677 -0.00043126426 -0.00024169312 0.00011294641
0.00049461506 0.0007849236 0.00088829437 0.0008370512 0.0007252532 0.00057919446 0.00039947988 0.00014896833
-0.0001430371 -0.0003786329 -0.0005406106 -0.00071283965 -0.0009861458 -0.0013555461 -0.001644606 -0.0016685221
-0.0013648024 -0.0008437521 -0.00035082825 -7.593662e-05 -0.000119014934 -0.00042223113 -0.0008264223 -0.0011822263
-0.00143862 -0.0016394858 -0.0018472102 -0.0020336397 -0.0021194427 -0.0020782175 -0.0019524035 -0.0018864735
-0.001909979 -0.001932767 -0.0017723164 -0.0013669201 -0.00080690504 -0.00025372804 0.0001808114 0.0005004752
0.00070554693 0.00080945116 0.0007880959 0.00064335694 0.0004168469 0.00019113284 -9.244465e-06 -0.00017262474
-0.0002831847 -0.0003913601 -0.0004979819 -0.0006062023 -0.0007314994 -0.0008968686 -0.0010600528 -0.0011545888
-0.0011505714 -0.0010894905 -0.0011117104 -0.0013343315 -0.001737829 -0.0021538602 -0.0024469537 -0.0025858504
-0.0026507068 -0.0026917409 -0.0027005011 -0.0026372287 -0.0024818694 -0.0022739426 -0.0020419694 -0.0017936619
-0.0015576208 -0.0013844315 -0.001253875 -0.0010967721 -0.0007978957 -0.00036154958 0.00011522945 0.00044891034
0.0005514381 0.0005057806 -0.004389815 -0.0046651005 -0.0051874625 -0.005860102 -0.0064854855 -0.006846076

exp_avg_sq f4 [8, 1, 1, 250]
00000000: ab49 0d37 6139 0437 83ff f236 d42e e136
00000010: e3d2 d836 5b77 d836 f94b da36 be9c d836
00000020: 7a52 d236 22bf ca36 5528 c436 bc69 bf36
00000030: f564 bd36 4a27 be36 fa0e c336 159b ca36
00000040: 55c9 cf36 c8c0 cf36 4645 cd36 5f6a cc36
00000050: 1a7e cf36 1f94 d536 444e da36 2ca6 d936
00000060: 383c d536 7067 d236 6fdf d236 d1f2 d336
00000070: 3844 d236 fade cd36 be00 cc36 5698 d036
00000080: d3d1 d936 c02b e336 fb17 e936 c45c ed36
00000090: 7d95 f036 b4de ef36 9278 ec36 e992 e836
000000a0: 0fdc e636 b3ce e936 c418 ee36 73f6 ee36
000000b0: b962 eb36 b199 e636 1d31 e436 451b e436
000000c0: 9bbe e436 083f e536 227f e536 b306 e536
000000d0: 6733 e136 9f0b d836 7ed8 cd36 4efa c836
000000e0: 31cb ca36 7b24 d136 ae69 d836 162a dc36
000000f0: 1d62 da36 9743 d536 f425 d036 69c3 cb36
00000100: 20b1 c636 e054 c036 6db0 b936 c0b6 b436
00000110: 3b8d b236 23e5 b136 7550 b036 f0cc ab36
00000120: b6cc a436 1c30 9e36 17e4 9b36 fdfa 9f36
00000130: c2f0 a936 fcef b636 a05e c436 d517 d136
00000140: aafb dc36 3a40 e836 130c f236 cb86 fa36
00000150: 1fad 0137 7251 0637 0f15 0a37 ef10 0c37
00000160: ecfe 0c37 4049 0e37 1a8a 1037 4184 1337
00000170: fbbd 1637 bd26 1937 3b3b 1a37 07a2 1a37
00000180: 4261 1a37 8cd7 1837 15cd 1637 3316 1537
00000190: daf8 1337 1824 1337 1d66 1237 a16f 1037
000001a0: 8447 0c37 b11d 0637 3d92 fe36 9a35 f436
000001b0: eb3f ef36 9f83 ef36 afbc f236 bc53 f736
000001c0: 4348 fc36 7a8b 0037 b080 0237 6ddc 0437
000001d0: 5da5 0837 743b 0d37 47d9 1037 c15a 1237
000001e0: 7a29 1237 1534 1137 cb04 1037 02e1 0e37
000001f0: e296 0e37 8daf 0f37 5b4e 1237 f867 1537
00000200: b789 1737 4231 1937 8a45 1c37 16af 2137
00000210: f4c2 2737 a8d5 2a37 c895 2837 ea32 2137
00000220: e0e8 1737 973a 1037 afa0 0b37 fa55 0837
00000230: 8b00 0437 8611 fd36 2af8 f236 12be eb36
00000240: 6931 e636 6b57 de36 19ab d236 3b05 c636
00000250: 6387 bc36 f7f0 b736 7f8b b736 0ad8 b936
00000260: b8b6 bf36 f3c9 c836 b533 d236 03a2 d736
00000270: c025 d736 4b15 d336 af4e d036 aa2d d036
00000280: ff8f d036 e171 cf36 015b cb36 d757 c436
00000290: f429 bd36 2170 b936 2963 ba36 82fe bd36
000002a0: 42c7 c136 0df4 c436 8043 c836 c4e3 ca36
000002b0: 129f ca36 fe46 c836 b129 c536 15fe c436
000002c0: 13ea c936 0833 d036 948c d336 7fa5 d336
000002d0: a066 d236 1e77 d136 e002 d336 640a d836
000002e0: a279 df36 40a9 e636 74cc ea36 59c8 ec36
000002f0: 99ee ef36 c8b0 f536 19d0 fb36 ec16 fe36
00000300: ee1d fa36 e70b f236 33c6 e836 bffc dd36
00000310: 3b0f d036 c3fe c036 01a0 b636 e552 b236
00000320: 3dbc af36 6d50 ab36 010f a636 6fbd a136
00000330: ab0b a036 15ef a036 a1b0 a336 77f4 a736
00000340: b2a9 ad36 326a b436 d843 ba36 5d3b bd36
00000350: 2381 bf36 a2ef c536 efec d136 51b6 e036
00000360: 40b7 ee36 6ee0 f836 6c47 ff36 5b30 0237
00000370: 33a3 0537 2dfb 0937 bfde 0d37 39e6 0f37
00000380: 2eb9 1037 e529 1237 5e86 1537 db73 1a37
00000390: 1660 1e37 d4bc 1f37 8940 1f37 079d 1f37
000003a0: 60c9 2237 f212 2837 5ea2 2c37 1e48 2e37
000003b0: 8111 2d37 debe 2a37 c984 2837 f409 2637
000003c0: 25cd 2237 620a 1f37 f7ca 1a37 5fb1 1637
000003d0: 7e92 1237 e6c0 0d37 74ee 0737 7b3f 0137
000003e0: 0624 f436 ee92 e536 bf94 6b37 0964 6437
000003f0: 10b0 5d37 611e 5837 371f 5437 a669 5137
8.421407e-06 7.881173e-06 7.2419075e-06 6.710974e-06 6.461852e-06 6.4511964e-06 6.5057507e-06 6.455549e-06
6.2680892e-06 6.04232e-06 5.8459505e-06 5.7045527e-06 5.644392e-06 5.667015e-06 5.8131964e-06 6.038123e-06
6.192519e-06 6.1915234e-06 6.1175406e-06 6.092057e-06 6.183761e-06 6.3651382e-06 6.5060176e-06 6.486449e-06
6.354905e-06 6.2705294e-06 6.284499e-06 6.3165576e-06 6.2664294e-06 6.135434e-06 6.07976e-06 6.2166173e-06
6.4915307e-06 6.7702204e-06 6.946733e-06 7.0739497e-06 7.16996e-06 7.148681e-06 7.0473843e-06 6.9312414e-06
6.8801523e-06 6.968004e-06 7.095836e-06 7.121643e-06 7.0150386e-06 6.872426e-06 6.800647e-06 6.798104e-06
6.817119e-06 6.8320696e-06 6.839532e-06 6.8255117e-06 6.7115066e-06 6.4386545e-06 6.134679e-06 5.989604e-06
6.0437237e-06 6.2329323e-06 6.4496044e-06 6.5614104e-06 6.508328e-06 6.355763e-06 6.2033014e-06 6.07262e-06
5.92148e-06 5.7319266e-06 5.5339683e-06 5.385693e-06 5.321255e-06 5.301686e-06 5.254575e-06 5.120055e-06
4.9114124e-06 4.7143676e-06 4.645913e-06 4.767788e-06 5.0646204e-06 5.4519605e-06 5.852271e-06 6.23146e-06
6.5858085e-06 6.9216157e-06 7.2135676e-06 7.4662726e-06 7.729307e-06 8.005985e-06 8.230344e-06 8.348593e-06
8.404004e-06 8.480914e-06 8.615223e-06 8.7926755e-06 8.98493e-06 9.12853e-06 9.192906e-06 9.21684e-06
9.20176e-06 9.110092e-06 8.988446e-06 8.886261e-06 8.819823e-06 8.7702865e-06 8.726053e-06 8.6090595e-06
8.361301e-06 7.9939355e-06 7.5868143e-06 7.2780067e-06 7.130196e-06 7.1380778e-06 7.2341277e-06 7.3709216e-06
7.5185976e-06 7.661869e-06 7.778566e-06 7.919135e-06 8.144733e-06 8.418097e-06 8.633658e-06 8.723408e-06
8.711935e-06 8.6548e-06 8.584185e-06 8.516248e-06 8.49899e-06 8.564338e-06 8.720522e-06 8.905299e-06
9.032366e-06 9.130979e-06 9.314515e-06 9.637113e-06 9.999367e-06 1.0182535e-05 1.0048454e-05 9.608202e-06
9.054522e-06 8.59671e-06 8.322458e-06 8.12625e-06 7.8679395e-06 7.5420276e-06 7.241052e-06 7.025673e-06
6.8602862e-06 6.6262924e-06 6.278406e-06 5.9014687e-06 5.6185977e-06 5.481877e-06 5.4700645e-06 5.53858e-06
5.713515e-06 5.9839745e-06 6.264507e-06 6.42636e-06 6.411894e-06 6.290769e-06 6.208043e-06 6.204199e-06
6.2156464e-06 6.182338e-06 6.0604657e-06 5.851481e-06 5.637523e-06 5.526483e-06 5.5547757e-06 5.6622675e-06
5.775045e-06 5.8696664e-06 5.9683225e-06 6.0465845e-06 6.0385873e-06 5.968729e-06 5.875911e-06 5.8708342e-06
6.0175166e-06 6.204824e-06 6.3046555e-06 6.3075563e-06 6.270435e-06 6.2425524e-06 6.2886247e-06 6.4385113e-06
6.660078e-06 6.8742374e-06 6.997545e-06 7.0566716e-06 7.1505315e-06 7.322149e-06 7.5046087e-06 7.5724583e-06
7.454065e-06 7.2135476e-06 6.937212e-06 6.6157368e-06 6.200656e-06 5.751704e-06 5.4426496e-06 5.3144636e-06
5.2373202e-06 5.10556e-06 4.948932e-06 4.820227e-06 4.76973e-06 4.7962044e-06 4.878341e-06 5.0054473e-06
5.175557e-06 5.376781e-06 5.55113e-06 5.6395497e-06 5.707277e-06 5.8989544e-06 6.256268e-06 6.6969446e-06
7.114286e-06 7.417103e-06 7.607907e-06 7.7598625e-06 7.9654155e-06 8.224318e-06 8.456117e-06 8.577067e-06
8.626184e-06 8.7120325e-06 8.912377e-06 9.20609e-06 9.439906e-06 9.5211035e-06 9.492164e-06 9.513699e-06
9.702839e-06 1.0017991e-05 1.0289803e-05 1.0387999e-05 1.0315679e-05 1.0177229e-05 1.0044497e-05 9.896688e-06
9.703716e-06 9.479556e-06 9.226372e-06 8.981994e-06 8.736386e-06 8.449168e-06 8.102146e-06 7.703779e-06
7.2759603e-06 6.8418367e-06 1.4041724e-05 1.361315e-05 1.3213619e-05 1.2881676e-05 1.26434525e-05 1.2481969e-05

exp_avg f4 [8]
00000000: bfde 5535 929f 8db4 3c16 5c36 b0c8 dfb4
00000010: 3c3b c1b6 3669 9036 667d c135 1875 deb5
7.967282e-07 -2.63794e-07 3.2795497e-06 -4.1683006e-07 -5.758744e-06 4.3037826e-06 1.4416116e-06 -1.6574368e-06

exp_avg_sq f4 [8]
00000000: 3a32 b92e a2d0 322d ce7b ce2d d34f 922e
00000010: 71fd ff2d 90c4 eb2e 778b 822d d2f6 4a2e
8.421748e-11 1.0164454e-11 2.3474469e-11 6.653491e-11 2.9102694e-11 1.0721479e-10 1.4841224e-11 4.6148703e-11

exp_avg f4 [8]
00000000: 4cce a634 8d22 81b5 0c16 b434 6b4a 9434
00000010: deef cf34 fd94 ab34 160d 1fb5 c732 c2b3
3.107001e-07 -9.621305e-07 3.3543654e-07 2.7621294e-07 3.873128e-07 3.1959635e-07 -5.925116e-07 -9.043065e-08

exp_avg_sq f4 [8]
00000000: 7e25 b629 3ca1 512b 5162 0a2a 99ef bd29
00000010: 1eef a32a 9705 c929 8a82 9f29 7367 642a
8.0889275e-14 7.4475474e-13 1.2290973e-13 8.4348496e-14 2.9120537e-13 8.927163e-14 7.0836634e-14 2.0286359e-13
