logs/pretext_task/version_0/checkpoints/epoch=2-train_loss=0.73-train_f1=0.49-val_loss=0.69-val_f1=0.51.ckpt (torch, 183470 bytes, 39 tensors)

block1.0.weight f4 [8, 1, 1, 250]
000000 c0 a8 54 bc dc 92 36 3d f5 a3 1c 3d 63 ca cf bc
       -0.012979686 0.04457365 0.0382423 -0.02536506
000010 ee 9c 06 bd b7 b7 59 bd 4b a2 9d bd 46 54 0e 3d
       -0.032864504 -0.05315372 -0.076969706 0.03474834
000020 51 4d 05 3d 9e 24 bb 3c 8b fe 83 bd a2 65 61 bd
       0.032544438 0.022844609 -0.064450346 -0.055028565
000030 6d 6e 0f bd 17 f8 55 bc a7 b9 7b bd e8 8a 9e 3c
       -0.03501742 -0.0130596375 -0.06145635 0.019353345
000040 29 a7 19 bc 9e d8 f6 3c 67 f7 20 3c 07 d7 d8 bc
       -0.009378233 0.030132588 0.00982461 -0.02646972
000050 e1 a3 22 bd e4 dc 95 bd e3 9c 51 3d 66 f1 0f bd
       -0.03970707 -0.07317522 0.05117501 -0.035142325
000060 1d 18 a5 3c 64 87 52 bc a7 99 38 3d 44 4a e7 b8
       0.0201531 -0.012849662 0.04506841 -0.000110287714
000070 36 bf 64 bd 48 b9 6f bd 45 78 f2 3c 6b 37 24 3d
       -0.055846415 -0.058526307 0.029598365 0.040091913
000080 db 5d 7e 3c 35 b5 48 3d 6a 6e 65 3d 7f f5 6d 3d
       0.015525307 0.049000937 0.056013502 0.05809545
000090 6b ce 85 3d 5c 3d 06 bd 24 b2 39 3d 6e 8c 1b bd
       0.06533512 -0.03277336 0.045335904 -0.03797572
0000a0 2a fe f5 bc a9 55 8d 3d 02 63 aa bb 1f a6 58 bc
       -0.030028421 0.06901104 -0.005199791 -0.0132232
0000b0 23 a3 ed 3c bc da 70 bb 0c 13 b5 bc 8f 3a 4c bd
       0.029008454 -0.003675147 -0.022103809 -0.049860533
0000c0 68 14 13 bd 94 aa c6 3c 77 1f 7f bd 84 3c 68 bd
       -0.035908133 0.02425126 -0.062285867 -0.056698337
0000d0 e1 87 43 3d 72 71 58 3d 1d f7 4f bd fb 6e 4d bc
       0.047737006 0.052842565 -0.050772775 -0.012538667
0000e0 1a 3e 70 bd f1 ac 48 bc 4c 08 b4 bc 21 89 36 3d
       -0.058652975 -0.012248264 -0.021976613 0.04456437
0000f0 e2 b3 8a bc 12 80 0e bd 13 02 a7 bc a6 30 2d 3d
       -0.016931478 -0.034790106 -0.020386731 0.042282723
000100 84 83 ff 3c f2 85 40 3c d4 63 46 bc b6 82 05 bd
       0.031190641 0.011750685 -0.012108762 -0.03259536
000110 96 3c 39 bb 99 7b 12 bb 3b e0 7b bd 45 6e e4 bc
       -0.0028264872 -0.0022351502 -0.06149314 -0.027884612
000120 e0 c4 3a bd 86 4d 08 bd 6a ca 8d bd 43 43 7c bd
       -0.04559791 -0.033277057 -0.06923373 -0.061587583
000130 df 06 85 bd 68 59 a3 bb e4 c2 36 3c 13 c9 55 3d
       -0.06495451 -0.0049850233 0.011154864 0.052193712
000140 9f 96 63 bd 33 df 0b 3d a8 75 3d bc dc 8d 36 bd
       -0.055563565 0.034148406 -0.011563696 -0.04456888
000150 d1 e7 04 3d d1 af 44 bd 08 bc 1b bd a4 00 58 3d
       0.03244764 -0.048019234 -0.038021117 0.052734986
000160 2b 11 8f bb f6 43 41 3d 31 d6 68 bd c1 50 72 3c
       -0.0043660603 0.047183953 -0.056844894 0.014789761
000170 1b f8 65 3b fe 63 32 bc 01 8a 7d 3d 99 f0 0d bd
       0.003509051 -0.010888098 0.06189919 -0.03465328
000180 0c 3f 10 3c 4f 06 ba 3b 8a 7d 83 3d 9e c6 53 bc
       0.008804094 0.0056770216 0.06420429 -0.012925772
000190 99 5f 8a 3c 63 44 89 3b 10 ed 4a 3d 5a 6a 0f bd
       0.016891288 0.0041890605 0.049542487 -0.035013534
0001a0 39 b6 30 bd 8f 73 65 3d c7 5d 45 3c b8 d5 eb bc
       -0.04314253 0.05601841 0.012046284 -0.028788432
0001b0 b8 30 8d 3a a9 16 70 3d 54 0d 31 3d 75 5c 61 bd
       0.0010771966 0.05861536 0.0432256 -0.055019815
0001c0 40 69 73 bc f7 f3 e3 bc 92 0e 36 3d 00 9a 63 3d
       -0.0148566365 -0.027826292 0.04444749 0.055566788
0001d0 56 08 51 bc c2 4a bf 3c 71 ef 0d 3d 35 d1 6a bd
       -0.012758335 0.023351077 0.034652177 -0.05732842
0001e0 8e 4d 40 bd e5 e2 18 3d af 7b bd 3c 88 39 0d bd
       -0.046948962 0.03732576 0.023130266 -0.034478694
0001f0 93 7e 1d 3d 41 02 87 3c 0c 24 3e 3a 86 56 bc 3c
       0.03845079 0.016480567 0.0007253296 0.022990476
000200 29 66 d5 3c 88 b2 38 bc 9f bc f4 3c 2f 15 3c 3c
       0.02604969 -0.011273034 0.029875098 0.01147966
000210 0e 3a 7f bd eb ec e7 3c 84 4e 61 bc ac 68 54 3d
       -0.062311225 0.028311213 -0.01375163 0.051857635
000220 d1 60 4e bd 73 55 53 bd 83 79 a3 bc 27 a1 03 3c
       -0.0503853 -0.051595163 -0.019955402 0.008034027
000230 fc 80 20 bd d9 1c 88 ba cc 73 39 bd a7 b1 3d 3d
       -0.03918551 -0.0010384574 -0.045276448 0.046312
000240 1d a1 79 3b f8 45 06 3d 2a 6e 6b 3d 2d 1c b7 3c
       0.0038090416 0.03278157 0.057478108 0.022352302
000250 89 cd ac 3c 9c 96 c8 3c 69 19 47 3c 49 ce 2c bd
       0.0210941 0.024485879 0.012152054 -0.042188916
000260 3a 40 6f bc ca ca 72 bc 99 57 18 bd 5f 70 6e 3d
       -0.014602715 -0.0148188565 -0.037192915 0.058212634
000270 4e 25 b2 3b 8a 80 3d bc 38 43 da 3c 07 39 f1 bc
       0.005436576 -0.011566291 0.02664338 -0.029446138
000280 e2 27 27 3d 33 58 c4 ba 69 6d 58 3c ad 79 4e 3d
       0.04080952 -0.0014979899 0.013209679 0.050409008
000290 df 7c a2 3c 9c 0a 4a 3d 67 8a 89 bd d7 4b 86 bc
       0.019834934 0.049326524 -0.06715851 -0.016393585
0002a0 8f ff ba 3c ec fd 73 bc 1f f9 93 bd 95 5b 35 bd
       0.022826938 -0.014892083 -0.072252505 -0.044276793
0002b0 a1 54 cb bc d5 b3 9f bd 96 c4 97 bd 51 3d d1 3c
       -0.024820628 -0.07797972 -0.07410543 0.025541933
0002c0 15 5b 32 3d 74 11 75 bc 7e 70 25 3c 88 2f 5a bc
       0.043543894 -0.014957774 0.010097621 -0.013316996
0002d0 85 e0 07 bd 80 21 47 3d bf ef f2 3c 84 85 43 3d
       -0.033173103 0.048615932 0.029655335 0.047734752
0002e0 1e 6e 3d bd 0d 6f 26 3d 85 46 3c 3d 62 dc c9 bb
       -0.046247594 0.04063325 0.04596569 -0.006160305
0002f0 19 9d 8a bd fc 42 ab 3b b6 a5 26 bc 5a a8 ab bc
       -0.06768245 0.005226491 -0.0101713445 -0.0209543
000300 43 66 f4 3c 8e e4 4c 3d 0f cc 91 bc 78 e2 72 b9
       0.029833918 0.050022654 -0.017797498 -0.00023163285
000310 74 74 96 ba 86 fa 18 3d 6e 27 38 3c 62 3a 35 3d
       -0.0011478798 0.037348293 0.0112398695 0.04424513
000320 ce 99 22 bc 9f 2a 4c 3d 49 a0 77 3d e3 bf 79 3d
       -0.009924365 0.049845334 0.060455594 0.060974013
000330 0a 45 12 3d 48 e8 73 3d d1 26 ea 3b 06 ab 34 3c
       0.035710372 0.059547693 0.0071457406 0.011027103
000340 6a 88 60 3d 4e a9 25 bc 6e 89 15 3d 2a eb c0 bb
       0.054817595 -0.010111166 0.036508016 -0.0058874087
000350 51 67 4e 3d 32 98 88 bd 1f 24 04 bd 00 c0 85 bd
       0.0503915 -0.06669654 -0.03226101 -0.06530762
000360 e0 e3 59 bd 0d da 3c bb 21 55 ca bc 2e 8a ab bc
       -0.053195834 -0.0028816492 -0.024698796 -0.020939913
000370 59 73 b8 3c 91 3b 09 bd f6 53 42 3d 91 83 a9 3b
       0.02251594 -0.033504073 0.047443353 0.0051731546
000380 a6 00 c3 bb 65 d3 84 3c 10 45 e3 bc 62 e2 52 bd
       -0.005951005 0.016214082 -0.027742893 -0.051485427
000390 88 c0 71 3d 2b 9d bf bc d8 6c 06 bd 27 7c 0a bc
       0.059021503 -0.023390373 -0.032818645 -0.008452452
0003a0 14 56 78 3d d1 6c 07 bd 9e 36 6f 3c e0 95 70 3d
       0.060628965 -0.03306276 0.014600424 0.058736682
0003b0 58 8c ac 3c d7 f5 47 3d 63 47 66 bd 61 23 6e bd
       0.021063015 0.048818436 -0.056220423 -0.05813921
0003c0 eb 89 53 bd 02 e2 4a bd ab 3a dd 3b a0 2e 48 3c
       -0.0516452 -0.049531944 0.0067513785 0.0122181475
0003d0 41 6d 34 bd c3 1d 04 bd 37 52 0e bc 2e 5a 17 bc
       -0.044049505 -0.032254945 -0.008686594 -0.009237809
0003e0 fa 31 4a bd 71 0d 86 bb 21 1e 37 bd 12 e2 30 bc
       -0.049364068 -0.004090958 -0.044706468 -0.010796087
0003f0 30 88 aa 3c be 96 1e 3d 67 8b aa 3c e4 63 9f bc
       0.020816892 0.038717978 0.020818425 -0.019456811

block1.1.weight f4 [8]
000000 01 00 7e 3f 40 48 7b 3f f0 01 7e 3f 97 77 80 3f
       0.99218756 0.9815712 0.99221706 1.0036496
000010 31 0f 82 3f ee 89 81 3f 60 e2 80 3f 33 b6 7d 3f
       1.0160886 1.0120218 1.0069084 0.9910614

block1.1.bias f4 [8]
000000 55 9e 59 3c 13 cd 2a 3c 92 2d cd 3b 77 d0 07 bb
       0.013282378 0.01042487 0.006261536 -0.002072362
000010 9f 7c 69 ba 3f 4b 0c bb 6c 54 77 3c 47 01 eb 3a
       -0.00089068146 -0.0021407155 0.015095811 0.0017929458

block1.1.running_mean f4 [8]
000000 f5 4d b2 3a aa d2 75 3b d3 95 13 bb 94 48 0c 3b
       0.0013603555 0.0037509599 -0.0022519722 0.0021405565
000010 2c 7a 61 3b fc b2 99 3a 37 d7 7b bb 36 16 10 bb
       0.0034405096 0.0011726315 -0.0038427839 -0.0021985895

block1.1.running_var f4 [8]
000000 8b 2d e3 41 5d cf ab 41 a6 39 ee 41 0e 49 88 41
       28.397238 21.476252 29.778149 17.035671
000010 df 6e 85 41 f5 f5 2b 41 e2 68 9a 41 e7 d2 e8 41
       16.679136 10.747548 19.301212 29.10298

block1.2.weight f4 [16, 1, 26, 1]
000000 93 2a ab 3c a8 41 20 be ce 2f 01 3d 08 3a 15 3e
       0.020894324 -0.15650046 0.03153973 0.14572918
000010 7b 30 b9 3d b3 66 b9 bd 60 10 25 3e 3e 39 32 be
       0.0904245 -0.090527914 0.16119528 -0.17404649
000020 6b ac 0a bd c2 73 3a 3e 59 7c 4b 3e 83 8e 0e bc
       -0.033855837 0.1820822 0.19871654 -0.00870097
000030 f0 c5 da bd d5 9d 80 bd 8c 22 ce bb d0 da 36 3d
       -0.10682285 -0.06280104 -0.0062907394 0.04464227
000040 4f 45 a4 3c d9 18 2b be 30 2e f4 3c d8 f1 cb 3d
       0.02005258 -0.16708697 0.02980718 0.099582374
000050 85 96 2c bd b3 15 9d 3d 1c 71 a6 bd 90 0d a2 bd
       -0.042135734 0.076701544 -0.08127043 -0.07912743
000060 a2 17 0e bd 7c dc d8 3d 1e fd b3 3c 02 4d 26 3e
       -0.034690507 0.10588929 0.021971282 0.16240314
000070 fb eb 28 be ec 9f 6c 3c 3f 00 dc 3b da 59 da 3d
       -0.1649627 0.014442425 0.0067138965 0.10661669
000080 da c1 ef bc 43 e3 10 3e 9f 93 04 3e 50 71 f9 bd
       -0.02926724 0.14149193 0.12946938 -0.12179816
000090 45 55 0b 3e 60 6c 34 3e 34 fb 84 bd 57 c2 27 3e
       0.13606746 0.17619467 -0.06493226 0.16382729
0000a0 25 44 4c 3e a9 3c e6 3c 5a b5 b7 bd 8c 31 57 3d
       0.1994787 0.028105097 -0.08970137 0.052537486
0000b0 7b 04 5d bd 53 44 50 bd 9b 12 af 3c 9d 7b bf bd
       -0.05395935 -0.05084641 0.021371176 -0.09349749
0000c0 59 ea db 3c 6b 78 28 be ab 0d 18 3e 43 9d 25 be
       0.026845144 -0.16452186 0.14848964 -0.16173272
0000d0 39 c6 11 3e aa 61 a7 bd 7f 00 98 bd 9c 8d 2b 3e
       0.14235772 -0.08172925 -0.074219696 0.16753238
0000e0 6a 06 ed 3a 79 7c 30 3e 26 1a 19 3e 90 1b 33 3c
       0.0018083577 0.17234983 0.14951381 0.010931864
0000f0 5a 23 13 3e aa 32 1a 3e 59 6c a6 bd 28 fe 53 bc
       0.14368954 0.1505839 -0.081261344 -0.012939014
000100 dd 45 0d 3e 52 5d 46 bd 58 df 20 be 90 29 27 3c
       0.13796182 -0.04842884 -0.15710199 0.01020278
000110 32 b0 33 3d 31 29 b1 bc 8b 68 8a bb 7e 7f 51 3c
       0.043869205 -0.021626087 -0.0042238883 0.012786744
000120 e3 ed aa 3d b3 3a 2c 3e 31 e1 1a 3d ab e2 3c bc
       0.083461545 0.16819267 0.037812416 -0.011528651
000130 e8 63 ca bd 0f 4f 18 bb 3f 60 3a 3e f5 82 01 be
       -0.09882337 -0.0023240482 0.18200777 -0.12647612
000140 ba 5b 28 3e b9 5c 2c 3e ea 68 e3 3d 37 72 0e 3e
       0.16441241 0.16832246 0.11103995 0.13910757
000150 5c 90 43 3e c4 ae 01 bb b3 5b 0e bc 44 fe 00 3e
       0.19098037 -0.0019788006 -0.008688855 0.12596995
000160 69 96 29 3e db 2a 4e 3c f7 42 16 3e 20 3d 8c 3d
       0.16561283 0.01258346 0.14673983 0.06847596
000170 7b 97 9b bc 9e c4 62 3d 29 7a 31 be b7 bf 16 3e
       -0.01899313 0.05536329 -0.17331757 0.14721571
000180 eb 9a c7 3c 0d 69 a0 3d a2 3d 34 3e 89 02 e7 bd
       0.024365863 0.07832537 0.17601636 -0.112797804
000190 0c 47 ad 3c 11 9e 45 3e bd a8 23 be 25 e2 7a 3d
       0.021152042 0.19298579 -0.15982337 0.061250824
0001a0 1d e2 81 bd 8f 93 49 3e f6 db 7c 3c b9 79 db bd
       -0.06341956 0.19685195 0.015433302 -0.10716576
0001b0 10 e7 c3 bc db e9 00 be da 37 2c 3e 9b 50 10 3e
       -0.02391389 -0.12589209 0.1681818 0.14093249
0001c0 6e 93 0f be 58 cf 42 3e 08 98 0d 3e b8 3f 97 bd
       -0.14021084 0.19024408 0.13827527 -0.073852
0001d0 0a ef 3e be 72 bd 06 be ee f6 72 3d ff e2 ed bd
       -0.18645874 -0.13158205 0.05931752 -0.11615562
0001e0 3e a1 10 bd 1a d1 0a 3e af ad 75 3d d8 02 db 3d
       -0.035310023 0.13556328 0.05998009 0.10693902
0001f0 8c 46 0c be a3 c5 59 3d 5a c6 d4 3d 52 9e cf 3d
       -0.13698786 0.053166997 0.10389395 0.10137619
000200 9b 57 cc bd 94 ca 85 3d 50 82 77 bd 8b b6 b8 bd
       -0.09977647 0.06532779 -0.06042701 -0.09019192
000210 e3 92 03 be 3f b8 fd bc 58 61 ee bd 66 f4 38 3d
       -0.12849002 -0.030971644 -0.116396606 0.04515495
000220 4a ba 4b be f3 d8 cb 3d 76 24 a2 3d 61 3f 73 bd
       -0.19895282 0.09953489 0.079171106 -0.059386615
000230 7c 1e 5c 3c de cd fd bd 3a c9 f7 bc cb 8f 47 3e
       0.013435002 -0.12392782 -0.03024732 0.19488446
000240 e7 7c 1a bd c6 cd d4 bd 7e 33 40 3d 11 e6 39 3e
       -0.037716772 -0.10390811 0.046924107 0.1815417
000250 76 74 75 3c 44 ce 4d bd 03 aa 6f 3d f4 64 e3 3c
       0.01498138 -0.05024554 0.058511745 0.0277581
000260 5e 6e 0a be 22 51 d9 bd 59 4b ed bd ff 52 41 be
       -0.13518664 -0.10611178 -0.11586637 -0.18879317
000270 68 87 35 be b5 51 72 3d 01 56 c3 3d 69 45 ba 3c
       -0.17727435 0.059159953 0.09537888 0.022738175
000280 03 f9 14 be 5f b0 39 be 75 6f 36 be 07 ff 38 be
       -0.14548115 -0.18133686 -0.17815955 -0.18066035
000290 4b 9c 02 3e f0 c5 33 3e c6 d8 b2 3d f8 21 47 3e
       0.12754934 0.17555976 0.087327525 0.19446552
0002a0 b7 06 1d 3d 21 e2 8e 3d 8a 7b 25 be 47 06 f9 bd
       0.038336482 0.069767244 -0.16160408 -0.121594004
0002b0 54 93 3c be 42 bb 4b 3e d6 b8 60 3d b0 eb d0 3d
       -0.18415576 0.19895652 0.054863773 0.10201204
0002c0 91 ce 17 be 4f 99 7c bd d1 c9 2d 3e 4e a7 1a be
       -0.14824893 -0.061669644 0.16971518 -0.15102884
0002d0 ad 22 2b 3e d6 cf e8 3d 38 89 d6 bc 67 00 5d bd
       0.16712447 0.113677666 -0.026188478 -0.05395546
0002e0 37 75 a1 3d 04 10 09 be 28 ba 23 3e e0 54 b0 3d
       0.07883685 -0.13385016 0.15988982 0.086099386
0002f0 0e 6d eb 3d 59 4b 43 3e ed ab 59 3d 7f 2c 99 bd
       0.1149541 0.19071712 0.053142477 -0.0747919
000300 60 4b 15 be 85 8e 6f bd 24 0d 98 bd 60 71 81 3d
       -0.14579535 -0.058485527 -0.074243814 0.06320453
000310 8f 01 d3 bd 1b eb 7e 3c c0 b6 ad bd 27 f7 c0 bd
       -0.10303032 0.015558983 -0.084821224 -0.094221406
000320 1d ad 92 bd 1a ec d5 3d a1 a5 2f 3e 3c 01 58 bd
       -0.07161925 0.104454234 0.17153026 -0.052735552
000330 dc 6e 41 be b0 56 d5 bd 8e 59 3b be 90 62 3a 3e
       -0.18889946 -0.10416925 -0.18295881 0.18201661
000340 ad 47 66 bc 9d 56 86 bb dd 1d ac 3c 2d 6e f5 bd
       -0.014055175 -0.0040996806 0.021010334 -0.11983905
000350 83 cc b5 bd bb bc 2b be 73 73 25 be 3b e6 3f bd
       -0.08876898 -0.16771214 -0.16157322 -0.046850424
000360 39 9d 09 3e 1a 35 1d bd 40 31 de bd 31 be d6 3d
       0.13438882 -0.03838072 -0.108492374 0.10485495
000370 b4 79 36 be e9 50 2d 3d dd ca 2e 3d 37 96 31 3e
       -0.17819864 0.04231349 0.042673934 0.17342459
000380 7c 9f 92 bc 6f 81 0c bd 90 30 01 be 58 6a b8 bc
       -0.017898314 -0.034303125 -0.12616181 -0.022511646
000390 8e ce 2b 3e 3a 46 22 be 1b df 49 bc 9f 79 94 bd
       0.16778013 -0.15847102 -0.012321259 -0.0724976
0003a0 02 50 de 3b c6 9b eb bd 1a 19 8b 3d 2e d2 19 3e
       0.00678444 -0.11504321 0.06791897 0.15021583
0003b0 cf 90 ab bc b1 59 b0 3d cf b9 d1 3c c3 ca 5a bb
       -0.020943074 0.08610857 0.025601296 -0.0033385016
0003c0 38 d2 ef bd 6b 86 97 bc 04 79 6c bd a1 ed 0e 3d
       -0.11710018 -0.018496713 -0.057732597 0.03489459
0003d0 3a d1 14 3e ba 75 8c bd ec 2c 0c 3e c0 9f 09 3e
       0.14532939 -0.06858392 0.13689011 0.13439846
0003e0 c9 a4 de 3d 93 b2 23 be 91 7d 1d 3e 33 f9 6c 3d
       0.10871274 -0.1598609 0.15379931 0.057854842
0003f0 63 32 2a be f9 7a 3b 3e eb dd fd ba df 68 36 3e
       -0.16620784 0.18308629 -0.0019368505 0.17813443

block1.3.weight f4 [16]
000000 af 40 7c 3f 9c d1 80 3f ed 39 7b 3f fd 33 7e 3f
       0.985362 1.0063968 0.9813526 0.9929808
000010 d0 fa 7c 3f ec f3 80 3f 29 f1 80 3f 11 bf 7f 3f
       0.9882021 1.0074439 1.0073596 0.9990092
000020 33 60 80 3f 4b b2 82 3f bf 15 81 3f 94 d3 81 3f
       1.0029358 1.0210661 1.0084761 1.0142694
000030 9a ef 7d 3f 1c 90 81 3f 01 3d 80 3f a0 d5 7c 3f
       0.9919373 1.0122104 1.0018617 0.98763466

block1.3.bias f4 [16]
000000 2b f8 61 bb 10 87 14 3b 87 ac f5 bb 7d 02 ec bb
       -0.0034480195 0.0022663511 -0.0074973735 -0.007202445
000010 6d cc 0e 3c a6 1b d9 ba 29 64 5d 39 0a 5f d2 3a
       0.008715731 -0.0016564026 0.00021113515 0.0016050052
000020 c5 96 1f 3b 9f fd d0 3c 56 a7 9a 3b a9 5d 4c 3c
       0.002435134 0.025511561 0.004719655 0.012473502
000030 0e 73 b2 3b 58 2f 6b bc c4 63 25 bc 99 44 9b bc
       0.0054458445 -0.014354549 -0.010094587 -0.018953608

block1.3.running_mean f4 [16]
000000 e7 89 45 3a 52 2e 01 3b 29 a7 21 3b d8 c3 a1 3b
       0.00075355027 0.0019711447 0.0024666286 0.0049366765
000010 86 0a e9 39 6a d8 7e ba ba dd 0c b9 da d7 bb 39
       0.00044449064 -0.0009721579 -0.0001343404 0.0003582824
000020 42 e3 6a b9 2b 0f 5c 3a 32 c2 6a 39 48 c8 cb b8
       -0.00022400639 0.0008394594 0.00022388322 -9.7170996e-05
000030 d6 1a 88 3b 5d cd fe ba 0b 50 aa 39 32 5d 44 39
       0.0041535897 -0.0019439865 0.00032484563 0.00018726735

block1.3.running_var f4 [16]
000000 d2 48 2b 3f e6 7e 39 3f 57 18 41 3f df 7e 7c 3f
       0.6690799 0.72459257 0.75427765 0.9863109
000010 70 57 2f 3f ae 75 49 3f a0 6e 3b 3f 61 3f 30 3f
       0.68492794 0.7869519 0.73215675 0.6884671
000020 25 f2 3d 3f 7c c8 47 3f 48 b5 2a 3f 52 b7 48 3f
       0.7419761 0.7804029 0.66682863 0.78404725
000030 b3 a5 66 3f c9 62 41 3f 4a a5 34 3f f7 f7 4b 3f
       0.90096587 0.7554136 0.7056471 0.7967524

block2.0.weight f4 [16, 1, 1, 63]
000000 b8 65 58 bd 86 38 43 3d 07 18 19 3b 97 9b 42 3d
       -0.05283138 0.047661327 0.0023360269 0.047511663
000010 da 99 f7 bc a0 d0 87 3c 24 68 a5 bd 9d 86 e4 bd
       -0.03022473 0.016578972 -0.08076504 -0.11158488
000020 50 ac cf bb 47 c5 56 3d 22 45 4e bc 03 89 00 3c
       -0.00633768 0.052434232 -0.012589725 0.007845166
000030 be 6d 8f bd ce 42 b9 3d ef 77 7e 3d 8b f6 85 bc
       -0.070033535 0.09045945 0.062126096 -0.016352912
000040 0f c6 9f bd a5 02 3e bc 8c f3 4c 3d 03 7d a9 3d
       -0.078014486 -0.01159731 0.050036952 0.08275797
000050 87 01 25 bd 01 59 d0 3c 56 19 72 3d 15 04 54 3d
       -0.04028466 0.025433065 0.059106193 0.051761705
000060 3f ee b4 3d df 7f 1b 3d 5e d0 7c bd 7d 3d bd 3b
       0.08834504 0.037963744 -0.061722152 0.0057751522
000070 31 81 d5 bd 41 03 55 3d 28 af 92 3d 79 ec 9b bd
       -0.10425032 0.052005056 0.07162315 -0.07613463
000080 9f a1 03 be ba a1 af bd 73 e2 d1 3d fc 63 ce 3d
       -0.12854622 -0.08575769 0.1024827 0.10077664
000090 8a ce e0 bd cc 5f 70 bd f9 bb a1 3d 4e 94 70 bd
       -0.10976894 -0.05868511 0.07897181 -0.058735184
0000a0 f1 48 5a 3b 18 5f b7 3d b6 96 48 3d 48 81 65 3d
       0.0033307637 0.089536846 0.048971854 0.056031495
0000b0 d9 81 d6 bd 56 1c 65 bd 20 b5 8d bd c5 ce 6a 3b
       -0.10473985 -0.055935226 -0.069193125 0.003582881
0000c0 2d 6a 10 bd 8a f4 5e 3d ec bb 01 3e f4 a9 b6 3d
       -0.035257507 0.05443243 0.12669343 0.08919135
0000d0 dd 61 ce bc 3f f1 8f bd f7 6a 88 bd 53 c8 c4 3d
       -0.02519315 -0.07028436 -0.06661027 0.09608521
0000e0 88 ba 92 bd 00 91 67 3c 67 d5 91 bd e0 dd 04 be
       -0.07164484 0.014133692 -0.071207814 -0.12975264
0000f0 6d 1e aa 3d 71 af 9a 3d a5 47 86 3d 12 2b 4a bd
       0.083065845 0.07552994 0.06556634 -0.04935748
000100 21 6c d6 bd 32 f8 0f bd 5d 2d 79 3d 99 88 4b bc
       -0.10469843 -0.035148807 0.060834277 -0.012422704
000110 5e 38 ca bd 75 02 6f bd 0e 49 2b bc 06 d3 be bc
       -0.098740324 -0.058351953 -0.010454429 -0.023293983
000120 0b d7 d4 3c 98 63 0c bd 9e 00 e0 3b 0e 2a f7 3d
       0.025981447 -0.034274668 0.006836011 0.12068568
000130 cc 7d ff 3d 3f 92 b0 3b 69 34 94 3d 70 58 b6 3d
       0.12475166 0.0053885276 0.07236559 0.08903587
000140 ed 01 cc bd 0d e1 bf bd 06 a5 da bc 00 0c d0 3d
       -0.09961305 -0.09369097 -0.026690017 0.10158539
000150 e7 5f 44 3c fa a7 ac bc f2 3d cf 3d 5d 2b ef 3d
       0.0119857555 -0.021076191 0.10119237 0.11678193
000160 cc f4 71 bd cb 58 aa bd e9 c3 a6 bd 87 96 c8 bd
       -0.059071347 -0.08317717 -0.08142836 -0.09794336
000170 30 cf c6 3d 96 21 d5 3d e4 f2 e2 3d cd a7 d9 bd
       0.09707487 0.10406797 0.11081484 -0.106277086
000180 82 45 30 bc 24 08 84 bd d0 ee df 3d 8f 38 40 3d
       -0.010758759 -0.06446865 0.10934222 0.04692894
000190 94 19 96 3d 19 49 e8 3c e9 18 16 bd d6 cd b5 bc
       0.073290974 0.028355168 -0.03664485 -0.022192877
0001a0 69 7d 86 3d 37 56 80 bd 65 ca 8e 3d 82 ca c8 bd
       0.06566889 -0.06266444 0.069721974 -0.0980425
0001b0 d5 da da 3d ec 87 57 3b aa bf 77 3d fe b9 b1 3d
       0.1068627 0.0032887412 0.06048552 0.08678053
0001c0 8d d6 95 3d f0 e7 95 3c ee 71 cf bd bc 3a 1a 3c
       0.07316313 0.018299073 -0.10129152 0.009413417
0001d0 f5 0b 9f bd 36 cd 7b bd 01 6a 82 bd b2 5e c8 bc
       -0.077659525 -0.061475 -0.06367875 -0.024459217
0001e0 c1 64 b4 bd 6b 93 07 3e db 60 9c 3c a4 fb 14 3d
       -0.0880828 0.13239829 0.019089153 0.036372796
0001f0 e4 5a d5 bd c9 ed 3c 3d 1a 03 2b 3d 57 39 c6 bd
       -0.10417727 0.046125207 0.041751005 -0.096789055
000200 92 71 46 3d bd 27 a2 bb 5b 59 ca bc 35 3e bb 3d
       0.048448153 -0.004948585 -0.024700811 0.091427244
000210 3d cf c4 bd 5e 45 05 bd 9b d3 0e 3d e5 ea c0 bd
       -0.0960984 -0.032536857 0.03486977 -0.094198026
000220 5d 21 e0 bc e3 74 9a bc 77 af 73 3d 32 04 a8 bd
       -0.027359659 -0.018854564 0.05949351 -0.08203925
000230 35 f6 54 3d 82 85 ca bd fd a3 91 bb 9a 82 48 bd
       0.051992614 -0.09888746 -0.0044445978 -0.048952676
000240 91 40 81 bd 30 7f f2 3d f4 26 e6 3d eb c2 9d 3d
       -0.06311143 0.11840665 0.112378985 0.07703193
000250 f2 23 a7 3d ca 21 56 bd 48 e1 f8 bc e8 f8 b8 3c
       0.08161153 -0.052278318 -0.03038086 0.022579625
000260 ad d8 ad 3c 85 4f 4a 3d 74 0c 27 3c d7 e9 93 3d
       0.021221483 0.049392242 0.01019584 0.07222336
000270 48 5c 56 3d 19 4f 7f bc 26 1b 43 bd f6 05 9b bd
       0.0523341 -0.015582823 -0.047633313 -0.07569496
000280 a1 8b 6d 3d 96 92 20 bd f5 01 fa bd d8 bf 95 bc
       0.05799449 -0.039202295 -0.122074045 -0.018279955
000290 0a 6c c4 3d 2a 03 57 3c 06 3a b7 3d df 08 48 3d
       0.09590919 0.013123313 0.08946614 0.048836585
0002a0 9a 3b cb bc 79 b1 51 bd 6e 9a 89 bd bd 54 77 bd
       -0.024808694 -0.05119464 -0.06718908 -0.060383547
0002b0 f7 54 60 3d 54 80 cd 3d bc 3c 23 3c 9d d7 64 3d
       0.05476853 0.10034242 0.009963211 0.055869687
0002c0 c0 3b 94 bd 9c 6c fd 3b 57 ac 09 bd a2 da 24 bd
       -0.07237959 0.0077338945 -0.03361162 -0.040247567
0002d0 d8 04 6d bd c4 8c 8c 3d c7 6d 03 bd 1d 3f 28 bd
       -0.057865947 0.068627864 -0.032087114 -0.041075815
0002e0 34 b0 e3 3d b0 a0 ec 3d c4 89 a0 3b ea ee cd 3d
       0.111175925 0.11554086 0.0048992354 0.10055335
0002f0 a9 47 d3 3d dc 33 ba 3d a4 71 82 bc 2d 54 e0 3a
       0.103164025 0.09091923 -0.015923329 0.001711493
000300 d5 7a 05 be 27 9f 5d bd f7 d4 e6 bd 52 bf 82 bd
       -0.13035138 -0.054106858 -0.112710886 -0.06384148
000310 88 ae 22 bc fa d5 64 3c 2b e5 c6 3d a3 dc cc bc
       -0.009929307 0.013967032 0.09711679 -0.025007552
000320 d4 d4 e9 3d 0c fd 55 3d 66 a3 c1 bc 69 0e 9d bd
       0.11417547 0.052243277 -0.023637485 -0.07668764
000330 94 75 a4 bd c4 4d d3 3b 2d 6a 41 bd de ec f2 3c
       -0.08030239 0.0064484794 -0.047220398 0.029653963
000340 83 58 e4 bd 36 59 ae bd 28 db f3 bd cd 76 a7 3d
       -0.11149695 -0.085131094 -0.11907035 0.08176956
000350 ff a9 e4 3c 79 92 a4 3b 85 ec a2 3d 46 18 d9 3d
       0.027913092 0.0050223437 0.07955269 0.10600333
000360 97 e3 10 bd d6 4d ee bd e1 99 f3 3d 60 7a 6c bd
       -0.035373297 -0.1163594 0.118945844 -0.057733893
000370 e3 94 c5 bd a8 52 ab 3b a8 c9 b3 3d ef 49 de bd
       -0.096475385 0.0052283593 0.08778697 -0.108539455
000380 89 e7 ec bd 15 a1 fb 3c 3f e2 f2 3c 1a 6d ae bd
       -0.11567599 0.030716458 0.029648898 -0.08516903
000390 72 bd 93 3d 86 a6 31 3c a3 8a 83 3d 09 81 3b 3d
       0.07213868 0.010842925 0.06422927 0.045777354
0003a0 a4 7d 01 bd a4 98 94 bd af 18 4e 3c 0f 4b 17 3d
       -0.03161396 -0.072556764 0.012579127 0.036936816
0003b0 2f ee a5 bd 70 20 72 3d c4 64 ab 3c 4f d9 50 3d
       -0.081020705 0.059112966 0.020922072 0.05098849
0003c0 51 31 61 bd 5a b3 a1 bc d0 1b 8f 3c 4f e8 c9 bd
       -0.054978672 -0.019738842 0.017469317 -0.098587625
0003d0 49 d4 30 bc 68 4e b6 bd ce 70 21 bd 0f 5f e9 3d
       -0.0107928 -0.089016736 -0.03941422 0.11395084
0003e0 20 41 15 bd fa b2 f2 bd 3f 53 61 bd 32 61 cc 3d
       -0.03643906 -0.11850543 -0.05501103 0.09979476
0003f0 9c 1f dd bd 71 b8 53 bd b8 e3 30 bd 9a 75 ee 3d
       -0.10797045 -0.05168957 -0.04318592 0.116435245

block2.1.weight f4 [16, 16, 1, 1]
000000 21 3d 03 3e d9 9f d1 bd c2 9e 41 3e 16 a5 56 3e
       0.12816288 -0.10235567 0.18908218 0.20961413
000010 f2 3a c0 bd e5 a0 9d 3d 1e e3 28 3e 13 59 99 3c
       -0.09386243 0.07696704 0.16492888 0.018719232
000020 ba 86 9f 3d 2f 79 8a 3d f1 b7 38 3e 5b 84 f2 3d
       0.07789369 0.06761395 0.18038918 0.11841651
000030 a9 27 f7 3c 2c 2e 39 3e 5d 74 76 be c5 50 20 be
       0.030170279 0.1808402 -0.24067827 -0.15655811
000040 97 19 91 3d 36 63 5f be 68 95 f5 bd a4 0d 55 3e
       0.07084959 -0.2181519 -0.119913876 0.20805985
000050 b5 fa 67 3d d6 51 fa bd c7 c4 f4 bd ac e1 c4 3d
       0.056635577 -0.1222264 -0.11951595 0.09613356
000060 58 23 7b be e9 27 63 be 8a b1 56 be 53 b3 4c 3e
       -0.24525201 -0.22183193 -0.20966163 0.19990282
000070 ff f2 3f be 3b 43 7d 3d eb d4 28 3c 66 19 87 3c
       -0.1874504 0.061831694 0.01030467 0.016491603
000080 47 6d 35 3e 7a 89 26 be 4b 8d 1e 3e 61 92 5b be
       0.17717467 -0.1626338 0.15483586 -0.21442558
000090 f2 df 40 be 73 d1 ce 3d c1 78 27 3d bd ed 82 3e
       -0.18835428 0.10098543 0.040886644 0.25572005
0000a0 95 0d 63 3e bf 94 ac 3d 4e 25 55 be cb a0 0c 3e
       0.2217315 0.084268086 -0.20815012 0.13733213
0000b0 05 75 04 be 2e 71 1d 3e 57 7e 3d be 1f 9f 2a 3e
       -0.12935264 0.15375206 -0.18505226 0.16662262
0000c0 69 ed f5 bd 28 41 7e 3d c4 a7 d2 3c 3e c7 69 3e
       -0.12008173 0.062073857 0.025714763 0.22829911
0000d0 35 4a 97 bd 96 ea 40 be e6 67 7d be 47 ef 59 3e
       -0.07387201 -0.18839487 -0.24746665 0.21282683
0000e0 7e a7 f3 3d 32 7c 99 3d 07 bb 64 bd 95 f7 6c be
       0.11897181 0.074943915 -0.055842426 -0.2314132
0000f0 3b 04 dc bd 19 3a 05 3d 65 f7 53 be 94 da 0f be
       -0.107429944 0.03252611 -0.20699842 -0.14048225
000100 e9 fb 07 be 1d f7 2a 3e 59 5d 9d bd 57 65 72 be
       -0.1327969 0.16695829 -0.0768382 -0.2367147
000110 a1 29 1a bd 10 ca a1 bc 37 2a b9 3d d0 1e bb 3d
       -0.037637357 -0.019749671 0.09041255 0.091367364
000120 37 ac 6b be 09 aa 77 3e 34 f9 cc bd 84 e7 62 3e
       -0.23014913 0.24185957 -0.10008469 0.22158629
000130 8c 92 c3 3d 5d 20 3f 3e f3 da 1b be 6c 36 0e be
       0.09549436 0.1866469 -0.15220241 -0.13887948
000140 1f 05 f9 3b 66 fa fb bd e6 df 00 bd 51 0c 81 b8
       0.0075994874 -0.12303619 -0.031463526 -6.1534935e-05
000150 97 41 dc bc e5 fb 62 3e b4 21 53 3d f5 56 46 3e
       -0.026886744 0.22166403 0.051545814 0.19369109
000160 69 f8 40 bc 6a 71 18 3e 38 14 ee 3d 3b 04 5f 3e
       -0.011777976 0.14887014 0.1162495 0.21778958
000170 97 1b d6 3d c0 7f 9a 3c e6 ee 72 be f4 63 75 3b
       0.10454481 0.018859744 -0.23723945 0.003744361
000180 9b f9 a7 3d 6c 22 4d be e6 eb 44 3d 30 b3 60 3e
       0.08201905 -0.20032662 0.048076533 0.21943355
000190 6c 02 55 be 30 33 65 3e b9 3a 78 bd 62 68 ac bd
       -0.20801705 0.22382808 -0.060602877 -0.08418347
0001a0 28 cc c5 bd 43 22 5e 3d bd 65 cb 3d c7 d2 5a 3e
       -0.0965808 0.054231893 0.099315144 0.21369468
0001b0 b8 5e d6 3d 74 2a 61 3e 18 7e 32 ba 46 7b 70 bb
       0.10467285 0.21988851 -0.00068089506 -0.003669457
0001c0 d7 38 76 3e 68 16 bc bc bf 74 d1 3d 28 19 ef 3d
       0.2404512 -0.022959903 0.10227346 0.1167472
0001d0 8f 0a 3f 3c 82 5f 5e be 9f 3e 07 be 12 c9 b1 3d
       0.011660232 -0.21716121 -0.13207482 0.08680929
0001e0 ce 31 85 bd 5c 4c c2 3d 51 68 f2 3c 93 3e 32 be
       -0.0650364 0.09487221 0.029590758 -0.17406683
0001f0 8d 3b 4c bd bc d4 aa 3c c3 de f8 bc d5 65 9f bd
       -0.04986148 0.020853393 -0.030379659 -0.07783095
000200 ea 94 83 3d d0 2e b9 bd 4c bb a2 3d d2 03 31 3e
       0.064248875 -0.09042132 0.0794588 0.17286614
000210 da 24 a5 bd ce c6 76 be 47 fd 98 3d b0 db 37 be
       -0.080636695 -0.24099275 0.07470184 -0.17954898
000220 1e 3e 81 3d e8 45 6c be ab 12 cd bc 33 bb 45 be
       0.06310676 -0.23073542 -0.025033316 -0.19309692
000230 35 68 25 3e 34 ab 32 3e 82 06 18 3e c5 6a 84 bc
       0.16153033 0.17448121 0.14846233 -0.016164193
000240 48 19 f1 bc db 56 27 be d6 fe 00 be 84 fe 0f 3d
       -0.029431 -0.16341726 -0.12597212 0.035154834
000250 81 77 fc 3d 1d ac 8d bd 91 db d6 3c aa 18 65 be
       0.12327481 -0.06917594 0.026227744 -0.2237269
000260 9d c2 80 be 1b 49 6f 3c 58 16 8c bc 0e 72 d8 bd
       -0.25148478 0.014604832 -0.017100498 -0.10568629
000270 fd f3 55 be 0b 30 a9 bd fa bc 0e 3e e9 e8 6b 3d
       -0.20893855 -0.082611166 0.13939276 0.057595167
000280 3d cc 61 3b ec 26 8c bd b9 6e f0 3b 45 b1 66 be
       0.003445401 -0.06843361 0.007337418 -0.2252856
000290 95 b0 4e be 84 5d 36 3e 6e b1 fa 3d 73 a7 14 3e
       -0.20184548 0.17809111 0.12240873 0.14517002
0002a0 49 aa 9e bd d7 08 cc bd cd da 12 bb 54 a6 62 be
       -0.07747323 -0.099626236 -0.0022408247 -0.22133762
0002b0 27 68 2e be 56 cd 67 3e af b2 dd bd bf 0e 72 3e
       -0.17031918 0.22636923 -0.10825097 0.23638438
0002c0 2b 33 65 3e 66 58 42 3d 4d dc 84 3c d0 60 1a 3e
       0.223828 0.047447585 0.016218329 0.15075994
0002d0 02 6a a1 3d ff 77 64 be 26 6d 60 be 6d 98 56 be
       0.078815475 -0.223114 -0.21916637 -0.20956583
0002e0 57 02 68 3e af 9c 6d 3e 89 3a ba 3d 32 90 6a be
       0.22657143 0.23204301 0.09093196 -0.22906569
0002f0 7b 50 1c be 86 79 1d be b6 0d b5 3d c0 cc 3b 3e
       -0.15265076 -0.15378389 0.08840506 0.18339825
000300 de 0e 13 be 66 3f 79 bc 72 ba 2c bd 6b 99 c3 3c
       -0.1436114 -0.015212869 -0.042169996 0.023876866
000310 ac 54 85 bd 7b 19 9d 3c 68 ab 28 3d 1a f0 b2 bc
       -0.065102905 0.01917719 0.04117909 -0.021843005
000320 cc b7 40 be eb 4d 1f 3e 1e 1d aa 3d 3c b1 72 be
       -0.18820113 0.15557067 0.08306335 -0.23700422
000330 61 f3 08 be d4 a4 08 3e 9b da b4 bd ef 58 d0 bd
       -0.13374092 0.13344127 -0.08830758 -0.10173213
000340 8d 82 ac bd 95 49 04 3e 65 5f dd 3c 65 7a 0a 3e
       -0.08423338 0.12918694 0.027023027 0.13523252
000350 9a cd e6 bd d0 50 20 3e 95 1d 23 be 64 41 4f 3e
       -0.11269684 0.15655828 -0.15929253 0.20239788
000360 60 48 2a be 53 b9 41 3e f3 d1 6b 3e 77 20 0e bd
       -0.16629171 0.18918352 0.23029308 -0.03469893
000370 db d3 51 be 6f 70 f5 3d 9e 50 ac bd 44 52 06 3e
       -0.20490973 0.11984336 -0.08413814 0.1311732
000380 9e d8 9f 3c db df 02 be 96 a5 3f be 73 fc 8a 3d
       0.01951247 -0.12780707 -0.1871551 0.06786432
000390 c2 fb 14 3d 0d d9 d1 3d 3b 09 8f bd b5 06 64 3d
       0.036372907 0.10246477 -0.069841824 0.05567046
0003a0 92 0b 68 be 1c ee 28 3e ee 11 66 3e 3b 9f 63 be
       -0.22660664 0.16497082 0.22467777 -0.2222871
0003b0 f2 45 5e 3e cc 7a 3e be 6c 70 6c 3e 89 0a fb 3d
       0.2170637 -0.18601531 0.2308976 0.12257869
0003c0 18 76 92 bd ef 3e d5 3d f4 09 6d 3d 80 b8 13 3e
       -0.07151431 0.10412394 0.05787082 0.1442585
0003d0 94 89 47 3e 5d b3 82 3e ec ec 05 be 25 24 df bd
       0.19486076 0.25527468 -0.1307866 -0.10895566
0003e0 af 5d 26 bb 6c 89 1e 3e 14 17 43 3e f0 01 36 be
       -0.002538543 0.1548211 0.19051772 -0.17774177
0003f0 63 ec a8 bd 38 55 13 3d 50 51 25 bd c6 9c d7 bd
       -0.08248212 0.035969943 -0.04036075 -0.10527949

block2.2.weight f4 [16]
000000 c5 16 77 3f a6 5b 79 3f b7 ef 78 3f 67 b5 79 3f
       0.9651912 0.9740547 0.97240776 0.97542423
000010 da 02 7b 3f 6e 45 78 3f b8 a4 78 3f 87 0e 78 3f
       0.98051226 0.9698094 0.9712634 0.96897167
000020 13 3c 78 3f fc 1e 7b 3f 15 c5 78 3f f3 df 78 3f
       0.96966666 0.98094153 0.97175723 0.9721672
000030 26 cb 79 3f 83 4d 7b 3f 19 6e 7a 3f fe 87 79 3f
       0.97575605 0.9816515 0.97824246 0.9747313

block2.2.bias f4 [16]
000000 ea c0 9e bc 02 85 b2 bc 1a cc 86 bc a1 b7 8a bc
       -0.019379098 -0.021791939 -0.016454745 -0.016933264
000010 f8 43 21 bc 05 b7 f3 bc d9 2e c7 bc 8c b1 88 bc
       -0.009842865 -0.029750356 -0.02431433 -0.016686223
000020 c1 b1 9f bc 28 81 51 bc 44 fa ca bc fa 09 94 bc
       -0.01949394 -0.012787141 -0.02477754 -0.018071163
000030 fe 43 9c bc 74 8a 17 bc bc f6 34 bc 2f 18 ab bc
       -0.01907539 -0.009249318 -0.011045154 -0.020885555

block2.2.running_mean f4 [16]
000000 82 ec 18 3b d3 c1 08 bd 40 4a 5a bc 05 18 9a bc
       0.002333433 -0.03338797 -0.013323367 -0.018810282
000010 a8 db 3a 3b 04 5e a6 bb 50 9b fb bb 73 f2 fe 3a
       0.0028512273 -0.0050771255 -0.007678427 0.0019450918
000020 9f 17 20 3c ed e1 5e bc 6e 01 d8 39 32 b6 a7 bc
       0.009771257 -0.01360367 0.00041199796 -0.02047262
000030 a8 f7 a2 ba 39 20 6c bc 77 21 7e 3c 63 98 e4 bb
       -0.0012433426 -0.014411979 0.015510908 -0.0069761737

block2.2.running_var f4 [16]
000000 82 5a 24 3f c9 84 26 3f 1b 4f 27 3f e7 e5 25 3f
       0.64200604 0.65046364 0.6535508 0.6480393
000010 32 84 25 3f b5 d0 22 3f d1 cf 24 3f fb 14 21 3f
       0.6465484 0.6359971 0.643796 0.6292264
000020 a9 ff 24 3f 34 0b 22 3f 3d 93 25 3f 89 b2 27 3f
       0.64452606 0.63298345 0.6467779 0.655068
000030 bc 89 21 3f 1d 23 24 3f 23 bd 25 3f c5 b5 22 3f
       0.6310079 0.6411608 0.64741725 0.6355861

lin.weight f4 [2, 4960]
000000 69 36 fe ba 13 bd 61 3c 5f f0 b4 3b 61 10 29 3b
       -0.0019394878 0.013777989 0.0055218185 0.0025797116
000010 9a 61 be bb 99 58 43 bc 3e e1 fc 3b 60 7c 18 bc
       -0.005809975 -0.011922979 0.0077172806 -0.009306997
000020 2c 27 fd 3b f5 aa 37 bc e9 4d ed 3b 00 8d fe 3b
       0.007725617 -0.011210193 0.0072419536 0.0077682734
000030 55 66 61 3c 04 c0 77 bc 7b 56 25 bc 2a 96 43 bc
       0.013757308 -0.015121464 -0.010091419 -0.011937657
000040 63 03 9c 3b 66 b0 94 3b f1 de 88 bc 1a 48 dd 3b
       0.004761146 0.00453763 -0.01670787 0.00675298
000050 e4 cb 08 3b ca a3 3b bc 4f df a2 bb 9b 1f 0f b9
       0.0020873481 -0.011452625 -0.004970468 -0.00013649317
000060 42 5d 5a 3b 44 35 1d bb ca 7b 0f bc f5 c3 b7 bc
       0.0033319746 -0.0023988048 -0.008757541 -0.022432307
000070 31 6d fc 3b 26 9e dc bb 1f b0 82 3b 12 d4 37 bc
       0.0077034463 -0.00673272 0.0039882804 -0.011219995
000080 2c b9 7b 3b 7c 83 30 3a ff f2 63 bc ea 6d 04 3c
       0.0038409932 0.000673346 -0.013912915 0.008082846
000090 cc 1f 33 3b 79 04 60 3c 33 14 4a bc 34 b4 58 3c
       0.0027332185 0.013672941 -0.012333917 0.0132265575
0000a0 fd 9c ac 3c fc db 31 bb 32 78 89 3c 9f dd 3d bc
       0.021070952 -0.0027139178 0.016780946 -0.011588483
0000b0 1b 02 9e bc 8c ac fc 3a 2b a6 8f bb 4f db 96 3c
       -0.019288113 0.0019277497 -0.0043838224 0.018415121
0000c0 a3 1a c8 bb 7a 86 4e bc 4e ce c9 3b d1 21 71 3b
       -0.006106691 -0.012605304 0.0061586266 0.0036793838
0000d0 f1 99 fc ba 08 69 9a bb bc a0 6b 3b e5 2e a0 ba
       -0.0019271952 -0.0047122277 0.003595396 -0.0012221007
0000e0 00 7c 3b 3c 64 83 8d bc 53 16 b4 3b 5c 63 4b 3c
       0.011443138 -0.017274566 0.0054958253 0.012413826
0000f0 72 f6 b0 3b 22 37 91 ba 6b 74 43 3c 34 cb 0f bc
       0.0054004723 -0.0011079053 0.011929612 -0.008776475
000100 b6 15 74 bc e1 fc 17 3c 25 fd ce 39 5d 59 c5 3b
       -0.014897754 0.0092766 0.0003947999 0.006022616
000110 2f e8 47 ba 59 47 7d 3b 16 70 a4 bb 5a 44 fb bb
       -0.00076258456 0.0038647263 -0.0050182445 -0.0076680603
000120 58 e6 95 3a 51 57 11 bc 13 4e f3 bb 20 1e b3 b9
       0.0011436446 -0.0088709155 -0.0074250787 -0.00034163985
000130 2b 5d 2e 3a 9d e1 2e 3b 24 21 7f 3c 40 4e 76 3c
       0.00066514564 0.002668477 0.015571866 0.015033305
000140 57 88 10 bc e2 af 09 3c bc 1e dc bb 83 75 eb 3b
       -0.008821568 0.00840375 -0.006717531 0.0071856393
000150 f9 c0 58 3b a1 a2 a8 3c b0 9f c0 ba d6 b7 30 bc
       0.0033074005 0.02058536 -0.0014696028 -0.010786017
000160 d9 c6 ef bb 11 27 14 3b 7b d0 5a 3b 55 d0 45 bb
       -0.0073174057 0.0022606293 0.0033388424 -0.003018399
000170 2c 19 44 3c 9b 8b 1e bc 9f da dc 3b 1b 64 34 bb
       0.011968892 -0.009676839 0.006739929 -0.0027525488
000180 a1 94 0f bc bc 60 1f bc a5 d7 d6 bb d5 8f 05 bc
       -0.008763463 -0.009727653 -0.0065564686 -0.008151968
000190 9d 41 a4 bb 39 ac 94 ba 64 74 92 3a 5c 35 40 3c
       -0.0050127045 -0.001134283 0.0011173603 0.011731472
0001a0 9f 29 23 3c 2a 87 1e 3c 33 28 96 b9 6d 29 73 bc
       0.009958654 0.00967578 -0.0002864018 -0.01484142
0001b0 cb 6a 24 3c 3c 28 9c 3b d1 55 4d bc 02 bc 01 bc
       0.010035227 0.0047655385 -0.012532667 -0.00791836
0001c0 3a f5 de 3b 7b 3b 08 bc c8 83 a6 bc 9d 9f 4e 3c
       0.0068041356 -0.0083149625 -0.02032651 0.012611297
0001d0 ac 52 97 bc c3 76 4a bb f7 23 95 bc 24 19 4f bc
       -0.018472038 -0.0030893541 -0.018205626 -0.012640271
0001e0 dc 86 b5 bb d6 32 aa 3c 04 d0 75 3c 9a b6 90 3b
       -0.005539758 0.020776194 0.015003208 0.004416299
0001f0 4f 72 e7 bb 48 a5 b9 3b b9 5b 2c 3c dd e2 11 bc
       -0.007063187 0.005665455 0.010519915 -0.008904186
000200 09 89 16 bb 09 02 c2 bb 0e 3f 81 bc dd 48 98 3c
       -0.0022969863 -0.0059206528 -0.015777137 0.018589431
000210 72 e4 0f ba bb 0a 80 3c 3c dd 04 3c 2b 60 08 3c
       -0.0005489058 0.015630117 0.008109387 0.0083237095
000220 f4 a2 55 bb f0 f2 5b bc 8c 91 af ba 53 4e bd 3b
       -0.0032598348 -0.01342462 -0.0013394817 0.0057771592
000230 b4 50 17 3c ec 1d a3 39 10 43 6b 3a c2 b4 87 bc
       0.00923555 0.00031112076 0.00089745317 -0.016565684
000240 dc 9e a6 3b 26 e6 6f bc e6 c1 05 3c d0 d7 2e 3b
       0.0050848555 -0.014642274 0.008163905 0.0026678927
000250 2e 39 23 bb a9 a0 31 3c 0a 77 83 bc 84 53 ef 3a
       -0.0024905908 0.010841527 -0.016047973 0.0018259143
000260 4b 1c 31 3c 07 c6 e1 bb 22 dd a4 bb 23 fa 59 3b
       0.010809968 -0.006890062 -0.005031244 0.0033260665
000270 b0 d0 e4 3b 75 e7 8b bb 74 16 51 3a 4c 61 11 bc
       0.0069828853 -0.004269535 0.0007976063 -0.008873295
000280 0a 8c 87 3b 0c 70 96 3c 72 c3 01 bc cb 73 58 3c
       0.004136567 0.018363975 -0.007920133 0.013211201
000290 c3 a5 4c bb 3b 59 2a bc 1a 39 4f 3c 0e 8b 87 3c
       -0.0031226731 -0.010397251 0.012647891 0.016545799
0002a0 e3 0d 99 3a 84 a4 03 bc 91 41 f6 3a 0e cd fb b8
       0.0011677112 -0.008034829 0.0018787851 -0.00012006807
0002b0 9f 7d 04 3c 08 ea 6d bc 62 8d cf 3b 7a e4 1c bc
       0.008086591 -0.014521129 0.006333993 -0.009575957
0002c0 83 17 20 3b 71 aa 2e 3c 15 2a 12 bb 4b 29 95 bb
       0.0024428077 0.010660754 -0.0022302915 -0.0045520416
0002d0 83 4d 37 bc 08 ae 1d 3b b9 56 88 bb 94 25 3d bc
       -0.011187914 0.002406003 -0.004160729 -0.011544604
0002e0 5c 92 75 3b 83 b1 8c 3c 30 f2 33 39 26 44 83 3c
       0.003747127 0.017174488 0.00017160992 0.016023707
0002f0 02 0c 0d 3c fd 17 6e bc ac 54 9b bc ad a1 77 3b
       0.00860882 -0.014532086 -0.018961273 0.0037785575
000300 5e b0 87 b9 95 79 25 bc 19 42 1c bc cd 96 45 3b
       -0.0002588061 -0.010099788 -0.009537243 0.0030149699
000310 ef 74 c0 ba e8 71 b4 bb 63 60 1d bb 0d e0 a5 bb
       -0.0014683286 -0.0055067427 -0.002401375 -0.0050621093
000320 47 a3 c7 bb d8 9c 9a ba da 60 c4 3a 75 9d 10 3c
       -0.006092462 -0.0011796011 0.0014982477 0.008826603
000330 8c 7d 86 bb 4f 17 01 bb 7c 37 cd bb 93 b8 d7 3c
       -0.004104322 -0.001969773 -0.006262718 0.026333129
000340 72 2b b0 3b 96 42 01 3c 69 84 09 3c a9 5e a4 bb
       0.005376273 0.0078894105 0.008393385 -0.005016167
000350 e1 c4 18 3c cd 8c bc bb 27 2c 91 bc 11 5a 33 bc
       0.009324283 -0.0057540894 -0.017721249 -0.0109467665
000360 d7 72 8c bc 94 5f 66 3b 37 af d8 ba ed df 5f ba
       -0.017144604 0.0035152184 -0.001653171 -0.00085401424
000370 a3 e8 89 bb da 06 69 ba 9b 5a 63 bb 8f 8f e2 b5
       -0.0042086407 -0.00088892656 -0.0034691456 -1.6880093e-06
000380 21 e4 86 3c fd d9 4c 3c 50 d4 ea bb d9 bb 32 bc
       0.016466202 0.012503144 -0.007166423 -0.010909044
000390 91 59 88 3b c3 96 ed bb 7a 56 5e bc 4b 66 be ba
       0.004161068 -0.007250638 -0.013570422 -0.0014526335
0003a0 a5 7f 81 3c dd 3e 0d bc a6 e3 6c bc ad 3e 82 3b
       0.015807936 -0.008620945 -0.0144585725 0.0039747567
0003b0 84 1b d5 bb 23 65 76 3c cb 29 3e bc 62 a8 3d bc
       -0.0065035243 0.015038761 -0.011606644 -0.01157579
0003c0 48 4c e3 3b c9 15 9f 3b ad a2 ed 39 e8 ac 94 bb
       0.0069365837 0.004854892 0.00045325365 -0.0045372136
0003d0 8a 81 35 bb 36 31 c5 ba 32 33 17 bc 6a f4 c0 bb
       -0.002769562 -0.0015044573 -0.0092285145 -0.0058885114
0003e0 c3 95 53 bc 8c a9 bf bb 35 5c 4d 3c 79 73 b7 3a
       -0.012914124 -0.005849069 0.012534191 0.0013996206
0003f0 24 d2 ab bb e4 4b 06 3c fd 41 95 3a 7e 0e 8c 3b
       -0.0052435566 0.008196805 0.0011387464 0.0042741885

exp_avg f4 [8, 1, 1, 250]
000000 6b ca 57 3b 6b 90 63 3b bb 0d 71 3b b0 55 7b 3b
       0.0032927047 0.003472353 0.0036781866 0.0038350634
000010 bd 53 80 3b 2e 66 81 3b 31 ab 81 3b 64 46 83 3b
       0.0039162324 0.0039489483 0.003957175 0.004006194
000020 93 65 85 3b 57 95 84 3b 4b b1 7b 3b 44 80 61 3b
       0.0040709465 0.004046123 0.0038405235 0.0034408728
000030 7f d0 43 3b 92 26 2c 3b dd 7c 1c 3b 61 b4 0e 3b
       0.0029878912 0.0026268107 0.0023878135 0.0021774995
000040 e4 fe f7 3a a8 28 c8 3a 6c 13 8e 3a 8d b1 11 3a
       0.0018920568 0.0015270906 0.0010839528 0.0005557768
000050 39 12 bf b8 b2 4d 54 ba 4d 70 c3 ba 17 50 04 bb
       -9.110984e-05 -0.00080987357 -0.0014910788 -0.0020189339
000060 b8 62 1f bb 71 df 3c bb a8 6f 63 bb bd 4f 87 bb
       -0.0024320316 -0.0028819705 -0.0034704003 -0.0041293786
000070 39 84 99 bb 8f a6 a3 bb 43 a9 a7 bb d7 a8 aa bb
       -0.0046849516 -0.0049942206 -0.005116613 -0.0052081156
000080 2b 4e af bb cd 3e b4 bb ce 45 b6 bb f5 05 b5 bb
       -0.0053498945 -0.0055006505 -0.0055625206 -0.005524392
000090 b8 7d b2 bb ff 0c b1 bb 0d 6d af bb cc 05 aa bb
       -0.0054471157 -0.0054031606 -0.005353576 -0.0051886793
0000a0 08 5a 9d bb ce 02 8a bb fb ef 69 bb f3 e0 49 bb
       -0.0048019923 -0.00421176 -0.0035696018 -0.0030804246
0000b0 00 5d 3d bb e9 35 42 bb eb 8b 4d bb 95 2a 55 bb
       -0.0028894544 -0.0029634184 -0.0031363915 -0.0032526602
0000c0 ba e5 54 bb 3b db 52 bb 84 be 53 bb de 4f 57 bb
       -0.003248556 -0.0032174129 -0.00323096 -0.0032854
0000d0 e5 2b 5a bb b7 2c 59 bb c3 22 55 bb 43 5f 52 bb
       -0.0033290323 -0.0033138224 -0.003252194 -0.0032100237
0000e0 39 8d 52 bb 6e 05 56 bb 83 ca 5c bb 24 84 63 bb
       -0.0032127632 -0.0032657045 -0.0033690042 -0.0034716213
0000f0 07 78 66 bb b0 0d 62 bb cd fc 59 bb 82 6f 55 bb
       -0.0035166757 -0.0034493022 -0.0033262253 -0.0032567685
000100 a2 3f 55 bb 73 f7 52 bb 2f 41 46 bb 32 6f 2e bb
       -0.0032539149 -0.0032190948 -0.0030251255 -0.002661657
000110 2d e0 16 bb e6 bd 0a bb bb 18 0c bb 6b f3 10 bb
       -0.0023021803 -0.0021170317 -0.0021377045 -0.0022117745
000120 f0 cd 0f bb 78 e3 0a bb 62 b0 0b bb b4 6e 17 bb
       -0.0021942817 -0.002119271 -0.002131485 -0.0023106756
000130 b4 53 28 bb 60 76 34 bb cb f1 3a bb 1e c4 43 bb
       -0.0025684657 -0.0027536377 -0.0028525467 -0.0029871534
000140 49 20 55 bb 10 8b 67 bb 40 c3 6e bb ba 7a 5d bb
       -0.0032520464 -0.003533069 -0.0036432296 -0.0033795075
000150 27 d2 36 bb 08 32 08 bb ed 58 c0 ba 97 ab 8d ba
       -0.0027896257 -0.0020781774 -0.001467494 -0.0010808584
000160 33 a2 71 ba e1 77 80 ba 0a 02 9c ba 34 1a c9 ba
       -0.000921759 -0.0009801352 -0.0011902463 -0.0015342892
000170 6d 8f ff ba 4e e0 19 bb e9 63 2c bb 7a 8c 33 bb
       -0.00194977 -0.0023479643 -0.0026304668 -0.0027396963
000180 99 6a 31 bb 5c 38 2c bb 08 c4 29 bb 4f c6 2a bb
       -0.0027071594 -0.002627871 -0.0025904197 -0.0026058143
000190 d5 04 2b bb b7 2e 26 bb ec 87 18 bb 70 c8 04 bb
       -0.002609541 -0.0025357434 -0.0023274375 -0.0020261072
0001a0 c5 6d e1 ba 28 4d bf ba 6e ab a2 ba 31 a0 85 ba
       -0.0017198852 -0.0014595138 -0.0012410709 -0.0010194835
0001b0 fd 71 46 ba de 5e 06 ba 20 b9 b4 b9 a3 47 a6 b9
       -0.0007570086 -0.00051258306 -0.00034470204 -0.0003171536
0001c0 ea de da b9 ce 3f 10 ba 83 b1 19 ba d6 ff fe b9
       -0.00041746284 -0.00055026717 -0.0005862938 -0.00048637268
0001d0 e9 b9 a0 b9 32 9c 3a b9 43 3c 34 b9 91 fd 79 b9
       -0.00030656092 -0.0001779653 -0.00017188587 -0.00023840951
0001e0 51 4d 84 b9 41 3d 06 b9 c7 3d 33 38 c5 e0 d1 38
       -0.00025234607 -0.00012802055 4.273446e-05 0.00010007763
0001f0 17 25 7f b8 03 1d c6 b9 36 57 27 ba 24 1f 34 ba
       -6.083128e-05 -0.00037787118 -0.000638354 -0.00068710954
000200 f9 a7 13 ba 1d b9 ce b9 6f 97 8f b9 e8 78 24 b9
       -0.0005632635 -0.00039429302 -0.00027387912 -0.000156853
000210 0b b6 91 38 09 0d e2 39 47 64 5f 3a 15 65 9e 3a
       6.948047e-05 0.0004311579 0.00085217174 0.0012084568
000220 67 35 ba 3a 73 90 c4 3a 88 61 bc 3a d6 90 a2 3a
       0.0014206589 0.0014996663 0.0014372328 0.0012402784
000230 fc 59 78 3a 37 c2 25 3a 8b be b6 39 6f 49 f4 38
       0.0009473858 0.0006323191 0.0003485571 0.00011648505
000240 42 fb b7 b8 0b 17 8b b9 56 e5 c6 b9 09 c2 cd b9
       -8.7729204e-05 -0.00026529314 -0.00037936372 -0.00039245214
000250 11 ba 98 b9 d0 17 00 b9 57 3d 62 38 98 ee 54 39
       -0.0002913033 -0.00012215902 5.3939726e-05 0.00020306779
000260 8b 37 a2 39 b7 9c c4 39 5c 18 b6 39 64 51 54 39
       0.0003094043 0.00037500795 0.00034731894 0.00020248216
000270 d2 ce 4f b6 96 a9 3c b9 dc 94 98 b9 9d e6 a6 b9
       -3.096579e-06 -0.00017992253 -0.00029102608 -0.00031833808
000280 4c 19 9b b9 fa d7 9d b9 04 38 a3 b9 b4 28 a0 b9
       -0.0002958275 -0.0003010629 -0.00031131518 -0.00030547904
000290 b1 01 65 b9 cc be 9e 37 ea 3b d1 39 a4 56 5b 3a
       -0.00021839772 1.8923914e-05 0.00039908226 0.00083670975
0002a0 da 4e 9f 3a 4b 33 bf 3a 16 60 cc 3a cc ae c8 3a
       0.0012154237 0.001458743 0.0015592601 0.0015310883
0002b0 3c 6d b1 3a 85 fb 83 3a 96 ff 0c 3a 8a 1a 53 38
       0.0013536583 0.0010069465 0.00053786614 5.0331037e-05
0002c0 6f 24 ad b9 bc db 12 ba 23 83 3c ba 53 e5 68 ba
       -0.00033024276 -0.0005602201 -0.0007191172 -0.00088842696
0002d0 26 98 91 ba 51 38 b4 ba c7 af ce ba b1 9e da ba
       -0.0011107966 -0.0013749694 -0.0015768938 -0.0016679374
0002e0 dd f5 d7 ba 5e 70 ca ba 48 2b ba ba 59 1d af ba
       -0.0016476471 -0.0015444865 -0.0014203573 -0.0013360187
0002f0 e2 f7 ab ba fc 5f ad ba 6d d9 a7 ba 1f a2 93 ba
       -0.001312014 -0.0013227458 -0.0012805887 -0.0011263526
000300 e8 ba 66 ba d8 4b 19 ba d8 ae 8a b9 dc ed f5 38
       -0.0008801655 -0.00058477884 -0.0002645168 0.00011726815
000310 b9 ef 1d 3a a3 60 8f 3a 6d 3b bc 3a 97 0b c8 3a
       0.0006024796 0.0010938834 0.0014360972 0.0015262243
000320 7c ec b9 3a aa 0b aa 3a 35 d1 b2 3a fe 8c d8 3a
       0.0014184858 0.0012973447 0.0013642671 0.0016521511
000330 cb 21 08 3b 8c 39 28 3b 69 c4 49 3b 84 3e 6c 3b
       0.0020772095 0.0025669066 0.0030787236 0.0036048004
000340 4d ec 85 3b 8c 87 93 3b cb 74 9e 3b 4f 72 a8 3b
       0.004087007 0.0045022424 0.0048357 0.00514058
000350 3d 2b b3 3b e4 90 bd 3b 46 f1 c4 3b 0c bd c6 3b
       0.005467801 0.0057850946 0.0060102073 0.0060650166
000360 92 9d c2 3b cc 67 b9 3b fa d9 ad 3b f5 1c a2 3b
       0.005939194 0.0056581255 0.005305526 0.0049472996
000370 84 5a 97 3b 90 be 8b 3b 5d 33 7a 3b ad 7d 53 3b
       0.0046189446 0.00426466 0.0038177588 0.0032270954
000380 cf 47 24 3b 74 48 e8 3a 9b e3 95 3a 1c 9c 36 3a
       0.0025067215 0.0017721788 0.001143563 0.0006966011
000390 b8 09 df 39 b2 36 9f 39 46 80 81 39 f6 c5 3d 39
       0.00042541116 0.00030367594 0.00024700369 0.00018098191
0003a0 4c 63 f1 37 9d 1b 69 b9 14 6d 0d ba ce c9 5d ba
       2.8775677e-05 -0.00022230898 -0.0005394977 -0.0008460552
0003b0 e0 4e 88 ba 75 1c 91 ba 95 f2 8b ba 0f fc 72 ba
       -0.0010399483 -0.0011071103 -0.0010677153 -0.0009269127
0003c0 30 83 35 ba 24 29 e6 b9 27 d8 6e b9 fd 84 38 b9
       -0.00069241505 -0.0004389967 -0.00022777972 -0.0001759715
0003d0 c9 d6 ab b9 3e 32 27 ba a5 5c 76 ba 0c 3d 8c ba
       -0.0003277569 -0.0006378031 -0.00093979604 -0.0010699346
0003e0 f9 0d 7c ba d4 a2 3c ba 89 3f 4c bb 84 a4 50 bb
       -0.0009615119 -0.0007195894 -0.00311658 -0.003183634
0003f0 38 9b 60 bb f8 cc 80 bb 48 bd 95 bb e9 59 a6 bb
       -0.0034272205 -0.003930684 -0.004569683 -0.005076636
