logs/pretext_task/version_0/checkpoints/epoch=8-train_loss=0.71-train_f1=0.48-val_loss=0.70-val_f1=0.53.ckpt (torch, 183470 bytes, 39 tensors)

block1.0.weight f4 [8, 1, 1, 250]
-0.016037052 0.04036516 0.032912474 -0.0312886 -0.038780056 -0.05870051 -0.08199044 0.030142127
0.02824041 0.018810323 -0.06817653 -0.058232397 -0.03744404 -0.014575155 -0.061808717 0.020165702
-0.007819328 0.03162319 0.010227036 -0.027852105 -0.042919625 -0.07755626 0.04673327 -0.03852494
0.018594794 -0.012560284 0.046413276 0.0014053005 -0.05444682 -0.05696236 0.03187723 0.043344475
0.019641353 0.053689666 0.06098914 0.06301081 0.06969027 -0.029574089 0.0469101 -0.038288657
-0.0322524 0.06503932 -0.010742802 -0.020149168 0.021080554 -0.011981512 -0.030078651 -0.05692034
-0.04174287 0.019714752 -0.06564638 -0.05925406 0.04550737 0.050505877 -0.053459376 -0.01526999
-0.060929615 -0.013788183 -0.023119772 0.04329122 -0.01838847 -0.03556894 -0.019021925 0.046784785
0.038266983 0.019526057 -0.0056739002 -0.028427415 -0.00025710915 0.00023185341 -0.057954416 -0.02299977
-0.039748136 -0.026927544 -0.062662974 -0.054689396 -0.057461567 0.003244611 0.02017831 0.06195423
-0.04521236 0.044847816 -0.0008510461 -0.03439481 0.041540805 -0.04017195 -0.0312582 0.058776654
0.0011471249 0.052112877 -0.05266603 0.01822845 0.0064693857 -0.008122306 0.06466413 -0.031886656
0.011480425 0.008095571 0.06589699 -0.012434882 0.01592345 0.0017351992 0.0454956 -0.041086745
-0.051852465 0.044549808 -0.0015069137 -0.043234605 -0.013500009 0.04362125 0.026948018 -0.07294573
-0.033761773 -0.0465306 0.026894955 0.03935097 -0.027950441 0.008803349 0.020637788 -0.07077536
-0.05982755 0.024977358 0.011545197 -0.044765484 0.030017372 0.010172573 -0.0036962316 0.02005478
0.024354205 -0.011666506 0.030721499 0.013158937 -0.060400143 0.029964393 -0.012595472 0.0524791
-0.05016953 -0.051646505 -0.020010361 0.008244421 -0.038612574 -0.00040471513 -0.044832658 0.046566196
0.004396046 0.03443792 0.060691394 0.02692066 0.02609098 0.02884711 0.015448648 -0.039597068
-0.011980194 -0.011500477 -0.032891717 0.06342711 0.011123713 -0.0061416593 0.031034298 -0.026574723
0.042191606 -0.0010791648 0.013257943 0.050395057 0.019577032 0.0485062 -0.06895098 -0.019478776
0.018458921 -0.020177092 -0.07787958 -0.04973205 -0.029901786 -0.08278771 -0.078698024 0.021423975
0.04034389 -0.016953643 0.009439651 -0.012503792 -0.030759176 0.052649867 0.034937143 0.053542033
-0.04064955 0.045422304 0.049635116 -0.0037003662 -0.066226184 0.006038591 -0.009760195 -0.021136973
0.028640741 0.04760003 -0.021261621 -0.0041908934 -0.0051093595 0.033753973 0.0083748335 0.042690795
-0.009738632 0.051643472 0.06280121 0.062176675 0.034465052 0.05557556 0.00129401 0.0043824306
0.048063282 -0.016806992 0.029813785 -0.012549261 0.04400259 -0.07260047 -0.037932634 -0.07130158
-0.060064368 -0.010699522 -0.033164486 -0.029609421 0.013929569 -0.041892093 0.039285664 -0.0027224561
-0.013505498 0.009068146 -0.034155563 -0.05682643 0.054879617 -0.026487641 -0.035209663 -0.01035481
0.05930368 -0.033802498 0.014289673 0.058595177 0.020991893 0.048865728 -0.05619984 -0.05866501
-0.05344269 -0.053053014 0.0014353173 0.005352785 -0.052129943 -0.041275404 -0.01846616 -0.019535314
-0.05995475 -0.014907316 -0.047159474 -0.0109859 0.02281805 0.042644143 0.026590597 -0.0119955065
00000000: 2360 83bc f055 253d 3bcf 063d 7a28 00bd
00000010: d6d7 1ebd f26f 70bd 9bea a7bd 9fec f63c
00000020: 6f58 e73c 1b18 9a3c 23a0 8bbd 1885 6ebd
00000030: ec5e 19bd a2cc 6ebc 232b 7dbd 8b32 a53c
00000040: a41c 00bc 5187 013d 4c8f 273c 192a e4bc
00000050: 7dcc 2fbd d1d5 9ebd 636b 3f3d 54cc 1dbd
00000060: 1c54 983c a6c9 4dbc d91b 3e3d 0f32 b83a
00000070: a103 5fbd 5d51 69bd b391 023d fa89 313d
00000080: e7e6 a03c b2e9 5b3d c0cf 793d d00b 813d
00000090: c6b9 8e3d 5c45 f2bc ce24 403d 91d4 1cbd
000000a0: 181b 04bd 5633 853d 9402 30bc de0f a5bc
000000b0: 20b1 ac3c 1b4e 44bc 8167 f6bc 4d25 69bd
000000c0: 92fa 2abd d580 a13c 9c71 86bd 63b4 72bd
000000d0: f065 3a3d 40df 4e3d 38f8 5abd fb2e 7abc
000000e0: 5591 79bd d5e7 61bc ad65 bdbc 2252 313d
000000f0: 6ba3 96bc bdb0 11bd ded3 9bbc 67a1 3f3d
00000100: d7bd 1c3d 1cf5 9f3c 20ec b9bb 9ce0 e8bc
00000110: 9bcc 86b9 ad1d 7339 9c61 6dbd 036a bcbc
00000120: f1ce 22bd 2797 dcbc 7255 80bd fd01 60bd
00000130: d25c 6bbd 8aa3 543b fc4c a53c b8c3 7d3d
00000140: 9830 39bd 58b2 373d bd18 5fba 93e1 0cbd
00000150: b126 2a3d 588b 24bd 9908 00bd cabf 703d
00000160: 205b 963a 5074 553d 56b8 57bd d553 953c
00000170: 24fd d33b 6c13 05bc a16e 843d 959b 02bd
00000180: 6418 3c3c 49a3 043c 00f5 863d adbb 4bbc
00000190: e571 823c a06f e33a 9859 3a3d 934a 28bd
000001a0: 4063 54bd dc79 363d a283 c5ba c516 31bd
000001b0: 242f 5dbc 32ac 323d 17c2 dc3c 9264 95bd
000001c0: c949 0abd df96 3ebd cf52 dc3c 7c2e 213d
000001d0: 53f8 e4bc ec3b 103c 9410 a93c acf2 90bd
000001e0: bc0d 75bd 519d cc3c 1128 3d3c 035c 37bd
000001f0: fee6 f53c ddaa 263c 7a3c 72bb ec49 a43c
00000200: 7882 c73c df24 3fbc a7ab fb3c 9598 573c
00000210: 2466 77bd e377 f53c 3d5d 4ebc 53f4 563d
00000220: 917e 4dbd 498b 53bd c5ec a3bc 9c13 073c
00000230: 3828 1ebd f22f d4b9 73a2 37bd 32bc 3e3d
00000240: b50c 903b c70e 0d3d 8a97 783d b788 dc3c
00000250: c0bc d53c c650 ec3c 531c 7d3c 8930 22bd
00000260: 9348 44bc 7f6c 3cbc 77b9 06bd 13e6 813d
00000270: 3c40 363c f93f c9bb a43b fe3c 3cb3 d9bc
00000280: 1bd1 2c3d c372 8dba d837 593c 0c6b 4e3d
00000290: 0360 a03c 70ae 463d 2c36 8dbd f491 9fbc
000002a0: 2a37 973c 6e4a a5bc 547f 9fbd d6b3 4bbd
000002b0: 97f4 f4bc 9a8c a9bd 6e2c a1bd 5581 af3c
000002c0: a33f 253d 5ee2 8abc c4a8 1a3c b4dc 4cbc
000002d0: abfa fbbc 63a7 573d 401a 0f3d e44e 5b3d
000002e0: 2480 26bd bd0c 3a3d 314e 4b3d d881 72bb
000002f0: 98a1 87bd 5fdf c53b 3ae9 1fbc 7227 adbc
00000300: fd9f ea3c 40f8 423d da2c aebc c353 89bb
00000310: 6a6c a7bb 9b41 0a3d 9936 093c 8bdc 2e3d
00000320: c88e 1fbc 1b88 533d ec9d 803d f8ac 7e3d
00000330: 3a2b 0d3d 33a3 633d c59b a93a 7e9a 8f3b
00000340: 01de 443d d1ae 89bc 0a3c f43c 6a9b 4dbc
00000350: 0f3c 343d 8eaf 94bd 405f 1bbd 9006 92bd
00000360: 0e06 76bd 0c4d 2fbc 7cd7 07bd 758f f2bc
00000370: d938 643c 0b97 2bbd 01ea 203d 3c6b 32bb
00000380: 2a46 5dbc 9092 143c b4e6 0bbd d5c2 68bd
00000390: 73c9 603d 9cfc d8bc 0238 10bd 39a7 29bc
000003a0: 6ae8 723d 7d74 0abd 3c1f 6a3c 7f01 703d
000003b0: 31f7 ab3c 6e27 483d ce31 66bd b94a 70bd
000003c0: b9e6 5abd 1e4e 59bd 4221 bc3a 6a66 af3b
000003d0: 3586 55bd 6610 29bd 5846 97bc 8608 a0bc
000003e0: 1d93 75bd d13d 74bc 4b2a 41bd 34fe 33bc
000003f0: ebec ba3c a0ab 2e3d 86d4 d93c cd88 44bc

block1.1.weight f4 [8]
0.9806165 0.9746413 0.9763315 0.987817 1.0333513 1.029459 0.99515325 0.991619
00000000: af09 7b3f 1882 793f dcf0 793f 93e1 7c3f
00000010: db44 843f 50c5 833f 5dc2 7e3f beda 7d3f

block1.1.bias f4 [8]
0.008554346 0.025783552 -0.008169328 -0.005665365 -0.0054557575 -0.006837864 0.011566338 0.010062846
00000000: 8727 0c3c 0738 d33c a5d8 05bc 87a4 b9bb
00000010: 36c6 b2bb 2910 e0bb bd80 3d3c a3de 243c

block1.1.running_mean f4 [8]
0.005687692 0.0016395238 0.007132553 0.00044088607 0.004013853 0.0051642256 -0.004472997 -0.0022914112
00000000: d25f ba3b 4ae5 d63a 31b8 e93b ba26 e739
00000010: a486 833b aa38 a93b 3892 92bb 802b 16bb

block1.1.running_var f4 [8]
60.644886 43.669964 75.934906 42.693363 32.97517 24.626331 44.97749 44.25229
00000000: 5d94 7242 0bae 2e42 acde 9742 01c6 2a42
00000010: 93e6 0342 ba02 c541 f3e8 3342 5802 3142

block1.2.weight f4 [16, 1, 26, 1]
0.019662442 -0.1444344 0.041693714 0.16317263 0.09777407 -0.07652512 0.15859383 -0.17112955
-0.03886545 0.1891413 0.18563487 -0.017199725 -0.11142504 -0.066572554 -0.006532788 0.047864847
0.02446118 -0.1570646 0.028471239 0.10985725 -0.03401835 0.084533714 -0.07941625 -0.072109014
-0.026438646 0.1181796 0.02108674 0.15584402 -0.16768412 0.0062127593 0.0018899443 0.098152444
-0.033175208 0.1424082 0.12948497 -0.12451873 0.13867228 0.19694772 -0.057723228 0.15861447
0.19986475 0.030516457 -0.08347844 0.055535793 -0.054626442 -0.046689488 0.02225462 -0.09075954
0.025276365 -0.16334122 0.14189406 -0.16680548 0.13593544 -0.08951364 -0.08266667 0.15759456
0.0025014002 0.17605694 0.15326115 0.019156571 0.14697544 0.15969086 -0.07795175 -0.024720713
0.14678523 -0.052937906 -0.1553539 0.0067484304 0.034658223 -0.025266582 -0.01079827 0.00895204
0.07866449 0.16508664 0.03528891 -0.014467148 -0.09331838 -0.00045985877 0.18858632 -0.13185492
0.17099643 0.17518395 0.11802602 0.12788017 0.20751645 -0.005309114 0.0052155918 0.10885145
0.17978005 0.011990487 0.15568274 0.065576255 -0.028780146 0.045610756 -0.18014713 0.1414362
0.016076144 0.072489806 0.16849148 -0.12452987 0.0090888515 0.17885357 -0.15638159 0.05929741
-0.057434227 0.20023006 0.025332257 -0.10255838 -0.013762734 -0.12166625 0.17751467 0.14419423
-0.13091722 0.19026577 0.14564365 -0.07381775 -0.18445456 -0.13891615 0.054619778 -0.11805602
-0.039678756 0.13338377 0.053685497 0.09941749 -0.14083616 0.04614383 0.10406628 0.095628805
-0.10900189 0.05301307 -0.04834984 -0.06812257 -0.12716638 -0.017276516 -0.11091952 0.059212264
-0.19250126 0.10852085 0.082705505 -0.061473344 0.013136783 -0.1230419 -0.046835627 0.1951517
-0.04923369 -0.109314874 0.03946958 0.17806914 0.010298529 -0.055278882 0.0608938 0.023784017
-0.13939875 -0.11133561 -0.11729828 -0.19524 -0.16618259 0.05393303 0.10046063 0.022262193
-0.13873927 -0.19250077 -0.16882245 -0.18220647 0.14077969 0.17564541 0.100864984 0.20243447
0.05154469 0.080708675 -0.15997246 -0.1140019 -0.1755583 0.19913691 0.05024867 0.10097696
-0.14639445 -0.0652975 0.16012423 -0.15573736 0.1751733 0.11043771 -0.02582323 -0.051036518
0.08385236 -0.13583405 0.16307929 0.08239702 0.11371021 0.17705014 0.047901932 -0.0780644
-0.14700675 -0.07588639 -0.07417345 0.057189208 -0.112403624 0.015676374 -0.10463972 -0.09490449
-0.0790159 0.10077491 0.16308261 -0.05287441 -0.1814632 -0.1031808 -0.18904638 0.1828864
-0.021792892 -0.010978286 0.020411083 -0.11715385 -0.094044484 -0.16265489 -0.17077821 -0.043450814
0.13140711 -0.028252674 -0.10940836 0.104665555 -0.17336102 0.058114097 0.054241404 0.17679453
-0.012747319 -0.029448405 -0.12252373 -0.020406403 0.17089511 -0.15706304 -0.012925644 -0.071718015
0.0006273441 -0.11423422 0.06520625 0.13937585 -0.033074792 0.07287004 0.013300166 -0.016505534
-0.1269031 -0.029823927 -0.064102545 0.031063095 0.14314593 -0.06640819 0.13762896 0.14190893
0.113558926 -0.14959455 0.16017017 0.06699376 -0.1735692 0.18640971 -0.003441411 0.1803685
00000000: 2113 a13c 9de6 13be 07c7 2a3d ba16 273e
00000010: c63d c83d 34b9 9cbd 6c66 223e 963c 2fbe
00000020: 6131 1fbd 42ae 413e 1117 3e3e 70e6 8cbc
00000030: d032 e4bd 3157 88bd ff10 d6bb ee0d 443d
00000040: d062 c83c 8bd5 20be 843c e93c d6fc e03d
00000050: d356 0bbd 0320 ad3d fda4 a2bd e4ad 93bd
00000060: dc95 d8bc 2508 f23d 19be ac3c 9395 1f3e
00000070: 63b5 2bbe 6794 cb3b 02b8 f73a 2604 c93d
00000080: bae2 07bd 75d3 113e b597 043e ad03 ffbd
00000090: 1b00 0e3e aaac 493e 316f 6cbd d56b 223e
000000a0: 58a9 4c3e a6fd f93c bff6 aabd 8079 633d
000000b0: fabf 5fbd 7a3d 3fbd 524f b63c 23e0 b9bd
000000c0: 6110 cf3c ec42 27be ad4c 113e 0ecf 2abe
000000d0: a932 0b3e ed52 b7bd 254d a9bd 7860 213e
000000e0: 88ee 233b 4548 343e 7ef0 1c3e 3eee 9c3c
000000f0: bb80 163e 0086 233e 2ba5 9fbd 1883 cabc
00000100: de4e 163e 6bd5 58bd 1815 1fbe f021 dd3b
00000110: c8f5 0d3d ddfb cebc 3aeb 30bc 94ab 123c
00000120: d91a a13d 790c 293e 1b8b 103d 9e07 6dbc
00000130: b51d bfbd 3319 f1b9 c61c 413e fa04 07be
00000140: b019 2f3e 6c63 333e a0b7 f13d 05f3 023e
00000150: 317f 543e 14f8 adbb 8ee7 aa3b 82ed de3d
00000160: 4318 383e bf73 443c 4c6b 1f3e d84c 863d
00000170: 57c4 ebbc 58d2 3a3d 7d78 38be a7d4 103e
00000180: 1eb2 833c 8975 943d 0889 2c3e 8409 ffbd
00000190: 68e9 143c 6425 373e 7f22 20be d7e1 723d
000001a0: 2740 6bbd 1c09 4d3e 9885 cf3c 210a d2bd
000001b0: 177d 61bc 282c f9bd 68c6 353e a7a7 133e
000001c0: 2a0f 06be 08d5 423e 9c23 153e c32d 97bd
000001d0: a8e1 3cbe 0940 0ebe fdb8 5f3d 5bc7 f1bd
000001e0: 3186 22bd c195 083e 53e5 5b3d 669b cb3d
000001f0: 5b37 10be 5001 3d3d b420 d53d 09d9 c33d
00000200: 623c dfbd 3c24 593d 7b0a 46bd d983 8bbd
00000210: e737 02be 7b87 8dbc c629 e3bd 8f88 723d
00000220: 0d1f 45be 2e40 de3d 8161 a93d 79cb 7bbd
00000230: a93b 573c 64fd fbbd b7d6 3fbd d9d5 473e
00000240: 44a9 49bd 7ae0 dfbd dbaa 213d c257 363e
00000250: 29bb 283c 1c6c 62bd c76b 793d b3d6 c23c
00000260: 8cbe 0ebe ed03 e4bd 153a f0bd ffec 47be
00000270: c52b 2abe e2e8 5c3d 4ebe cd3d 345f b63c
00000280: ab11 0ebe ec1e 45be cbdf 2cbe 5594 3abe
00000290: 8d28 103e 64dc 333e 4d92 ce3d fb4a 4f3e
000002a0: 8620 533d 974a a53d d2cf 23be d479 e9bd
000002b0: 8ec5 33be 8cea 4b3e 8dd1 4d3d 02cd ce3d
000002c0: 6de8 15be b2ba 85bd 9bf7 233e 9d79 1fbe
000002d0: a160 333e 2b2d e23d 3d8b d3bc ab0b 51bd
000002e0: c9ba ab3d 1518 0bbe 42fe 263e c5bf a83d
000002f0: e6e0 e83d a24c 353e d134 443d 3ae0 9fbd
00000300: f088 16be 536a 9bbd 40e8 97bd 3b3f 6a3d
00000310: df33 e6bd bd6b 803c 594d d6bd 495d c2bd
00000320: 17d3 a1bd 1363 ce3d 21ff 263e d692 58bd
00000330: 7dd1 39be 7550 d3bd 6095 41be 9346 3b3e
00000340: 0287 b2bc 45de 33bc 2535 a73c 5cee efbd
00000350: 659a c0bd 018f 26be 7ce0 2ebe 7bf9 31bd
00000360: 968f 063e 2772 e7bc 7e11 e0bd e55a d63d
00000370: 8d85 31be 0c09 6e3d 3c2c 5e3d a009 353e
00000380: 22da 50bc c83d f1bc b9ed fabd 542b a7bc
00000390: 21ff 2e3e 22d5 20be 15c6 53bc e5e0 92bd
000003a0: 5a74 243a a1f3 e9bd db8a 853d 8bb8 0e3e
000003b0: 6f79 07bd e33c 953d f1e8 593c 9d36 87bc
000003c0: e3f2 01be 4f51 f4bc 3248 83bd 0878 fe3c
000003d0: d994 123e 0401 88bd 9bee 0c3e 9350 113e
000003e0: 9591 e83d 502f 19be a603 243e 0634 893d
000003f0: 20bc 31be 30e2 3e3e 4c89 61bb 85b2 383e

block1.3.weight f4 [16]
0.9757739 0.99814284 0.9730322 0.9924069 0.973631 1.0072335 1.0009911 0.9860285
1.0167786 1.031708 1.0109712 1.0483803 0.9893861 1.0013762 1.0075421 0.97920275
00000000: 51cc 793f 4a86 7f3f a318 793f 610e 7e3f
00000010: e23f 793f 07ed 803f 7a20 803f 5d6c 7c3f
00000020: cd25 823f 020f 843f 8167 813f 5331 863f
00000030: 6848 7d3f 182d 803f 24f7 803f 08ad 7a3f

block1.3.bias f4 [16]
-0.015832039 -0.01259124 -0.013008325 -0.033186223 0.008497298 0.0028193612 -0.007580003 -0.0033595688
0.005833482 0.031107858 0.008662079 0.036721934 0.0042030844 -0.03157307 -0.013677817 -0.028266247
00000000: 31b2 81bc 7d4b 4ebc df20 55bc 47ee 07bd
00000010: 4038 0b3c 08c5 383b ac61 f8bb 362c 5cbb
00000020: cb26 bf3b e8d5 fe3c 65eb 0d3c bd69 163d
00000030: 07ba 893b c352 01bd ec18 60bc 9e8e e7bc

block1.3.running_mean f4 [16]
0.0010157076 0.0032179195 0.010606673 0.021090463 -0.0012556378 0.002974501 -0.0004195378 0.0015048215
0.0029616274 -0.002626853 0.00083437463 0.00030187448 0.013726164 -0.0040920866 -0.0030562233 -0.0066447207
00000000: 7e21 853a bbe3 523b 9cc7 2d3c e8c5 ac3c
00000010: 3794 a4ba d9ef 423b 69f5 dbb9 6e3d c53a
00000020: dd17 423b 4827 2cbb efb9 5a3a e844 9e39
00000030: b4e3 603c e916 86bb eb4a 48bb f5bb d9bb

block1.3.running_var f4 [16]
0.35198247 0.48111767 0.50968343 1.0060267 0.37121165 0.55862045 0.4753072 0.39049396
0.5227816 0.57990324 0.34818992 0.57045895 0.8274367 0.5130531 0.41041028 0.61032075
00000000: 0c37 b43e 0e55 f63e 9d7a 023f 7cc5 803f
00000010: 740f be3e c001 0f3f 775b f33e d3ee c73e
00000020: 04d5 053f 8a74 143f f345 b23e 9909 123f
00000030: e4d2 533f 7357 033f 4c21 d23e fb3d 1c3f

block2.0.weight f4 [16, 1, 1, 63]
-0.059940457 0.045244623 0.0031156938 0.04890115 -0.03156169 0.016214607 -0.084233865 -0.116575874
-0.012991356 0.04683003 -0.018378535 0.00479025 -0.07224396 0.0907712 0.066068925 -0.013096698
-0.07425375 -0.0063898554 0.056172963 0.08822294 -0.04206258 0.02034593 0.056359783 0.04777496
0.084325835 0.034814283 -0.065778516 0.0040657124 -0.10073644 0.06731004 0.09391432 -0.055530317
-0.106633835 -0.061743904 0.12426023 0.11318272 -0.10834965 -0.05728159 0.077917874 -0.06452747
-0.0003062043 0.09155949 0.057022374 0.06501506 -0.09941336 -0.053544622 -0.06826609 0.0025991846
-0.042531036 0.042635493 0.11601579 0.07770472 -0.03367606 -0.07509877 -0.06391246 0.105086386
-0.06321291 0.023798486 -0.065663144 -0.12923121 0.08039541 0.068262324 0.052070037 -0.03564423
-0.092267305 -0.016429242 0.08658341 0.015478497 -0.072485566 -0.037814792 0.0075031775 -0.0067169825
0.04044517 -0.023034757 0.015854377 0.12726516 0.12679388 0.0028879063 0.06812072 0.082355894
-0.10792688 -0.09828561 -0.025935933 0.10496226 0.016264189 -0.013962634 0.11107832 0.12649262
-0.05044925 -0.08070851 -0.08292376 -0.0995131 0.0974484 0.104517594 0.10819331 -0.111528635
-0.021769736 -0.08095407 0.089534186 0.03014251 0.057001874 0.0146766165 -0.0463606 -0.029752132
0.06039143 -0.06707723 0.069219306 -0.09860883 0.11298622 0.007270506 0.060572047 0.08106183
0.0665258 0.013333567 -0.10304836 0.012096449 -0.07222013 -0.05196119 -0.052361667 -0.0132273035
-0.082152136 0.13990246 0.02623264 0.04628875 -0.09418175 0.058171332 0.046045523 -0.09542135
0.047058187 -0.00452288 -0.022818478 0.0992174 -0.09174986 -0.025246408 0.035611566 -0.09836827
-0.026025975 -0.018166091 0.05814493 -0.08331632 0.055946767 -0.098796494 -0.0029102308 -0.047000375
-0.062034223 0.12488622 0.11871654 0.07927189 0.07954144 -0.054679524 -0.036159195 0.014553268
0.011589243 0.04060533 0.0039147707 0.07186665 0.05386521 -0.018050957 -0.051376555 -0.07733121
0.060991604 -0.036779918 -0.120440885 -0.015159838 0.10138545 0.020811481 0.09890631 0.05820222
-0.01983011 -0.054274946 -0.075655304 -0.07233987 0.040734477 0.084843524 -0.005623767 0.04796985
-0.07883014 0.010939087 -0.019720148 -0.024371916 -0.04780248 0.08092093 -0.025883282 -0.04423712
0.100883596 0.104832545 -0.015805382 0.08137899 0.08907694 0.09755943 -0.00183675 0.018445302
-0.11510374 -0.03699954 -0.0949809 -0.05159564 0.0004360283 0.017961927 0.09764216 -0.033796057
0.103293635 0.04145846 -0.03368471 -0.07669082 -0.07360147 0.02392454 -0.027619392 0.052211918
-0.09919244 -0.082683876 -0.12649468 0.075494796 0.021132382 -0.008074584 0.06775033 0.09124344
-0.053896163 -0.12980437 0.120896816 -0.050681025 -0.087772876 0.017713178 0.10076671 -0.105993606
-0.11815543 0.028157175 0.019927919 -0.09758258 0.066118665 0.0028717916 0.05643138 0.03854766
-0.04136387 -0.0859893 0.0011827694 0.02864351 -0.092365004 0.054016754 0.019341828 0.04911674
-0.062102206 -0.028142583 0.009466218 -0.10896683 -0.016668597 -0.09692525 -0.04783721 0.1102031
-0.04177768 -0.12239494 -0.05394358 0.10316244 -0.099983454 -0.040735427 -0.03437675 0.12266271
00000000: 2084 75bd 6d52 393d ab30 4c3b 924c 483d
00000010: d546 01bd 7fd4 843c ce82 acbd 55bf eebd
00000020: b2d9 54bc d8d0 3f3d 958e 96bc 88f7 9c3b
00000030: a4f4 93bd 40e6 b93d 254f 873d 8893 56bc
00000040: 5a12 98bd fe61 d1bb 9f15 663d 3bae b43d
00000050: d049 2cbd 82ac a63c 84d9 663d adaf 433d
00000060: 06b3 ac3d 6c99 0e3d e3b6 86bd ab39 853b
00000070: e84e cebd d9d9 893d 2756 c03d c273 63bd
00000080: d762 dabd 2de7 7cbd 267c fe3d 58cc e73d
00000090: 6ce6 ddbd 1aa0 6abd 6893 9f3d fa26 84bd
000000a0: 0c8a a0b9 8b83 bb3d 4b90 693d 9e26 853d
000000b0: 3b99 cbbd 9b51 5bbd 17cf 8bbd 1557 2a3b
000000c0: 0635 2ebd 8ea2 2e3d b099 ed3d a723 9f3d
000000d0: e9ef 09bd 62cd 99bd 89e4 82bd 8837 d73d
000000e0: c575 81bd 0bf5 c23c 667a 86bd 3055 04be
000000f0: 59a6 a43d 1ecd 8b3d 6447 553d afff 11bd
00000100: a4f6 bcbd 9e96 86bc a552 b13d 8699 7d3c
00000110: 5073 94bd afe3 1abd 37dd f53b 221a dcbb
00000120: d6a9 253d 63b3 bcbc 0ae1 813c cc51 023e
00000130: 41d6 013e 0743 3d3b e082 8b3d 35aa a83d
00000140: c508 ddbd f749 c9bd 9877 d4bc 74f6 d63d
00000150: 7a3c 853c 88c3 64bc 087d e33d 4887 013e
00000160: dfa3 4ebd 814a a5bd efd3 a9bd 86cd cbbd
00000170: 0793 c73d 520d d63d 7494 dd3d 2069 e4bd
00000180: 7256 b2bc 3fcb a5bd b35d b73d 6ded f63c
00000190: cc7a 693d 3176 703c 9de4 3dbd beba f3bc
000001a0: 015d 773d c95f 89bd dac2 8d3d 6df3 c9bd
000001b0: 5265 e73d 6d3d ee3b 651a 783d bf03 a63d
000001c0: ae3e 883d 0975 5a3c 050b d3bd 2f30 463c
000001d0: 26e8 93bd 42d5 54bd 3079 56bd 55b7 58bc
000001e0: 613f a8bd 9742 0f3e d5e5 d63c 4699 3d3d
000001f0: 5de2 c0bd 1045 6e3d 3b9a 3c3d 456c c3bd
00000200: 16c0 403d ab34 94bb d1ed babc 7e32 cb3d
00000210: 5ae7 bbbd 8ed1 cebc 6fdd 113d 4e75 c9bd
00000220: 6d34 d5bc 0ed1 94bc 6129 6e3d bfa1 aabd
00000230: 7028 653d d155 cabd 92b9 3ebb 7783 40bd
00000240: 9917 7ebd 59c4 ff3d a821 f33d 4d59 a23d
00000250: 9fe6 a23d a3f7 5fbd aa1b 14bd d570 6e3c
00000260: cfe0 3d3c c651 263d 7a47 803b d22e 933d
00000270: c4a1 5c3d 9adf 93bc 3970 52bd d35f 9ebd
00000280: 55d2 793d 8aa6 16bd b6a9 f6bd f860 78bc
00000290: 2da3 cf3d d77c aa3c 648f ca3d 7365 6e3d
000002a0: c172 a2bc 684f 5ebd 2bf1 9abd ed26 94bd
000002b0: 32d9 263d 71c2 ad3d 9447 b8bb 097c 443d
000002c0: b271 a1bd db39 333c 268c a1bc 9da7 c7bc
000002d0: 89cc 43bd dfb9 a53d 2d09 d4bc fb31 35bd
000002e0: 0f9c ce3d 72b2 d63d 4a7a 81bc 07aa a63d
000002f0: f96d b63d 3dcd c73d 1abf f0ba 9a1a 973c
00000300: 82bb ebbd d48c 17bd 5985 c2bd f355 53bd
00000310: ba9a e439 e424 933c 9df8 c73d bc6d 0abd
00000320: 9d8b d33d 59d0 293d faf8 09bd 1410 9dbd
00000330: 5ebc 96bd 66fd c33c 1042 e2bc 2adc 553d
00000340: 6825 cbbd 2a56 a9bd d287 01be 049d 9a3d
00000350: d11d ad3c 434b 04bc afc0 8a3d d7dd ba3d
00000360: 39c2 5cbd 70eb 04be c098 f73d e896 4fbd
00000370: 44c2 b3bd 3a1b 913c c75e ce3d 2d13 d9bd
00000380: 79fb f1bd e0a9 e63c e03f a33c 60d9 c7bd
00000390: 3969 873d ab34 3c3b 9724 673d 27e4 1d3d
000003a0: 296d 29bd 281b b0bd 2807 9b3a cba5 ea3c
000003b0: dd29 bdbd ac40 5d3d c172 9e3c a22e 493d
000003c0: e25e 7ebd 468b e6bc 3218 1b3c 002a dfbd
000003d0: 958c 88bc bf80 c6bd f3f0 43bd 2ab2 e13d
000003e0: 131f 2bbd 33aa fabd f1f3 5cbd d446 d33d
000003f0: 20c4 ccbd 31da 26bd a3ce 0cbd 9636 fb3d

block2.1.weight f4 [16, 16, 1, 1]
0.118735224 -0.109861776 0.1860128 0.20540303 -0.08737996 0.065847956 0.15551114 0.018973384
0.083268836 0.085347906 0.17422822 0.13091658 0.037440617 0.18923193 -0.25412825 -0.14547251
0.07679799 -0.21043998 -0.109652564 0.20430039 0.06332953 -0.11150524 -0.1045475 0.094579525
-0.2563621 -0.23180088 -0.21938884 0.21552844 -0.17667036 0.047071293 0.013178749 0.01665955
0.18298806 -0.15615813 0.15081038 -0.20790102 -0.1779559 0.11512312 0.034524757 0.25793743
0.22330847 0.092399456 -0.20853344 0.15285952 -0.12337476 0.16142587 -0.18294372 0.16478984
-0.10367121 0.061869558 0.02278865 0.23445188 -0.08700379 -0.18528631 -0.24855267 0.19476832
0.11053515 0.07366255 -0.0724335 -0.24359725 -0.10268364 0.029198216 -0.22525509 -0.13064092
-0.1350135 0.16046146 -0.0767359 -0.22577852 -0.025888208 -0.013391774 0.08010301 0.07308185
-0.23283258 0.25334167 -0.114272304 0.24015574 0.09312542 0.18587823 -0.15505578 -0.13555634
0.008828813 -0.12086683 -0.031144623 0.007977837 -0.0150844 0.21850958 0.040329974 0.20130564
-0.020836838 0.1447066 0.11552403 0.236254 0.10058905 0.021010572 -0.22460337 -0.004655372
0.07747412 -0.20398888 0.054727297 0.22040665 -0.2070505 0.2157275 -0.06033125 -0.082722515
-0.1059317 0.04771291 0.092836805 0.23956405 0.0969041 0.20774828 0.0060817567 -0.008573427
0.22936505 -0.026530493 0.101904556 0.12017807 0.0010965564 -0.22645019 -0.13203713 0.07497262
-0.05942374 0.100930944 0.022008475 -0.1864791 -0.0462415 0.01995504 -0.035330478 -0.07229372
0.06851955 -0.09255319 0.07173616 0.17298537 -0.09002642 -0.2383173 0.05914591 -0.19578242
0.053811137 -0.23316458 -0.019074278 -0.19996846 0.15914713 0.1620024 0.14164214 -0.011111392
-0.029298084 -0.16371833 -0.12644868 0.043845 0.12568985 -0.082634665 0.002739351 -0.20961027
-0.25735056 0.015748002 -0.01835381 -0.10654388 -0.20863542 -0.08281152 0.1445418 0.055156287
-2.5885312e-05 -0.06700056 0.008507657 -0.21140988 -0.2006554 0.17666915 0.117663376 0.14450017
-0.07771307 -0.09575795 -0.003596065 -0.22284746 -0.17391188 0.23222028 -0.11516343 0.24348518
0.22833873 0.048885338 0.02561453 0.15117224 0.074748494 -0.22648501 -0.22437568 -0.20671979
0.23654498 0.22710188 0.08110871 -0.22997071 -0.15414901 -0.14960618 0.09242127 0.17706355
-0.129657 -0.014037839 -0.053891458 0.031154796 -0.06303486 0.030109035 0.034512185 -0.019679466
-0.18617314 0.17189252 0.08749806 -0.24625085 -0.1357952 0.12037027 -0.090688966 -0.08742876
-0.098425016 0.1196696 0.015664209 0.1388631 -0.099567674 0.15168871 -0.16942388 0.18789792
-0.1716537 0.18623094 0.23092137 -0.0656125 -0.21302392 0.11888967 -0.07976009 0.13410537
0.02046946 -0.1267286 -0.18202877 0.06756212 0.03301676 0.11965525 -0.07474046 0.037208524
-0.23410912 0.17312914 0.23172039 -0.22642973 0.21614541 -0.1662662 0.22716086 0.124356195
-0.072438985 0.09080137 0.053319048 0.14512601 0.18436882 0.25240165 -0.12958753 -0.1115633
0.0075199036 0.15397091 0.19338627 -0.19443734 -0.08681931 0.04216672 -0.04010993 -0.09956779
00000000: 742b f33d 36ff e0bd 247a 3e3e 2c55 523e
00000010: 44f4 b2bd 4bdb 863d 503e 1f3e 126e 9b3c
00000020: da88 aa3d e2ca ae3d e268 323e ff0e 063e
00000030: 555b 193d 04c6 413e 191d 82be bff6 14be
00000040: 4448 9d3d 947d 57be 8691 e0bd 1f34 513e
00000050: eab2 813d dc5c e4bd 001d d6bd e9b2 c13d
00000060: e541 83be 365d 6dbe 78a7 60be 7db3 5c3e
00000070: 13e9 34be d4cd 403d aeeb 573c 9c79 883c
00000080: 3961 3b3e ebe7 1fbe 096e 1a3e 01e4 54be
00000090: 123a 36be acc5 eb3d d569 0d3d 6010 843e
000000a0: faaa 643e ed3b bd3d ca89 55be 3587 1c3e
000000b0: e8ab fcbd d34c 253e 9955 3bbe abbe 283e
000000c0: 9251 d4bd ef6a 7d3d 43af ba3c 2714 703e
000000d0: 0b2f b2bd b2bb 3dbe 9784 7ebe 5971 473e
000000e0: 4160 e23d 64dc 963d 0458 94bd 8f71 79be
000000f0: cd4b d2bd 1931 ef3c 45a9 66be bcc6 05be
00000100: fb40 0abe 0250 243e b627 9dbd 7c32 67be
00000110: 8213 d4bc 2c69 5bbc 0c0d a43d f0ab 953d
00000120: aa6b 6ebe 00b6 813e 9907 eabd 63eb 753e
00000130: 8ab8 be3d dd56 3e3e f1c6 1ebe 48cf 0abe
00000140: baa6 103c 0789 f7bd 0223 ffbc 79b5 023c
00000150: 8f24 77bc fac0 5f3e 0b31 253d 1123 4e3e
00000160: 04b2 aabc f82d 143e dd97 ec3d 92ec 713e
00000170: a201 ce3d 5d1e ac3c 6dfe 65be 178c 98bb
00000180: c0aa 9e3d 76e2 50be bb29 603d 48b2 613e
00000190: 0c05 54be abe7 5c3e e71d 77bd 6c6a a9bd
000001a0: b8f2 d8bd 9d6e 433d 3921 be3d 4750 753e
000001b0: a875 c63d f7bb 543e 7949 c73b 8f77 0cbc
000001c0: acde 6a3e 7a56 d9bc 56b3 d03d ec1f f63d
000001d0: 54ba 8f3a 8fe2 67be be34 07be 3f8b 993d
000001e0: 4f66 73bd e2b4 ce3d 1e4b b43c 61f4 3ebe
000001f0: ba67 3dbd c178 a33c b1b6 10bd bb0e 94bd
00000200: fa53 8c3d 878c bdbd 68ea 923d 1423 313e
00000210: c65f b8bd 7309 74be fb42 723d 307b 48be
00000220: 1169 5c3d b2c2 6ebe a941 9cbc 88c4 4cbe
00000230: 77f7 223e f5e3 253e a30a 113e 8e0c 36bc
00000240: 8902 f0bc c7a5 27be c37b 01be d196 333d
00000250: d7b4 003e 5d3c a9bd af86 333b 13a4 56be
00000260: 74c3 83be f401 813c bb5a 96bc ae33 dabd
00000270: 86a4 55be 1699 a9bd c402 143e 8feb 613d
00000280: 4924 d9b7 9737 89bd b363 0b3c d57b 58be
00000290: 9c78 4dbe c2e8 343e 7ff9 f03d daf7 133e
000002a0: 0828 9fbd be1c c4bd f6ab 6bbb 2032 64be
000002b0: f515 32be 27cb 6d3e ceda ebbd 2e54 793e
000002c0: a1d1 693e fe3b 483d 90d5 d13c e5cc 1a3e
000002d0: bd15 993d b0eb 67be bdc2 65be 5aae 53be
000002e0: d938 723e 658d 683e 531c a63d 717d 6bbe
000002f0: 3dd9 1dbe 5d32 19be 5d47 bd3d 2650 353e
00000300: cec4 04be f7fe 65bc 4abd 5cbd 5838 ff3c
00000310: 6c18 81bd 39a7 f63c a65c 0d3d d536 a1bc
00000320: 2ca4 3ebe 9804 303e 2f32 b33d 2f29 7cbe
00000330: e60d 0bbe b084 f63d 23bb b9bd da0d b3bd
00000340: 0e93 c9bd 5615 f53d 3a52 803c 2132 0e3e
00000350: 23ea cbbd 4954 1b3e 747d 2dbe 5068 403e
00000360: fdc5 2fbe 53b3 3e3e a776 6c3e d95f 86bd
00000370: f122 5abe 6d7c f33d 4259 a3bd eb52 093e
00000380: 92af a73c 24c5 01be c065 3abe 025e 8a3d
00000390: 953c 073d d00d f53d 8711 99bd f767 183d
000003a0: 4dba 6fbe c448 313e 1c48 6d3e 32dd 67be
000003b0: 3955 5d3e b041 2abe db9c 683e 76ae fe3d
000003c0: e45a 94bd 12f6 b93d 1365 5a3d ea9b 143e
000003d0: 2ecb 3c3e ca3a 813e 98b2 04be 4d7b e4bd
000003e0: 8669 f63b 8daa 1d3e 0d07 463e 951a 47be
000003f0: 53ce b1bd 03b7 2c3d 4f4a 24bd 33ea cbbd

block2.2.weight f4 [16]
0.92391026 0.9312572 0.927993 0.932018 0.9415304 0.9302755 0.9230763 0.924111
0.9248456 0.9376171 0.93329 0.9255437 0.94684094 0.9447241 0.9419203 0.9263197
00000000: 6285 6c3f df66 6e3f f390 6d3f bb98 6e3f
00000010: 2308 713f 8926 6e3f ba4e 6c3f 8a92 6c3f
00000020: aec2 6c3f ad07 703f 18ec 6e3f 6ff0 6c3f
00000030: 2b64 723f 70d9 713f b021 713f 4a23 6d3f

block2.2.bias f4 [16]
-0.04593165 -0.04685659 -0.047981467 -0.038653784 -0.032204047 -0.06692869 -0.05358408 -0.055740777
-0.04892842 -0.039090026 -0.060673382 -0.046843156 -0.039888453 -0.03257835 -0.030086845 -0.05958109
00000000: d322 3cbd b2ec 3fbd 3788 44bd 6e53 1ebd
00000010: 64e8 03bd e911 89bd fb7a 5bbd 7150 64bd
00000020: 2b69 48bd dd1c 20bd a784 78bd 9cde 3fbd
00000030: 1362 23bd e070 05bd b078 f6bc 4d0b 74bd

block2.2.running_mean f4 [16]
-0.0069217575 -0.04993509 -0.0055915406 -0.025892593 -0.0027992157 -0.008735494 -0.032302473 -0.008054925
0.0019158389 -0.030531624 -0.0009514905 -0.024683055 -0.018129222 -0.030296026 0.00061033847 -0.013792628
00000000: e9cf e2bb bd88 4cbd 3e39 b7bb b41c d4bc
00000010: 0c73 37bb 511f 0fbc 994f 04bd cef8 03bc
00000020: e31c fb3a 751d fabc 726d 79ba 1e34 cabc
00000030: bc83 94bc 5f2f f8bc 1fff 1f3a 7afa 61bc

block2.2.running_var f4 [16]
0.30090106 0.32208645 0.31701657 0.3128174 0.3146926 0.292498 0.3105726 0.2728106
0.30265585 0.27816883 0.30438262 0.33210415 0.2788681 0.2901386 0.31127736 0.28523448
00000000: b40f 9a3e 84e8 a43e ff4f a23e 9a29 a03e
00000010: 631f a13e 4cc2 953e 5f03 9f3e d5ad 8b3e
00000020: b5f5 9a3e 256c 8e3e 0ad8 9b3e 8e09 aa3e
00000030: cdc7 8e3e 0c8d 943e bf5f 9f3e 410a 923e

lin.weight f4 [2, 4960]
0.00012007524 0.016276453 0.00031018772 0.0032071685 -0.006740912 -0.008582727 0.0056007765 -0.0010430561
0.01684545 -0.011481566 0.0038009267 0.011390436 0.01329618 -0.008541648 -0.01316571 -0.011391705
0.009585001 -0.006626721 -0.015865538 -0.0007539973 0.0019848754 -0.009704185 -0.003071784 -0.005836756
0.0051559843 -0.00011347078 -0.004852679 -0.017554233 0.0020044635 -0.0017145252 -0.00089553907 -0.01027086
0.00023924361 0.007349153 -0.014186334 0.009855123 0.0074393833 0.015932692 -0.01101299 0.0070613087
0.02407772 -0.00010143787 0.021381805 -0.007121679 -0.008221402 0.0028789667 -0.0021082473 0.021831369
-0.006899719 -0.015127438 0.012978431 -0.0019409662 -0.0017190379 -0.006540239 0.0050887875 -0.0018395847
0.016645592 -0.011041632 0.00876115 0.013045966 0.0020571179 -0.0034900715 0.008733912 -0.002451076
-0.0139196925 0.006955653 0.0034122407 0.0006788489 0.0032746939 -0.0040011015 -0.0024328318 -0.004941359
0.008430725 -0.009573006 -0.0072125853 -0.0021734508 -0.0062166615 0.0016592406 0.015688218 0.008785757
-0.010332883 0.009361232 -0.0017647692 0.0020673638 -0.0022358831 0.023278417 -0.0011755638 -0.019122852
-0.0021923415 -0.0033348089 0.0018365171 0.003091482 0.010197918 -0.009284025 0.008922934 -0.00743652
-0.010284236 -0.0019382728 -0.011086464 -0.010674058 -0.005403311 -0.00037576936 -0.00048041498 0.008472068
-0.0049922704 0.014320092 -0.0011822056 -0.016779602 0.0061958125 0.005938016 -0.0075340797 -0.009185514
0.0065311105 -0.010069917 -0.011130528 0.010350753 -0.013846804 0.009180596 -0.027684366 -0.017126665
-0.009472442 0.018269287 0.022109378 0.0056489846 0.00034902888 0.0074274507 0.0013389043 -0.002240738
-0.0012599934 0.0009682543 -0.008470997 0.014448144 0.010259104 0.013956242 0.0065445327 0.0077043297
0.001358515 -0.017549362 0.007411148 0.00964026 0.010651783 -0.00095862604 -0.004422794 -0.017526848
0.001223802 -0.0041389363 0.008430356 0.0033642596 -0.00030212343 0.009778764 -0.009362838 0.005080637
0.012262227 -0.004222862 -0.0063701305 0.0011899743 0.0082471045 -0.0025309047 0.0048747677 -0.013080629
0.009155929 0.019080969 -0.0016002196 0.009975743 -3.0413306e-05 -0.0052625616 -0.00010577575 0.018991178
0.0016081175 -0.01202367 0.0024231598 -0.0018758482 0.012684433 -0.019797353 0.010766851 -0.010048136
0.0065967776 0.009668035 0.0012550986 0.0033686915 -0.006451024 -0.0049141967 -0.00032971366 -0.008901263
0.0037293625 0.021369519 -0.0015450235 0.0075304867 0.007988916 -0.016384918 -0.011199162 -0.00084936456
0.0020541425 -0.019127605 -0.00686655 0.0057216226 0.0002087447 -0.012220735 0.0061695594 -0.0015778521
-0.002376528 0.0037016005 -0.0016801012 0.0068139327 0.008745321 -0.012055284 0.0010478296 0.004992506
0.013501482 0.007488976 0.004982446 -0.0019287678 0.019283816 -0.0014006442 -0.022548372 -0.015655726
-0.0166289 0.000484491 -0.0017374248 0.0021793523 -0.005881306 0.0052234856 0.0005929529 -0.0150166815
0.017779501 0.018709246 -0.00493334 -0.009646274 -0.0003717347 0.0016944485 -0.009784666 -0.0007188654
0.017069828 -0.0064498186 -0.008525906 0.00034445655 -0.008809635 0.017596023 -0.008267107 -0.0066334233
0.0026154409 0.019777035 -0.00068406103 -0.0040649 -0.008811236 -0.010912313 -0.0073493794 -0.010617509
-0.004576451 -0.010464362 0.0040690824 0.0065810485 -0.0020674302 0.010890136 0.0025919662 -0.002390463
00000000: e7d0 fb38 3256 853c b1a0 a239 5c2f 523b
00000010: dee2 dcbb 919e 0cbc b886 b73b 28b7 88ba
00000020: 78ff 893c 2e1d 3cbc f818 793b f49e 3a3c
00000030: 39d8 593c 45f2 0bbc fdb4 57bc 46a4 3abc
00000040: 680a 1d3c f724 d9bb 72f8 81bc e7a7 45ba
00000050: af14 023b 4dfe 1ebc fc4f 49bb 4242 bfbb
00000060: 88f3 a83b 29f7 edb8 3903 9fbb e5cd 8fbc
00000070: 515d 033b ebb9 e0ba 9cc2 6aba 1c47 28bc
00000080: 78dd 7a39 2ad1 f03b cc6d 68bc 6277 213c
00000090: 12c6 f33b 4785 823c d46f 34bc 8d62 e73b
000000a0: a33e c53c 0bbb d4b8 e528 af3c f95c e9bb
000000b0: 0fb3 06bc 0cad 3c3b 852a 0abb b3d7 b23c
000000c0: 0a17 e2bb 13d9 77bc 7ca3 543c 0568 feba
000000d0: 5751 e1ba 804f d6bb d8bf a63b 381e f1ba
000000e0: 565c 883c f6e7 34bc ed8a 0f3c bfbe 553c
000000f0: b6d0 063b afb9 64bb af18 0f3c 3ba2 20bb
00000100: 6c0f 64bc 3fec e33b e69f 5f3b c7f4 313a
00000110: 3f9c 563b ac1b 83bb 2570 1fbb 20eb a1bb
00000120: 0621 0a3c 19d8 1cbc 8d57 ecbb 7470 0ebb
00000130: 23b5 cbbb e07a d93a 9484 803c 23f2 0f3c
00000140: 414b 29bc da5f 193c d44f e7ba 9c7c 073b
00000150: e587 12bb 61b2 be3c 6015 9aba 87a7 9cbc
00000160: 63ad 0fbb cf8c 5abb 4ab7 f03a 769a 4a3b
00000170: 2b15 273c 061c 18bc 7f31 123c 0dae f3bb
00000180: 367f 28bc a50d feba 00a4 35bc 3fe2 2ebc
00000190: 420e b1bb e902 c5b9 35e0 fbb9 6ece 0a3c
000001a0: 3396 a3bb d29e 6a3c 3df4 9aba 6075 89bc
000001b0: 3e06 cb3b b093 c23b 71e0 f6bb d77e 16bc
000001c0: ed02 d63b 4bfc 24bc d15c 36bc 3496 293c
000001d0: b5dd 62bc 366a 163c 53ca e2bc 384d 8cbc
000001e0: 4d32 1bbc 79a9 953c ba1e b53c 1e1b b93b
000001f0: ddfd b639 f961 f33b 2c7e af3a 58d9 12bb
00000200: 5d26 a5ba 72d2 7d3a f0c9 0abc e8b7 6c3c
00000210: cd15 283c b9a8 643c 8573 d63b 9a74 fc3b
00000220: 3310 b23a aec3 8fbc 37d9 f23b 2ef2 1d3c
00000230: d184 2e3c 4e4c 7bba 16ed 90bb 7794 8fbc
00000240: fb67 a03a ea9f 87bb 7a1f 0a3c e97a 5c3b
00000250: 5266 9eb9 1c37 203c 9766 19bc 797b a63b
00000260: 82e7 483c ef5f 8abb 87bc d0bb e9f8 9b3a
00000270: dd1e 073c 89dd 25bb 84bc 9f3b 2250 56bc
00000280: c002 163c b14f 9c3c 76be d1ba 4c71 233c
00000290: 1420 ffb7 9171 acbb ecd3 ddb8 6393 9b3c
000002a0: 78c7 d23a edfe 44bc e0cd 1e3b 05df f5ba
000002b0: 5ed2 4f3c 0f2e a2bc 7267 303c f0a0 24bc
000002c0: c829 d83b ae66 1e3c 1f82 a43a 44c5 5c3b
000002d0: 1d63 d3bb 4507 a1bb 6bdd acb9 9ad6 11bc
000002e0: 5268 743b 210f af3c 6382 caba 4dc2 f63b
000002f0: f1e3 023c aa39 86bc b17c 37bc e4a7 5eba
00000300: cb9e 063b 7fb1 9cbc cc00 e1bb 737c bb3b
00000310: 7be2 5a39 7a39 48bc 042a ca3b eecf ceba
00000320: 86bf 1bbb 8d96 723b d736 dcba 6947 df3b
00000330: 8948 0f3c 8783 45bc 5457 893a 2d98 a33b
00000340: 5235 5d3c 1666 f53b c943 a33b b5ce fcba
00000350: 18f9 9d3c d295 b7ba 5db7 b8bc 7040 80bc
00000360: 5539 88bc 4803 fe39 4dba e3ba 77d3 0e3b
00000370: f8b7 c0bb c629 ab3b 6570 1b3a 8708 76bc
00000380: 51a6 913c 2244 993c dba7 a1bb 680b 1ebc
00000390: 63e5 c2b9 4218 de3a dd4f 20bc 3e72 3cba
000003a0: 06d6 8b3c 0059 d3bb 3eb0 0bbc 2d98 b439
000003b0: 4a56 10bc 8925 903c c372 07bc 305d d9bb
000003c0: d167 2b3b 7303 a23c 8f52 33ba da32 85bb
000003d0: 015d 10bc 8fc9 32bc 10d3 f0bb 0ff5 2dbc
000003e0: 0ef6 95bb b772 2bbc f055 853b d6a5 d73b
000003f0: b97d 07bb 8a6c 323c fadd 293b 50a9 1cbb

exp_avg f4 [8, 1, 1, 250]
-0.000695869 -0.00078000047 -0.0008350679 -0.00086737226 -0.000908858 -0.0009815345 -0.0010965534 -0.0011931834
-0.0012178124 -0.0011892219 -0.0011648014 -0.001183127 -0.0011989018 -0.0011496153 -0.0010368035 -0.000885363
-0.00073301955 -0.000588678 -0.0004560717 -0.00035185224 -0.00028757905 -0.00025649567 -0.00017707063 1.12958805e-05
0.00027745348 0.00054635265 0.0007618082 0.0009135505 0.0010246604 0.0011176437 0.0012064333 0.0013013079
0.0014583907 0.0017047316 0.001990349 0.0022435365 0.002453897 0.0027150502 0.003037129 0.003374517
0.003621243 0.0036990396 0.003638451 0.0034874626 0.0032192238 0.0028040567 0.0022817675 0.0017835483
0.0014515561 0.001326605 0.001328169 0.0013454848 0.001325727 0.0012718798 0.0012023313 0.0011060098
0.0009449496 0.00073069986 0.0005234313 0.0003591089 0.00019349909 -7.844004e-05 -0.00044638352 -0.00081796816
-0.0010361099 -0.0010132188 -0.0008371375 -0.00066171883 -0.0006133355 -0.00069120736 -0.000816621 -0.0008782918
-0.0008526487 -0.00080644304 -0.0007915896 -0.00084631913 -0.00092607987 -0.00094865245 -0.00089600036 -0.00085702963
-0.0009266647 -0.0011534061 -0.0014476218 -0.0016425997 -0.001620606 -0.0013808875 -0.0009893393 -0.00050586526
2.6570657e-05 0.00056631706 0.001011659 0.0013118328 0.0014551699 0.0014936404 0.0014892762 0.0014528765
0.001400928 0.0013489381 0.0013686009 0.0014867221 0.0017049625 0.0019893532 0.0022942452 0.0025590328
0.0027467858 0.00286667 0.0029343786 0.0029824793 0.0030328908 0.0031064104 0.0031824019 0.003239154
0.003228501 0.0031171776 0.002904409 0.002634428 0.0023953288 0.0022351125 0.0021287766 0.002005341
0.0018162325 0.0015766232 0.0013353325 0.0011172596 0.00092955615 0.0007469091 0.0005930767 0.0005211181
0.00052854116 0.0005461048 0.00048342108 0.00032348788 0.00014840365 9.4050556e-05 0.00022313138 0.00049628684
0.00079222594 0.001007013 0.0011037032 0.0011111839 0.0010976014 0.0010829357 0.0010563463 0.0010038511
0.000921014 0.0008295776 0.00072291907 0.0005978034 0.00047867777 0.0004462826 0.0005238804 0.0006926052
0.00086839544 0.0010346541 0.0012285088 0.0015146652 0.0019095386 0.002307755 0.0026069758 0.0027417226
0.002746071 0.0026574119 0.0025523587 0.002476037 0.0024444838 0.002439862 0.002426734 0.0023566477
0.002200988 0.0019521016 0.0016573363 0.0013816212 0.0011756732 0.0010633417 0.0010198433 0.0009752556
0.00086411525 0.000705024 0.00053556537 0.00041932147 0.00036836625 0.00031934603 0.00021834292 4.7965845e-05
-0.0001483927 -0.0003037585 -0.0003797945 -0.00043288755 -0.00054246385 -0.0007181031 -0.00091366173 -0.0009914947
-0.00088978495 -0.0007115213 -0.00061162893 -0.00067021296 -0.00080161454 -0.0008865596 -0.0008691791 -0.000878808
-0.0010466054 -0.0013238577 -0.0015183466 -0.0014512524 -0.0011282713 -0.0007126651 -0.00035898172 -8.558313e-05
0.00018595472 0.00048809467 0.0007488022 0.0009003869 0.0009532751 0.0009936459 0.0011077406 0.0012696177
0.001377931 0.0013397625 0.0011521742 0.0008542611 0.0005110572 0.00018830293 -1.7071496e-05 -5.1297247e-05
6.975328e-05 0.00023327085 0.00028425935 0.00016374099 -7.589529e-05 -0.00036449588 -0.0006361174 -0.0008954129
-0.0011821671 -0.001434787 -0.001599715 -0.0016536001 -0.0016150435 -0.0014791025 -0.0012446799 -0.0009167661
-0.00054222706 -0.00024083878 -6.346588e-05 2.0212798e-05 0.00010535836 0.00025450293 0.00042000719 0.0005421137
0.0006021525 0.0006415131 -0.0009932765 -0.0015159263 -0.0019478482 -0.0021888132 -0.0022337672 -0.002096784
00000000: fa6a 36ba f278 4cba 75e8 5aba 5e60 63ba
00000010: 6e40 6eba d5a6 80ba 3aba 8fba 9764 9cba
00000020: 019f 9fba aadf 9bba 40ac 98ba 2813 9bba
00000030: 7824 9dba b0ae 96ba 5ae5 87ba b517 68ba
00000040: 1c28 40ba 8351 1aba e81c efb9 cf78 b8b9
00000050: 35c6 96b9 447a 86b9 09ac 39b9 7083 3d37
00000060: 2d77 9139 1b39 0f3a 15b4 473a 567b 6f3a
00000070: e64d 863a e67d 923a 2f21 9e3a a690 aa3a
00000080: 7927 bf3a 4d71 df3a 8470 023b 4c08 133b
00000090: 8fd1 203b fcee 313b 920a 473b 0027 5d3b
000000a0: 6052 6d3b 966b 723b 1473 6e3b ea8d 643b
000000b0: 9df9 523b 44c4 373b b589 153b f3c5 e93a
000000c0: 2442 be3a 7ae1 ad3a f515 ae3a fa5a b03a
000000d0: 04c4 ad3a 34b5 a63a 8b97 9d3a 88f7 903a
000000e0: 7fb6 773a 708c 3f3a e136 093a c846 bc39
000000f0: 04e6 4a39 2d80 a4b8 9508 eab9 ea6c 56ba
00000100: 14ce 87ba fbcd 84ba 5973 5bba 3377 2dba
00000110: 40c8 20ba 2432 35ba 8212 56ba 2a3d 66ba
00000120: 4984 5fba 7a67 53ba ae82 4fba 84db 5dba
00000130: 2bc4 72ba fdae 78ba 91e1 6aba 49aa 60ba
00000140: 6aeb 72ba e32d 97ba 21be bdba 804c d7ba
00000150: 846a d4ba e5fe b4ba b8ac 81ba 0b9c 04ba
00000160: 0de4 de37 e574 143a a599 843a cef1 ab3a
00000170: 66bb be3a 41c6 c33a d133 c33a 726e be3a
00000180: 589f b73a dace b03a a062 b33a 1ede c23a
00000190: 0c79 df3a cf5f 023b 0c5b 163b 72b5 273b
000001a0: 6b03 343b bede 3b3b b44e 403b b375 433b
000001b0: 77c3 463b eb94 4b3b d88f 503b fc47 543b
000001c0: 4295 533b 9049 4c3b e657 3e3b 5ea6 2c3b
000001d0: f3fa 1c3b f77a 123b f282 0b3b 0a6c 033b
000001e0: a60e ee3a b2a6 ce3a 5306 af3a 0371 923a
000001f0: 75ad 733a 39cc 433a b478 1b3a a59b 083a
00000200: cc8d 0a3a 7928 0f3a ae73 fd39 cf99 a939
00000210: cd9c 1b39 023d c538 60f8 6939 3f19 023a
00000220: 62ad 4f3a c0fd 833a 22aa 903a 25a5 913a
00000230: 64dd 8f3a 4bf1 8d3a 1a75 8a3a a793 833a
00000240: 3470 713a 0378 593a 4782 3d3a e8b5 1c3a
00000250: 0bf7 fa39 09fb e939 0555 093a f38f 353a
00000260: 08a5 633a 3b9d 873a ea05 a13a bb87 c63a
00000270: 7c49 fa3a b43d 173b ccd9 2a3b 79ae 333b
00000280: 6df7 333b f927 2e3b 7945 273b 0245 223b
00000290: a233 203b 17e6 1f3b d709 1f3b fd71 1a3b
000002a0: 733e 103b a9dd ff3a fa3a d93a 8417 b53a
000002b0: 0c19 9a3a d45f 8b3a 43ac 853a 4ca8 7f3a
000002c0: cb85 623a 5cd1 383a 2f65 0c3a 60d8 db39
000002d0: 4821 c139 e66d a739 fbf2 6439 ef2e 4938
000002e0: dd99 1bb9 c741 9fb9 281f c7b9 2ff5 e2b9
000002f0: 2234 0eba 153f 3cba cd82 6fba 0bf5 81ba
00000300: 7540 69ba 6385 3aba b955 20ba 3bb1 2fba
00000310: 7123 52ba 0268 68ba 9fd9 63ba ce5f 66ba
00000320: 402e 89ba 4b85 adba 4203 c7ba f337 beba
00000330: 81e2 93ba 25d2 3aba b635 bcb9 187b b3b8
00000340: d7fc 4239 f5e6 ff39 444b 443a f107 6c3a
00000350: 36e5 793a 393d 823a 9b31 913a 4d69 a63a
00000360: b19b b43a f89a af3a 8d04 973a 7ef0 5f3a
00000370: 78f8 053a 2f73 4539 c234 8fb7 0028 57b8
00000380: 8248 9238 2b9a 7439 a508 9539 e3b1 2b39
00000390: f929 9fb8 cf19 bfb9 1ec1 26ba 24ba 6aba
000003a0: f2f2 9aba 760f bcba 87ad d1ba 9dbd d8ba
000003b0: deaf d3ba 72de c1ba 8724 a3ba 2253 70ba
000003c0: 3e24 0eba ab89 7cb9 fc18 85b8 a78e a937
000003d0: d7f3 dc38 ce6e 8539 6934 dc39 a21c 0e3a
000003e0: c5d9 1d3a 372b 283a d430 82ba 0cb2 c6ba
000003f0: f14e ffba 3172 0fbb 6564 12bb 336a 09bb

exp_avg_sq f4 [8, 1, 1, 250]
1.3513244e-05 1.282449e-05 1.1994104e-05 1.1255311e-05 1.0869703e-05 1.0865689e-05 1.104209e-05 1.1161047e-05
1.1097902e-05 1.0896661e-05 1.0644328e-05 1.0416003e-05 1.02563445e-05 1.0153434e-05 1.01495425e-05 1.01458945e-05
9.9655335e-06 9.596535e-06 9.296443e-06 9.285503e-06 9.557566e-06 9.922755e-06 1.0136355e-05 1.0128097e-05
1.0072783e-05 1.021352e-05 1.0582355e-05 1.0992643e-05 1.12002e-05 1.1140013e-05 1.1000498e-05 1.09954435e-05
1.11303925e-05 1.1289224e-05 1.1357497e-05 1.1384564e-05 1.1409441e-05 1.1415997e-05 1.1455421e-05 1.1542417e-05
1.1704995e-05 1.1952233e-05 1.21448065e-05 1.2122947e-05 1.1949961e-05 1.1845229e-05 1.194168e-05 1.2136181e-05
1.2286372e-05 1.23426e-05 1.2335176e-05 1.2310524e-05 1.2211893e-05 1.1949561e-05 1.156226e-05 1.1215493e-05
1.0993217e-05 1.0895965e-05 1.0854013e-05 1.0746141e-05 1.0502665e-05 1.015631e-05 9.812631e-06 9.52468e-06
9.259884e-06 8.984523e-06 8.749215e-06 8.6475775e-06 8.683019e-06 8.778649e-06 8.874978e-06 8.91265e-06
8.8835895e-06 8.813172e-06 8.832315e-06 9.082099e-06 9.622573e-06 1.0339569e-05 1.1053484e-05 1.1681636e-05
1.21968715e-05 1.2590452e-05 1.2832413e-05 1.2956286e-05 1.305472e-05 1.3138362e-05 1.3115308e-05 1.2982341e-05
1.2881892e-05 1.2933846e-05 1.3136368e-05 1.3418492e-05 1.366876e-05 1.3804845e-05 1.3842826e-05 1.3860225e-05
1.3898536e-05 1.3946081e-05 1.4051774e-05 1.4196792e-05 1.4326738e-05 1.4375375e-05 1.43160405e-05 1.4125718e-05
1.3874023e-05 1.3638576e-05 1.3449669e-05 1.3300475e-05 1.3120426e-05 1.29325845e-05 1.2896213e-05 1.3142341e-05
1.3561886e-05 1.3878989e-05 1.3860489e-05 1.3578415e-05 1.3324901e-05 1.3278958e-05 1.3402228e-05 1.3549113e-05
1.3602876e-05 1.3500656e-05 1.3312704e-05 1.3126478e-05 1.3043223e-05 1.3124096e-05 1.3356889e-05 1.3636711e-05
1.3866877e-05 1.4125107e-05 1.4511941e-05 1.50080505e-05 1.5435427e-05 1.5559333e-05 1.5314314e-05 1.4852023e-05
1.4419003e-05 1.4147289e-05 1.4025341e-05 1.3860181e-05 1.3539574e-05 1.31418965e-05 1.2852328e-05 1.269467e-05
1.2557294e-05 1.2300049e-05 1.1927577e-05 1.1569048e-05 1.1355156e-05 1.130809e-05 1.1381124e-05 1.1559168e-05
1.1890194e-05 1.2306939e-05 1.2626875e-05 1.269741e-05 1.2599689e-05 1.255452e-05 1.265174e-05 1.2728153e-05
1.25650695e-05 1.2175601e-05 1.1700036e-05 1.12299285e-05 1.0810714e-05 1.0500946e-05 1.0385736e-05 1.0400055e-05
1.0439207e-05 1.043006e-05 1.0392272e-05 1.030788e-05 1.0170457e-05 1.0070946e-05 1.00398465e-05 1.0104737e-05
1.0246739e-05 1.0374343e-05 1.0432895e-05 1.04820265e-05 1.0614582e-05 1.08999775e-05 1.13540145e-05 1.1853559e-05
1.2240923e-05 1.2466789e-05 1.2562385e-05 1.2628082e-05 1.2732683e-05 1.2825054e-05 1.2792194e-05 1.2590458e-05
1.2264334e-05 1.1915426e-05 1.1567116e-05 1.1115755e-05 1.0524911e-05 9.961199e-06 9.681298e-06 9.691237e-06
9.755132e-06 9.678229e-06 9.520098e-06 9.408155e-06 9.421994e-06 9.547229e-06 9.732562e-06 9.970035e-06
1.0259981e-05 1.0587755e-05 1.0911911e-05 1.1169902e-05 1.1407552e-05 1.1714785e-05 1.2087789e-05 1.2418648e-05
1.264055e-05 1.2757148e-05 1.2820263e-05 1.2957981e-05 1.3262956e-05 1.3661038e-05 1.4013828e-05 1.4190408e-05
1.4206468e-05 1.4218432e-05 1.4325556e-05 1.4478698e-05 1.4525629e-05 1.4409146e-05 1.4178275e-05 1.3944625e-05
1.3804163e-05 1.3784868e-05 1.3817028e-05 1.3815196e-05 1.378607e-05 1.3799394e-05 1.38738615e-05 1.3951291e-05
1.4000753e-05 1.402046e-05 1.3967086e-05 1.3854371e-05 1.3656427e-05 1.3316021e-05 1.2872285e-05 1.2443909e-05
1.2070351e-05 1.1733764e-05 2.2853386e-05 2.2298122e-05 2.1843904e-05 2.1627638e-05 2.1771531e-05 2.2205193e-05
00000000: f1b6 6237 c428 5737 493a 4937 31d5 3c37
00000010: 055d 3637 c74b 3637 6a41 3937 5540 3b37
00000020: 2031 3a37 cdd0 3637 0a95 3237 64c0 2e37
00000030: aa12 2c37 ab58 2a37 f447 2a37 4938 2a37
00000040: a431 2737 ce00 2137 ebf7 1b37 efc8 1b37
00000050: 6f59 2037 e979 2637 500f 2a37 d8eb 2937
00000060: 46fe 2837 bc5a 2b37 de8a 3137 0b6d 3837
00000070: 7ee8 3b37 fee5 3a37 c78e 3837 1279 3837
00000080: acbc 3a37 d966 3d37 148c 3e37 5400 3f37
00000090: 2d6b 3f37 5587 3f37 a930 4037 4ea6 4137
000000a0: 9260 4437 7386 4837 8cc1 4b37 a963 4b37
000000b0: b17c 4837 dfba 4637 2059 4837 809c 4b37
000000c0: 9121 4e37 1013 4f37 2df3 4e37 4c89 4e37
000000d0: aee1 4c37 f97a 4837 87fb 4137 2d2a 3c37
000000e0: 826f 3837 d0cd 3637 a219 3637 534a 3437
000000f0: 9a34 3037 0565 2a37 eea0 2437 30cc 1f37
00000100: e65a 1b37 3cbc 1637 98c9 1237 1015 1137
00000110: 48ad 1137 0348 1337 bee5 1437 8a87 1537
00000120: ba0a 1537 49dc 1337 812e 1437 515f 1837
00000130: a370 2137 1c78 2d37 5a72 3937 3ffc 4337
00000140: 2aa1 4c37 943b 5337 cb4a 5737 d35e 5937
00000150: 9805 5b37 d66c 5c37 d209 5c37 bbce 5937
00000160: 4e1f 5837 72fe 5837 4564 5c37 fc1f 6137
00000170: e152 6537 5c9b 6737 7c3e 6837 3789 6837
00000180: c22d 6937 f6f9 6937 e9bf 6b37 c22e 6e37
00000190: df5c 7037 c42d 7137 ed2e 7037 7ffd 6c37
000001a0: 7ac4 6837 3dd1 6437 e3a5 6137 1b25 5f37
000001b0: cd1f 5c37 07f9 5837 d05c 5837 ed7d 5c37
000001c0: db87 6337 ced9 6837 598a 6837 d9ce 6337
000001d0: 048e 5f37 b1c8 5e37 22da 6037 ff50 6337
000001e0: e837 6437 e080 6237 a159 5f37 cb39 5c37
000001f0: 37d4 5a37 902f 5c37 6717 6037 3ac9 6437
00000200: c9a5 6837 dffa 6c37 5078 7337 16cb 7b37
00000210: 547b 8137 6a85 8237 3d77 8037 f42c 7937
00000220: 25e9 7137 255a 6d37 624e 6b37 0689 6837
00000230: 0728 6337 047c 5c37 54a0 5737 31fb 5437
00000240: 2bad 5237 4f5c 4e37 8e1c 4837 af18 4237
00000250: 0682 3e37 e0b7 3d37 8ef1 3e37 40ee 4137
00000260: ff7b 4737 e779 4e37 04d8 5337 f606 5537
00000270: 4163 5337 41a1 5237 cf42 5437 008b 5537
00000280: 90ce 5237 cf45 4c37 464b 4437 2d68 3c37
00000290: aa5f 3537 382d 3037 653e 2e37 e57b 2e37
000002a0: 0d24 2f37 c4fc 2e37 785a 2e37 02f0 2c37
000002b0: c8a1 2a37 62f6 2837 d070 2837 8487 2937
000002c0: 69e9 2b37 770d 2e37 f108 2f37 f6db 2f37
000002d0: 4815 3237 0cdf 3637 1f7d 3e37 a6de 4637
000002e0: 5d5e 4d37 7328 5137 08c3 5237 33dd 5337
000002f0: 759e 5537 302b 5737 0e9e 5637 9b3b 5337
00000300: eac2 4d37 5de8 4737 6310 4237 ce7d 3a37
00000310: 2694 3037 061f 2737 dc6c 2237 8c97 2237
00000320: f9a9 2337 ad5f 2237 82b8 1f37 b8d7 1d37
00000330: 2813 1e37 092d 2037 0949 2337 f944 2737
00000340: 4822 2c37 10a2 3137 4d12 3737 5d66 3b37
00000350: 1063 3f37 9e8a 4437 a9cc 4a37 b059 5037
00000360: c012 5437 8907 5637 9c16 5737 1b66 5937
00000370: f683 5e37 b631 6537 ef1c 6b37 5713 6e37
00000380: 5158 6e37 b38b 6e37 cb57 7037 89e9 7237
00000390: 1ab3 7337 d0be 7137 3adf 6d37 b5f3 6937
000003a0: 6e98 6737 8f45 6737 afcf 6737 d1c7 6737
000003b0: b84a 6737 f283 6737 c8c3 6837 5710 6a37
000003c0: c7e4 6a37 6b39 6b37 2d54 6a37 1270 6837
000003d0: e81d 6537 e067 5f37 0bf6 5737 2fc6 5037
000003e0: c381 4a37 22dc 4437 46b5 bf37 da0c bb37
000003f0: 6d3d b737 006d b537 02a2 b637 4a45 ba37

exp_avg f4 [8]
5.6820627e-06 3.2180894e-06 4.4992294e-06 7.4666295e-06 -2.9687892e-06 -9.780849e-06 -7.161785e-07 -3.8963403e-06
00000000: 8ca8 be36 5bf6 5736 16f8 9636 dc89 fa36
00000010: 693b 47b6 6d18 24b7 693f 40b5 4fbd 82b6

exp_avg_sq f4 [8]
1.345706e-10 1.899208e-11 4.6329923e-11 1.4707177e-10 4.6882682e-11 1.6816791e-10 2.791245e-11 7.024206e-11
00000000: 42f6 132f 5d0e a72d dbc2 4b2e 06b5 212f
00000010: 3531 4e2e 0fe7 382f 4085 f52d c476 9a2e

exp_avg f4 [8]
1.0077312e-07 -1.9569326e-07 -3.4347002e-07 4.164615e-08 -4.9947323e-07 -3.0594137e-07 -7.1140676e-08 2.2189779e-07
00000000: 9c68 d833 c11f 52b4 2966 b8b4 6dde 3233
00000010: 8a13 06b5 4340 a4b4 00c6 98b3 cd42 6e34

exp_avg_sq f4 [8]
1.563932e-13 1.1414638e-12 1.9278132e-13 2.0545256e-13 6.2476077e-13 2.794842e-13 1.2803064e-13 3.1756761e-13
00000000: 4515 302a 91a5 a02b 6f0d 592a ab51 672a
00000010: c2da 2f2b eb55 9d2a 5226 102a 51c6 b22a
