logs/pretext_task/version_13/checkpoints/epoch=0-train_loss=44.76-train_f1=0.35-val_loss=10.80-val_f1=0.38.ckpt (torch, 529938 bytes, 35 tensors)

EEGNet1.block1.0.weight f4 [8, 1, 1, 64]
000000 f0 a0 57 3d b0 02 11 bd 40 6e d0 bb bc 91 1b 3d
       0.052643716 -0.035402954 -0.006360799 0.03798078
000010 c0 72 eb bd 98 35 f2 3d 80 ba e5 bd 90 97 c5 3c
       -0.11496496 0.118266284 -0.11217213 0.024120122
000020 8e 5a 96 3d 04 c0 1d bd 80 ff 94 3a 26 71 a0 3d
       0.07341491 -0.0385132 0.0011367649 0.07834081
000030 06 de a3 bd 30 02 7d 3d b0 7c 66 3d 88 33 8a bc
       -0.08001332 0.061769664 0.056271255 -0.016870275
000040 40 db 8d bb 30 be a9 3d d8 13 ab bc d0 a5 0e 3c
       -0.004329115 0.082882285 -0.020883486 0.008706525
000050 ea b2 bd 3d c8 28 19 3d 70 92 0a bd e8 0a a4 3c
       0.09262641 0.037392408 -0.03383106 0.020024732
000060 30 47 59 bc c8 d6 5f bd f8 80 6d bd 88 1f e6 3c
       -0.013261601 -0.05464819 -0.057984322 0.028091207
000070 a8 1e e0 3c f4 6f b7 bd ea f3 a8 bd 9a 34 b6 bd
       0.027358368 -0.089569 -0.08249648 -0.08896752
000080 08 a0 65 bd c8 41 3a 3d c8 f2 c8 bc fc 9a 9d 3d
       -0.05606082 0.04547289 -0.02452983 0.076955765
000090 56 44 c6 3d d0 da 10 3c 9a 80 ef bd 68 ca b3 bc
       0.09681003 0.008841231 -0.11694451 -0.0219471
0000a0 ec ca 3e 3d 30 b4 86 3c 10 91 69 bc 10 b2 ba 3d
       0.04658024 0.016443342 -0.014255777 0.09115994
0000b0 08 7a e6 bd 20 fb ce 3d 24 be a6 bd c0 f5 fe 3c
       -0.11253744 0.10106492 -0.08141735 0.031123042
0000c0 32 b2 a1 3d b8 58 10 bd ac 47 9f 3d 68 e4 ea 3d
       0.07895316 -0.03524086 0.07777342 0.11469346
0000d0 2a 54 82 bd 04 ae 38 bd b0 87 38 bd 80 a3 ef bc
       -0.06363709 -0.04508783 -0.045051277 -0.029252768
0000e0 8e 44 e2 3d 9c c2 7b bd fc 43 b5 bd 0c bf fd bd
       0.11048232 -0.06146489 -0.088508576 -0.12389955
0000f0 f2 6a 80 bd a0 14 47 bd 0c f1 8d 3d f8 6d 7d bd
       -0.06270398 -0.048603654 0.06930742 -0.061872452
000100 e8 da d4 bd 4c 72 24 3d f0 96 5f 3d 5a 0d ac 3d
       -0.103933156 0.040148064 0.054587305 0.08400984
000110 00 ac af b9 d6 2d f8 bd 5a 5c e1 3d ae be b2 3d
       -0.0003350675 -0.121181175 0.11003943 0.087277755
000120 26 30 c4 3d 20 60 b0 bb a0 b2 d8 3b 18 cb d5 bc
       0.09579496 -0.0053825527 0.0066130906 -0.02609782
000130 8a 33 f1 bd ca 8a 8a bd a2 f7 b8 bd c0 ed 57 3d
       -0.117774084 -0.06764753 -0.09031607 0.05271697
000140 1a ee ff bd 50 78 c7 3c 80 64 d9 3b 94 ab 8e 3d
       -0.12496586 0.024349362 0.006634295 0.0696632
000150 18 05 68 3d 98 22 18 bd 9e 71 fe bd 90 c2 00 3c
       0.056645483 -0.037142366 -0.124240145 0.007858887
000160 1e 88 b9 bd de 58 ef 3d c8 d7 82 3d 72 49 df 3d
       -0.090591654 0.11686872 0.06388813 0.109026805
000170 a0 38 97 bc 5c ee 7f 3d 14 c5 ad 3d 46 dc fd 3d
       -0.018459618 0.062483177 0.08484855 0.123955294
000180 98 6a bf 3c f4 e7 ca bd 6e c5 c6 3d 1e ca 81 bd
       0.023366258 -0.09907523 0.097056255 -0.06337379
000190 f0 d0 b6 3d 90 e4 14 bd 00 4b 3c bb 6a 54 a5 3d
       0.089265704 -0.036350787 -0.0028731227 0.08072741
0001a0 18 8f 1a bd 68 f8 f3 3c 46 dd df 3d 80 8a 3a bb
       -0.03773412 0.029781535 0.109308764 -0.00284639
0001b0 d8 08 07 3d 90 3c 9a 3c 00 6a 31 3a a8 0b 88 bc
       0.03296742 0.018827707 0.00067678094 -0.01660712
0001c0 06 7b 8d bd f4 47 56 3d d0 e5 23 bd e8 23 f8 3c
       -0.069082305 0.052314714 -0.04001409 0.030290559
0001d0 30 60 f5 bd f4 c0 22 bd 68 ef 63 3d 4a d7 b0 3d
       -0.11981237 -0.039734796 0.055648237 0.08634813
0001e0 24 f5 3b 3d 24 9b a5 3d 56 3a f8 3d 40 c4 4d 3c
       0.04588808 0.08086231 0.12120502 0.012558997
0001f0 18 56 b6 bc 6c 89 4c 3d e0 d4 02 bc 00 66 27 3b
       -0.02225785 0.049935743 -0.007985324 0.0025542974
000200 ce 2d 8c bd ee 59 d6 bd 68 7d 79 3d 64 0d 9d 3d
       -0.06844674 -0.104663715 0.060910612 0.0766857
000210 12 4b 83 bd 14 2b 8d 3d e2 ab a3 bd 10 d6 97 3d
       -0.06410803 0.06892982 -0.079917684 0.07413876
000220 8e 1a d5 bd b8 44 94 bd 56 93 b2 3d 20 31 21 bc
       -0.104054555 -0.072396696 0.08719508 -0.0098383725
000230 64 02 e1 bd 00 c9 fb 3b ce 0d db 3d c0 fc 92 3d
       -0.10986784 0.007683873 0.106959924 0.071771145
000240 7e ce 87 bd 60 c4 3a bc d0 cd 8d bc 52 44 f6 bd
       -0.06631182 -0.0113993585 -0.017310053 -0.1202475
000250 e0 7c ca bd ec d3 21 bd 98 32 f6 bd 26 fd e9 bd
       -0.09887099 -0.039508745 -0.12021369 -0.11425237
000260 50 19 9d 3c 68 95 f0 3d b0 db cb bd 00 9e b5 ba
       0.019177109 0.11747247 -0.099540114 -0.0013856292
000270 90 42 0d bc d0 a1 27 3c 00 2a 74 3b 74 6f 6d 3d
       -0.008621827 0.01023145 0.003725648 0.057967618
000280 c8 67 7f 3d d8 ef cc bc 60 6d f8 3d aa 55 f6 3d
       0.062354833 -0.02501671 0.121302366 0.12028058
000290 a0 30 b9 3b 88 53 a1 3d ac 05 c1 bd 8c 7e 6b 3d
       0.0056515485 0.078772604 -0.0942491 0.05749373
0002a0 00 ea ff bd 10 6f be 3d 40 31 45 bb ca f2 b5 3d
       -0.12495804 0.09298527 -0.003008917 0.08884199
0002b0 7c fb ec bd 4a 43 8b 3d cc 47 c7 3d 2a 53 f7 3d
       -0.11571404 0.06799944 0.09730491 0.12076409
0002c0 70 f7 0e 3c 74 47 b9 bd 6c 6a c6 bd ee f0 ab bd
       0.008725986 -0.09046832 -0.09688267 -0.08395563
0002d0 48 6c 9c 3d 90 b9 3e 3d 1a 93 85 bd 6c 6b 73 bd
       0.076378405 0.046563685 -0.06522198 -0.059428617
0002e0 ce 87 b9 bd 38 51 f4 bd 4a 3a e8 bd 8e 03 c7 bd
       -0.09059106 -0.11929554 -0.11339243 -0.09717475
0002f0 8c 79 fd bd f8 e7 9c bd ce db bc bd 30 3a 10 bd
       -0.12376699 -0.07661432 -0.09221612 -0.035211742
000300 a0 a7 70 bc 50 b8 29 bd c0 13 0e 3b d4 c0 cb bd
       -0.014688402 -0.04143554 0.0021679252 -0.099488884
000310 00 0d 22 3c e0 95 8c 3d 0c bd ff bd 84 7f e5 3d
       0.009890795 0.06864524 -0.1248723 0.11205962
000320 cc 03 88 3d dc 60 ce bd 54 d9 3b bd a8 11 54 bd
       0.06641349 -0.10077068 -0.045861557 -0.05177465
000330 be 7a e5 bd 78 5b a3 3c dc 67 dc 3d ba 2b de bd
       -0.11205052 0.019941077 0.10761997 -0.10848184
000340 9e 61 c5 bd 5e 6f bf 3d 2c bc 4a bd 78 10 6c bd
       -0.096377596 0.093474135 -0.04949586 -0.057632893
000350 68 1c 34 3d 68 34 ac bc b2 07 b1 3d d0 9b 35 3d
       0.043972403 -0.021021083 0.08644046 0.044338048
000360 28 2a 48 3d 40 e9 01 3b da a2 81 bd 00 b9 82 bb
       0.04886833 0.0019822866 -0.063298896 -0.003989339
000370 08 71 de bc 72 0e ac bd 2c 1c 06 3d d8 6e 96 bc
       -0.027153507 -0.08401193 0.03274171 -0.018363401
000380 d0 e8 dc 3d fe ff a2 3d f2 c8 e3 3d b2 60 88 3d
       0.10786593 0.07958983 0.11122312 0.06659068
000390 54 12 7e 3d ee b0 b4 3d e0 e2 5d 3d 50 ee 88 bd
       0.062029198 0.08822809 0.054171443 -0.066860795
0003a0 28 10 f0 bc 0e 2e 97 bd e0 e4 33 bd de 5b 88 3d
       -0.029304579 -0.07381831 -0.043919444 0.06658147
0003b0 44 49 43 3d e0 f2 b9 3b f8 c4 07 bd 06 47 c1 bd
       0.047677293 0.005674705 -0.03314683 -0.09437375
0003c0 90 00 00 3d d0 3b 7e bd be 28 bd 3d c0 57 8e bb
       0.031250536 -0.06206876 0.092362866 -0.0043439567
0003d0 10 bd ec 3d 9e 57 af 3d 98 37 f9 bc 3c bc 61 3d
       0.11559498 0.085616335 -0.030422017 0.055111155
0003e0 9c 7a 6b bd 50 18 70 bd 54 51 ad bd cc 5a 3f bd
       -0.057489976 -0.058616936 -0.08462778 -0.04671745
0003f0 b8 d3 b5 3d 00 94 62 bc b6 54 9a bd 6c a2 e3 3d
       0.08878273 -0.013829231 -0.075356886 0.11114964

EEGNet1.block1.1.weight f4 [8]
000000 00 00 80 3f 00 00 80 3f 00 00 80 3f 00 00 80 3f
       1.0 1.0 1.0 1.0
000010 00 00 80 3f 00 00 80 3f 00 00 80 3f 00 00 80 3f
       1.0 1.0 1.0 1.0

EEGNet1.block1.1.bias f4 [8]
000000 00 00 00 00 00 00 00 00 00 00 00 00 00 00 00 00
       0.0 0.0 0.0 0.0
000010 00 00 00 00 00 00 00 00 00 00 00 00 00 00 00 00
       0.0 0.0 0.0 0.0

EEGNet1.block1.1.running_mean f4 [8]
000000 ca 9d 74 b7 6f 5e a6 b8 79 68 1a 39 80 d2 bd 37
       -1.4580271e-05 -7.9330865e-05 0.00014725504 2.2628577e-05
000010 9d a5 ab 38 cd f0 93 37 ac 35 20 36 1e fb c9 38
       8.184763e-05 1.7635897e-05 2.38731e-06 9.631201e-05

EEGNet1.block1.1.running_var f4 [8]
000000 90 82 a4 3f 80 d2 c5 3f cf f1 e1 3f cf 5c bd 3f
       1.2852345 1.5454865 1.7651919 1.4793948
000010 83 61 b4 3f 18 4e c6 3f 16 29 bb 3f 79 5c be 3f
       1.4092258 1.5492582 1.4621913 1.487197

EEGNet1.block1.2.weight f4 [16, 1, 26, 1]
000000 81 a5 03 3e ea 35 34 be c8 54 09 3d d8 40 b5 bc
       0.12856103 -0.17598692 0.03352812 -0.022125646
000010 a5 27 31 3e 62 11 ef 3d 66 ee d0 bd 48 d2 3d be
       0.1730028 0.116732374 -0.10201721 -0.18537247
000020 fa 7f 38 be 6d c5 3e 3e f8 c4 30 bd fb 1a a6 bd
       -0.18017569 0.1863 -0.043156594 -0.08110615
000030 c6 37 eb 3d 02 b2 dc 3d b2 c4 b8 3d 80 05 bf 3b
       0.11485247 0.1077614 0.09021892 0.005829513
000040 72 9c 93 3d 14 30 0c 3d e6 b3 0b be 3c 02 04 bd
       0.07207574 0.03422554 -0.13642845 -0.032228693
000050 5a d6 e4 3d 9c 4f 51 bd 40 83 71 bc 8a ec 8e bd
       0.11173697 -0.051101312 -0.014740765 -0.0697871
000060 d7 f8 03 3e 88 b1 76 bd e0 8c 8c 3b 20 4c 15 bd
       0.12887894 -0.0602279 0.0042892545 -0.03644955
000070 9e cd e8 3d c3 69 3a 3e 81 11 40 3e 20 70 bb bc
       0.11367343 0.18204407 0.18756677 -0.022880614
000080 76 f3 87 3d d5 a9 36 be 9a 6d f5 3d 85 58 14 3e
       0.06638233 -0.17838223 0.119837955 0.14486893
000090 c8 cf 0a 3d a6 06 e9 3d 0c 1e 41 be b4 ce 35 3d
       0.033889562 0.11378221 -0.18859118 0.04438658
0000a0 60 6c 29 3d b0 d1 48 be a0 7a eb 3c 81 af b3 bd
       0.04136312 -0.1961124 0.028744996 -0.08773709
0000b0 24 68 47 be 3b 06 93 bd 40 14 0a 3b 62 9b a9 3d
       -0.1947332 -0.07178923 0.00210692 0.0828159
0000c0 aa 9c 97 3d 48 1e 39 be 6c 28 27 3d c0 fd bc bc
       0.07402928 -0.18077958 0.040810034 -0.023070216
0000d0 56 01 20 be 76 eb fd 3d 0f ca 43 3e 2c f5 3d bd
       -0.1562551 0.12398426 0.19120048 -0.046376392
0000e0 09 d0 0e 3e 0e f5 03 be c0 e0 0d bd f4 95 71 3d
       0.13946547 -0.1288645 -0.034638166 0.058980897
0000f0 8f 4f a3 bd 4f 46 36 3e c5 ff 3b 3e e0 3d 33 bd
       -0.07974159 0.17800258 0.18359287 -0.04376018
000100 62 9b eb bd 9a d6 da 3d 37 32 11 3e 17 41 b3 bd
       -0.11504246 0.10685463 0.14179312 -0.08752649
000110 29 73 cf bd e8 15 e6 3c 4c 15 6d 3d 1a e8 d8 3d
       -0.10129387 0.028086618 0.05788164 0.10591145
000120 e4 8b 55 3d 0c 40 44 bd 60 dd 20 bc 37 f7 2d 3e
       0.052135363 -0.047912642 -0.009818405 0.16988836
000130 fe 0c 40 be 50 95 0e bc 80 8f af 3b ef 4b 12 3e
       -0.18754956 -0.008702591 0.0053576827 0.14286779
000140 82 1f 89 3d f8 44 29 3d b8 90 22 3d 1d aa c9 bd
       0.06695463 0.04132554 0.039688796 -0.098469
000150 80 7e 1a be 40 7c 43 3c e7 7f 08 3e 3e 24 b8 3d
       -0.15087318 0.011931479 0.13330041 0.08991288
000160 69 89 48 3e 80 b4 5e bd 7a 33 85 3d 98 fd 1d be
       0.19583668 -0.054371357 0.06503959 -0.1542877
000170 95 8e 11 3e 64 33 64 bd 1c da 7a bd 7e 61 8a 3d
       0.14214547 -0.055713072 -0.06124316 0.067568764
000180 f6 14 dc 3d 2a 67 c4 bd 91 a2 3a 3e ce f5 9e 3d
       0.107461855 -0.095899895 0.18226077 0.07761727
000190 5d db 20 be 9d 07 0a 3e 0b 74 00 3e b8 c0 46 be
       -0.1570868 0.13479467 0.12544267 -0.19409454
0001a0 04 78 39 bd 3c f9 21 be 06 53 0a be 83 b4 fa bd
       -0.04528047 -0.15817732 -0.13508233 -0.12241461
0001b0 c3 13 db bd e0 b5 18 bc d0 39 7e bc 36 af 31 be
       -0.106971286 -0.009320706 -0.015516713 -0.17351994
0001c0 42 f9 9a 3d f0 40 5f bc 00 1a 2b 3d 71 ef 05 3e
       0.075670734 -0.013626322 0.041772842 0.13079621
0001d0 ed 51 15 3e 6e cc ab bd 98 66 57 3d 5a d8 b9 3d
       0.14582033 -0.08388601 0.052588075 0.09074469
0001e0 69 1f 05 3e 12 ba 16 be ec d4 06 be 99 d2 27 3e
       0.13000263 -0.14719418 -0.13167161 0.1638893
0001f0 1a d7 8d bd 9e 14 8e bd d7 86 31 3e 8d 12 38 be
       -0.06925793 -0.06937526 0.17336594 -0.17975827
000200 e2 56 ce 3d 06 0e 9e 3d d4 66 7a 3d 02 c1 a8 3d
       0.10075165 0.077175185 0.06113322 0.08239938
000210 a0 25 d7 3b 22 4a 83 3d 4b c0 2a 3e 40 49 44 be
       0.0065657645 0.06410624 0.16674916 -0.19168568
000220 b5 15 47 3e 00 65 7e 3b 97 f0 21 3e 70 40 44 3c
       0.19441874 0.0038817525 0.15814434 0.011978254
000230 b5 fd 2c be 71 cf f3 bd a0 20 2e 3c 6b 92 c6 bd
       -0.16893657 -0.11904801 0.010627896 -0.09695896
000240 1a 69 29 be ab c8 a7 bd fe 15 bc bd c5 cc 17 3e
       -0.16544 -0.08192571 -0.09183882 0.14824207
000250 34 37 02 be 01 78 09 3e ca 84 b3 3d 86 9b 9f bd
       -0.12716371 0.13424684 0.08765562 -0.077933356
000260 66 30 b9 3d bd 91 0d 3e c4 c6 65 3d 67 4e 33 be
       0.090424344 0.13825126 0.05609776 -0.17510377
000270 5d e6 36 3e 4b 80 19 be 6a 3f 31 be 96 f9 e0 bd
       0.17861314 -0.14990346 -0.17309347 -0.10985105
000280 00 93 82 bb fb c5 ca bd 65 83 48 3e 4e 75 d3 3d
       -0.003984809 -0.09901043 0.19581373 0.103251085
000290 4f 8c f3 bd ea d7 2a be af 79 1b be d1 14 18 be
       -0.11891996 -0.16683927 -0.15183137 -0.14851691
0002a0 c8 67 51 3d d0 5a 90 bc ae 6e ff 3d 34 45 62 bd
       0.051124364 -0.017621428 0.12472282 -0.05524178
0002b0 45 61 43 be 71 00 16 be e9 01 0b 3e c2 f8 00 be
       -0.19080074 -0.14648606 0.13574947 -0.12594894
0002c0 f3 45 3b 3e 1f 1d 3f be 9e d1 d6 3d 0b 2f 43 be
       0.18288402 -0.18663453 0.104892 -0.19060914
0002d0 c4 23 35 be 40 3c e1 bb da 68 af 3d c0 a7 1c 3b
       -0.17689425 -0.0068736374 0.08564921 0.0023903698
0002e0 0e 0e f2 bd cd 68 1a be 9b 69 1d 3e 18 99 74 bd
       -0.11819087 -0.15079041 0.15372317 -0.059716314
0002f0 0a 21 e4 3d 6b 13 23 3e 4f 19 28 be 4f 0c 45 3e
       0.11139114 0.15925376 -0.16415904 0.19242977
000300 13 cc 2c 3e 5f 99 1f 3e 99 94 23 be ba 0a 84 bd
       0.16874723 0.1558585 -0.15974654 -0.064473584
000310 6e 98 29 be 00 5a 3d bc 16 51 e4 3d 98 1d ea bd
       -0.16562054 -0.011557102 0.111482784 -0.11431426
000320 c4 99 fa bd a0 a2 bd bb 58 cd 92 bc 6d 4e de bd
       -0.1223636 -0.0057872087 -0.017920181 -0.10854802
000330 3e a6 81 3d 07 f7 41 3e b6 5b 26 be 40 41 ff bb
       0.06330536 0.1894189 -0.16245922 -0.007789761
000340 80 4a 44 bb 50 42 27 3c c0 f6 9d bc 01 7d 14 3e
       -0.0029951632 0.010208681 -0.019282699 0.1450081
000350 c2 40 f6 3d b1 66 14 be 25 e2 05 3e c2 20 ee 3d
       0.1202407 -0.14492299 0.13074549 0.11627342
000360 6d ad 48 3e 17 96 01 3e 87 fd 23 be 19 96 2f 3e
       0.19597407 0.12654911 -0.16014682 0.17147101
000370 67 e8 43 3e 0f e9 47 be f1 4d 2a 3e 8e 56 80 bd
       0.19131623 -0.19522499 0.16631295 -0.06266509
000380 a8 37 0b be 63 56 02 3e 83 8a 35 be 00 a8 9e bb
       -0.1359545 0.12728266 -0.1772862 -0.0048418045
000390 a6 c8 d4 3d 15 c5 24 3e 88 e6 70 bd 80 fe 41 bc
       0.10389833 0.16090806 -0.0588136 -0.011840463
0003a0 70 86 b3 bc d7 67 00 3e f6 ed 83 3d 6a f6 ae bd
       -0.02191469 0.12539612 0.06441872 -0.085430935
0003b0 ff b1 1a 3e d8 6e 0f be fa 9d 1c be 5a b0 02 be
       0.15106963 -0.14007127 -0.15294638 -0.12762585
0003c0 54 cf b1 bd e8 42 94 bd 79 73 21 3e 54 a0 63 3d
       -0.08682123 -0.07239324 0.15766706 0.055572823
0003d0 6d 15 28 be c2 48 98 3d 6c 1c 2b bd e0 af ed bc
       -0.16414423 0.074357525 -0.041775152 -0.029014528
0003e0 08 b7 98 bc 35 a3 38 be bc 18 2e be dd 5b 3b 3e
       -0.018641964 -0.18031009 -0.17001623 0.18296762
0003f0 18 f9 8e 3c 02 a2 8c bd 2c ce 12 bd 81 92 d9 bd
       0.017452762 -0.06866838 -0.035841152 -0.106236465

EEGNet1.block1.3.weight f4 [16]
000000 00 00 80 3f 00 00 80 3f 00 00 80 3f 00 00 80 3f
       1.0 1.0 1.0 1.0
000010 00 00 80 3f 00 00 80 3f 00 00 80 3f 00 00 80 3f
       1.0 1.0 1.0 1.0
000020 00 00 80 3f 00 00 80 3f 00 00 80 3f 00 00 80 3f
       1.0 1.0 1.0 1.0
000030 00 00 80 3f 00 00 80 3f 00 00 80 3f 00 00 80 3f
       1.0 1.0 1.0 1.0

EEGNet1.block1.3.bias f4 [16]
000000 00 00 00 00 00 00 00 00 00 00 00 00 00 00 00 00
       0.0 0.0 0.0 0.0
000010 00 00 00 00 00 00 00 00 00 00 00 00 00 00 00 00
       0.0 0.0 0.0 0.0
000020 00 00 00 00 00 00 00 00 00 00 00 00 00 00 00 00
       0.0 0.0 0.0 0.0
000030 00 00 00 00 00 00 00 00 00 00 00 00 00 00 00 00
       0.0 0.0 0.0 0.0

EEGNet1.block1.3.running_mean f4 [16]
000000 8f 21 66 36 76 55 2b 37 65 39 52 37 01 0a 54 37
       3.4292204e-06 1.0212292e-05 1.2530339e-05 1.2638514e-05
000010 d5 b9 7c 37 20 d3 12 37 9a 3c 1e b7 09 e4 83 b5
       1.5063638e-05 8.7514345e-06 -9.431644e-06 -9.826628e-07
000020 e6 f2 b8 b6 8d 56 a9 36 53 76 da b6 54 1d 78 b6
       -5.5119044e-06 5.0466683e-06 -6.510681e-06 -3.697195e-06
000030 70 20 f8 32 64 0f 13 37 98 46 84 b6 2f a6 93 b6
       2.888575e-08 8.765466e-06 -3.9421247e-06 -4.4002877e-06

EEGNet1.block1.3.running_var f4 [16]
000000 31 55 7b 3f 91 b0 7b 3f 4a 38 7b 3f 57 8d 7b 3f
       0.98176867 0.98316294 0.98132765 0.9826254
000010 21 7f 7b 3f 4b 2e 7b 3f 0a 6d 7d 3f 3c 1d 7b 3f
       0.9824086 0.9811751 0.98994505 0.98091483
000020 bb df 7c 3f df ee 7b 3f d7 88 7b 3f 68 32 7b 3f
       0.98778886 0.98411363 0.98255676 0.9812379
000030 37 34 7b 3f 56 5e 7b 3f 1a 2e 7b 3f 10 26 7b 3f
       0.9812655 0.9819082 0.9811722 0.98104954

EEGNet1.block2.0.weight f4 [16, 1, 1, 16]
000000 8a 85 7e 3e 4c e3 b7 3d 60 80 44 3d 08 90 6a be
       0.24855629 0.089789 0.04797399 -0.22906506
000010 b0 d0 2d be a4 c1 6f 3e 7c 2e f1 3d a4 39 28 be
       -0.16974139 0.23413712 0.11776444 -0.16428238
000020 d8 60 5d be 78 82 5f be f4 c1 8e 3d 98 2e ac bd
       -0.21618974 -0.21827114 0.069705874 -0.084073246
000030 6e 05 1f 3e 90 4c 44 3e 64 00 2d be c2 f2 3b 3e
       0.15529415 0.19169831 -0.1689468 0.18354324
000040 f2 4c 01 be a0 1e dd bc e8 c1 1d be a0 69 11 3d
       -0.12627009 -0.026992142 -0.15406 0.035501122
000050 80 b1 cd 3d 20 df 5a bc 14 7d 1b 3e bc 94 b4 3d
       0.10043621 -0.013358861 0.15184432 0.08817431
000060 10 47 9a bd 26 c1 1a be 4c bd 15 be 68 36 6c 3e
       -0.07533085 -0.15112743 -0.14622992 0.2306763
000070 aa 84 3b 3e b0 e4 3d 3e ac 0c 13 3e 54 8e 73 be
       0.18312326 0.18544269 0.14360303 -0.23784763
000080 d6 70 4c be 20 86 45 3d d8 fb fe 3d 0c c3 41 be
       -0.19964918 0.048223615 0.12450379 -0.1892206
000090 80 58 b7 3d 20 4a 4f 3c d2 15 7e 3e 54 50 5c 3e
       0.08952427 0.01265195 0.24813011 0.21515018
0000a0 5a f9 11 3e 40 7f 4f bc 88 7a a5 bd 72 17 79 3e
       0.14255276 -0.012664616 -0.080800116 0.2432535
0000b0 36 f7 78 be c4 e1 2a be 92 0e 4b be 64 69 e2 bd
       -0.24313053 -0.16687685 -0.19829777 -0.11055258
0000c0 64 38 42 be f0 8b 72 3e 42 06 20 3e 60 22 38 3d
       -0.18966824 0.23686194 0.15627387 0.044954658
0000d0 2c 9f 6d be 9e d6 5c be 3a 7e 53 be e0 ad 36 3d
       -0.2320525 -0.21566245 -0.2065362 0.044599414
0000e0 24 b8 2c be 76 41 1f 3e 6c 48 3c be c0 88 30 3d
       -0.16867119 0.15552315 -0.18387002 0.043099165
0000f0 48 fb 73 bd 58 6b d6 bd 4a b8 75 be 06 6d 0c 3e
       -0.059565812 -0.10469693 -0.23996082 0.13713464
000100 18 73 99 bd 38 b0 72 bd 48 89 0c 3d 60 d8 96 bd
       -0.074926555 -0.059250087 0.03431061 -0.07365489
000110 98 d3 83 bd c8 86 c0 bd f0 50 32 3d 26 df 75 3e
       -0.06436843 -0.094007075 0.04353422 0.24010906
000120 c0 99 21 bc 34 a4 41 3e f6 cc 78 be fc 68 9f bd
       -0.009863317 0.18910295 -0.24296936 -0.07783696
000130 ca bc 65 be 98 1a 4b 3d 92 ed 34 3e 96 25 44 be
       -0.22435299 0.04958591 0.17668751 -0.19154963
000140 c0 8c 32 3d 5c a3 99 3d 6e b2 0f 3e 78 f7 bb bd
       0.04359126 0.075018615 0.1403291 -0.0917806
000150 96 da 07 be 16 86 4e be 2c 54 89 bd 18 d0 b8 3d
       -0.13266978 -0.20168337 -0.06705508 0.09024066
000160 6c 5e cb 3d de ad 71 3e f0 1d 62 3e d6 35 37 be
       0.09930119 0.23601481 0.22081733 -0.1789163
000170 8c 2c cf 3d f0 c0 9e 3d 54 77 bb bd da 30 3a be
       0.101159185 0.07751644 -0.091536194 -0.18182698
000180 4e a9 50 3e ae 32 3f be 22 46 7b 3e f0 b2 7d bd
       0.20377085 -0.18671677 0.24538472 -0.061938226
000190 a0 37 1e be 70 5e 0b be 80 52 f3 bb 2e 02 00 be
       -0.15450907 -0.13610244 -0.0074256063 -0.12500831
0001a0 04 dc 3e be a0 90 29 3e 7c 25 56 3e 5a 0d 1d be
       -0.18638617 0.16559076 0.20912737 -0.15337124
0001b0 fc 44 8e 3d 06 52 7e be 08 e4 07 bd c0 e3 33 be
       0.069467515 -0.24835977 -0.033176452 -0.17567348
0001c0 ea 8c 1a be 78 a9 51 3e e6 ed 6a 3e 08 36 f7 3d
       -0.15092817 0.20474803 0.22942314 0.120708525
0001d0 d8 ab 73 bd a0 42 09 3c f0 c1 7b 3d f4 13 b0 3d
       -0.059490055 0.008377701 0.06146425 0.08597556
0001e0 10 a7 c7 bd 8a 80 31 be d0 80 1e be 60 b8 a5 3d
       -0.097486615 -0.1733419 -0.15478826 0.08091807
0001f0 38 54 3f 3d bc 18 79 be d0 d4 55 3d ec 7a 8d bd
       0.046711177 -0.24325842 0.052204907 -0.06908211
000200 48 c4 7f 3d 40 27 12 bc 80 4e 64 bd 84 6c 5d 3e
       0.062443048 -0.008920491 -0.055738926 0.21623427
000210 70 8f 8b 3c e8 d4 e8 3d e4 85 14 3e d0 f5 89 bd
       0.01703617 0.11368734 0.145042 -0.06736338
000220 48 c4 ca 3d f6 0a 24 3e dc 02 05 be 58 d6 c9 bd
       0.09900719 0.16019806 -0.12989372 -0.09855336
000230 8a 92 40 be 4c 82 cd bd f4 b4 bf bd 90 52 13 bd
       -0.188059 -0.10034618 -0.09360686 -0.03596741
000240 8e 16 0f 3e 14 b9 2a 3e 00 98 f3 bc 30 cc 7f be
       0.13973448 0.16672164 -0.029735565 -0.24980235
000250 ec ba a5 bd 86 28 3f be dc ad f4 bd e0 b4 e1 bd
       -0.08092293 -0.18667802 -0.119472235 -0.11020827
000260 e4 b3 e0 bd 3a d9 53 3e 08 79 2c 3e bc 01 26 3e
       -0.109718114 0.20688334 0.16843045 0.16211599
000270 40 d9 f3 bd b4 ff 89 bd c4 22 ea 3d b4 c4 63 be
       -0.119066715 -0.067382246 0.11432412 -0.22243005
000280 f0 ce 42 bd 08 d1 b9 bd 00 0b a8 3d 00 5f 0b 3b
       -0.047560632 -0.09073073 0.08205223 0.0021266341
000290 44 5d 20 3e 24 8f 62 3e 04 3f 6d be e8 1e e4 bd
       0.15660578 0.22124916 -0.2316857 -0.111387074
0002a0 ee 5a 0f be 68 04 63 3d 58 5a 2f bd 08 85 ca 3d
       -0.1399953 0.055424124 -0.042810768 0.09888655
0002b0 36 27 2e be a0 42 91 bd 10 c9 ef bd c2 16 61 be
       -0.17007145 -0.07092786 -0.117082715 -0.21981338
0002c0 36 54 2b be 08 40 35 3e e8 bb c2 3d 40 c7 85 3b
       -0.16731343 0.17700207 0.095084965 0.0040825903
0002d0 d4 ec 35 be 44 f2 38 3e 9c 5f 70 be 54 16 87 bd
       -0.17766124 0.18061167 -0.23473972 -0.065960556
0002e0 0c e5 f6 3d ee ca 26 3e 48 14 2f be a8 6b 89 3d
       0.12055406 0.16288349 -0.1709758 0.06709987
0002f0 18 39 62 3d 12 0e 4e 3e 80 6c 24 3d e0 d9 ae bd
       0.05523023 0.20122555 0.040142536 -0.0853765
000300 d6 7f 61 3e ac 3f 1a 3e 06 63 30 3e 20 38 f3 bd
       0.22021422 0.15063351 0.17225274 -0.11875939
000310 80 d0 52 bc 0a eb 02 be 60 53 83 bc e4 56 5c be
       -0.012867093 -0.12784973 -0.016030967 -0.21517521
000320 fa 0c 08 3e 10 37 f8 3c 98 6a 6e 3d 22 77 44 be
       0.132862 0.030299693 0.058207124 -0.1918607
000330 50 f5 47 3d 4c 1f 6e 3e 5e 23 35 be 00 1f 8f 3b
       0.048817933 0.23254126 -0.17689273 0.004367709
000340 40 0b b2 bb 4a 48 36 be 3c 8a b9 bd 94 22 91 bd
       -0.00543347 -0.17801014 -0.09059569 -0.070866734
000350 c0 e3 87 bd 48 5d 3f bd 74 44 56 3e 54 f4 22 3e
       -0.06635237 -0.04671982 0.2092455 0.15913516
000360 e0 ae b2 bc 1c 28 62 be 18 c4 06 bd c0 19 39 bc
       -0.021811903 -0.22085613 -0.032901853 -0.011297643
000370 d8 76 07 3e 02 e3 2c be dc 0f d9 3d fc 81 3e be
       0.13228929 -0.16883472 0.10598728 -0.18604273
000380 38 66 ec bd a6 3f 5c 3e fc 1b e3 3d ac 3f 0a 3e
       -0.11542934 0.21508655 0.11089322 0.13500851
000390 88 ec 3f 3e 24 6a 52 3e 18 78 2f 3d 38 ff 50 3d
       0.18742573 0.20548302 0.04283914 0.051024646
0003a0 48 d4 60 bd 00 67 b0 3b 22 b7 59 be 8c 0d 9c bd
       -0.054889947 0.0053833723 -0.21261266 -0.07619771
0003b0 f0 d2 82 3d 68 ac 6c be ee 49 7d 3e e0 7c 68 3e
       0.063878894 -0.23112643 0.24735233 0.22703886
0003c0 52 fd 43 be 02 df 71 3e 10 a2 64 3e 22 8f 68 3e
       -0.19139603 0.23620227 0.22327447 0.22710851
0003d0 20 2e 32 bc fa 20 54 3e 68 e4 5b 3d 10 40 98 3d
       -0.010875255 0.20715705 0.053684622 0.07434094
0003e0 f6 64 59 3e 8c 7e d8 3d dc 5a 7c 3e 7e ad 6e 3e
       0.2122992 0.10571012 0.24644035 0.2330837
0003f0 74 79 70 3e 60 3f 54 3e 5c ba 4e be e6 9a 16 be
       0.2348383 0.207273 -0.20188278 -0.14707527

EEGNet1.block2.1.weight f4 [16, 16, 1, 1]
000000 c0 22 9f 3c f4 33 57 be c4 f0 9c bd 40 f6 12 3d
       0.01942575 -0.21015912 -0.0766311 0.035879374
000010 9e d5 4e be d6 d3 1f be 10 56 e8 bc 00 c7 aa bd
       -0.20198676 -0.15608153 -0.02836135 -0.083387375
000020 40 fc 30 bc 00 21 88 bc 68 27 62 bd 58 d7 40 bd
       -0.010802329 -0.016617298 -0.055213362 -0.047080368
000030 94 1b ad 3d f0 e9 48 bd d0 06 f1 bc e0 07 a9 bc
       0.08452526 -0.049051225 -0.029422194 -0.020633638
000040 00 27 4a be d2 ca 43 be ea 95 7f be 3c ee c3 bd
       -0.1974144 -0.19120339 -0.24959531 -0.09566924
000050 42 c7 0e be e0 d8 e3 bd bc 97 15 be 78 1d a5 bd
       -0.13943198 -0.1112535 -0.14608663 -0.08062261
000060 1c f6 04 be e0 f6 4a be 90 77 d0 bc bc 82 ea 3d
       -0.12984508 -0.19820738 -0.025447637 0.11450717
000070 dc 70 f3 bd b6 5f 43 3e 58 83 48 3d 00 00 c4 b8
       -0.118867606 0.1907948 0.048953384 -9.346008e-05
000080 26 90 79 3e 6c 9b 91 3d c2 d6 34 3e 74 89 9c bd
       0.24371395 0.071097225 0.17660049 -0.076434046
000090 20 d7 b9 3c 32 28 6f 3e b0 44 81 bc dc f7 42 be
       0.022685587 0.23355177 -0.015779823 -0.19039863
0000a0 f6 b8 2d be c0 3a e3 bc 5c f9 bc 3d 04 e6 79 3e
       -0.16965088 -0.027737975 0.09227249 0.2440415
0000b0 e8 19 32 bd 96 9b 7f 3e 78 0f cd bd d4 dd 68 be
       -0.043481737 0.24961695 -0.10012716 -0.2274087
0000c0 cc 7e b0 3d 88 13 40 3e 96 73 5b 3e 58 7c 75 bd
       0.086179346 0.1875745 0.21430811 -0.059933037
0000d0 b4 15 10 be 78 f6 da 3d a0 8f 65 3c 4a a3 0c be
       -0.14070779 0.106915414 0.014011294 -0.13734165
0000e0 7a 32 1a be f0 eb 34 3e 44 fa 0c be 20 46 3c 3e
       -0.15058318 0.17668128 -0.13767344 0.18386126
0000f0 aa 32 0f 3e b8 0e 7d bd 28 ec 2a 3d 80 7c 70 3c
       0.1398417 -0.061781615 0.041729122 0.014678121
000100 a8 7e 65 3d 3a e5 23 be 18 6e 78 3d 66 94 49 3e
       0.056028992 -0.16005412 0.06065187 0.19685516
000110 d6 15 28 be 80 03 1d 3b 40 9e 3d bd fc ec 98 3d
       -0.1641458 0.0023958385 -0.046293497 0.07467076
000120 bc c2 c6 bd 64 86 dd 3d 00 95 7f 3c 98 84 31 be
       -0.097051114 0.108166486 0.015599489 -0.17335737
000130 e8 1f c9 bd 80 73 92 bd b4 d8 21 be 26 9a 57 be
       -0.09820539 -0.07150936 -0.15805322 -0.21054897
000140 a8 55 6e be 22 5e 34 be b8 1b d2 bd e0 a3 68 3d
       -0.23274863 -0.17614034 -0.10259193 0.05679691
000150 a0 3b bc bd 00 c9 42 be 6a a2 06 3e c0 d8 4e 3e
       -0.0919106 -0.19021988 0.13147894 0.20199871
000160 bc 97 4f 3e 5e 89 6f be 0c 90 10 be 04 49 9e 3d
       0.20272726 -0.23392245 -0.1411745 0.077287704
000170 28 96 e6 bd 34 cf 8f 3d aa a7 2c be e8 de 66 3e
       -0.11259109 0.07021943 -0.16860834 0.2254597
000180 48 eb 18 3e ba 02 1f be b0 16 5b bd 54 9c df bd
       0.14933503 -0.15528384 -0.053488433 -0.10918489
000190 ac b8 aa bd 80 60 59 bc 7c a2 b9 3d 40 29 20 bc
       -0.083360046 -0.013267636 0.090641946 -0.00977546
0001a0 50 3a 5b 3e 04 bd 37 3e 5e 66 0e be bc 4c c5 bd
       0.21408963 0.17943197 -0.13906237 -0.096337765
0001b0 a0 05 ac bc 9c cf d7 bd 78 6a a4 bd 00 54 01 3a
       -0.020998776 -0.10537645 -0.0802812 0.00049334764
0001c0 66 20 10 be 42 35 66 3e 90 95 96 3c 4e 36 42 3e
       -0.14074859 0.22481254 0.018381864 0.18966028
0001d0 f8 99 25 be f8 08 48 bd c0 dd 22 3c 00 90 7d 3a
       -0.16172016 -0.04883668 0.009940565 0.0009672642
0001e0 60 7b 0b bd fe b3 78 3e 3c 54 cd bd 0e 66 7d be
       -0.034053206 0.24287412 -0.10025832 -0.24745962
0001f0 64 ea dc bd 52 1a 75 3e 40 68 ae 3b 1e ab 71 3e
       -0.10786894 0.23935822 0.005322486 0.23600432
000200 de f3 71 be 66 30 0a 3e f4 04 88 bd a2 92 2a 3e
       -0.23628184 0.13495025 -0.0664157 0.16657498
000210 26 9f 64 be 70 aa 73 bd 80 20 aa bd 40 06 f5 3d
       -0.22326335 -0.059488714 -0.0830698 0.11964083
000220 82 9f 57 be fa 54 05 3e c2 b1 26 3e 10 d0 4b be
       -0.21056941 0.13020697 0.16278747 -0.19903588
000230 06 be 5d 3e b8 df 1d be a0 bf 17 3d 56 c3 16 be
       0.2165452 -0.15417373 0.037047982 -0.14722952
000240 d4 29 1d be b8 c3 df bd 3c 99 a9 3d b0 a9 db 3d
       -0.15347987 -0.10926002 0.0828118 0.10725725
000250 00 6c 2d be f4 c1 3d be c6 08 19 3e b2 f4 67 3e
       -0.1693573 -0.18531018 0.14944753 0.22651938
000260 c4 b4 d8 3d c0 0b 1a 3d 80 10 87 bd 1a e8 01 3e
       0.10581353 0.037608862 -0.06594944 0.12686196
000270 38 b8 42 be f8 9c 07 bd 92 9b 67 be bc 2b aa 3d
       -0.19015586 -0.03310868 -0.22617939 0.08309123
000280 5c 4f db bd 3e d1 0b be 50 c9 48 be 48 2c f9 bd
       -0.10708496 -0.13654038 -0.19608045 -0.12166649
000290 68 18 4a be 3c 61 87 3d 94 0b 01 be 9c 0e 0c be
       -0.19735873 0.06610343 -0.12602073 -0.13677448
0002a0 f8 d5 04 3d fc b9 23 3e 76 6c 12 be 44 89 ab 3d
       0.03243062 0.15988916 -0.14299187 0.08375791
0002b0 a8 0a 8d bd 62 94 63 be 94 1b 12 be 20 f2 9d bc
       -0.06886798 -0.22224572 -0.14268333 -0.019280493
0002c0 98 9b 7c bd 24 ae 94 3d a0 51 49 3d 06 d9 3d be
       -0.061671823 0.07259777 0.04915011 -0.18539819
0002d0 c0 31 11 be 56 41 36 3e 04 72 43 be 56 39 01 3e
       -0.14179134 0.17798361 -0.19086462 0.12619528
0002e0 f0 2b 92 3d ee 98 5c be 16 12 14 be 20 2d 86 bd
       0.07137287 -0.21542713 -0.14460024 -0.06551576
0002f0 76 3b 43 be 66 40 70 be 90 e8 05 3d e4 1c ce bd
       -0.19065651 -0.23462066 0.032692492 -0.10064104
000300 20 82 3a bd 18 65 5c be f8 91 f6 3d 70 89 59 3e
       -0.045534253 -0.21522939 0.1203956 0.21243834
000310 9a 8b 5e be a0 de 5c bc e2 b2 6e 3e 58 7a 1f 3d
       -0.21732941 -0.013480812 0.23310426 0.038935035
000320 60 ff e9 bd 8e c2 05 be 70 77 c0 bc 7c f5 a5 3d
       -0.11425662 -0.13062498 -0.023494452 0.08103463
000330 9c 8c 1b be e8 4f af 3d 48 b3 7e 3d c2 8b 29 3e
       -0.15190357 0.08560163 0.062182695 0.1655722
000340 b6 27 27 3e d0 0e ea 3c c0 eb e9 bd c4 76 c9 3d
       0.16323742 0.028571516 -0.11421919 0.09837106
000350 c2 81 4e be a0 f9 49 bc c0 35 96 bd 0e 30 3a be
       -0.20166686 -0.012327582 -0.07334471 -0.18182394
000360 9c 06 12 be 3c 15 d4 3d 50 d3 cd bc 80 b4 49 bc
       -0.14260334 0.10355613 -0.025125176 -0.012311101
000370 d2 74 1d be 8a c7 26 3e f4 e7 d9 3d ea 46 16 be
       -0.15376595 0.16287056 0.10639945 -0.14675489
000380 14 42 4f be a0 b0 fa bc a8 ef 43 be dc ab ca bd
       -0.2024005 -0.0306018 -0.1913439 -0.09896061
000390 f6 55 0d be a6 49 14 be 04 2d ab bd fc 09 4d be
       -0.13802323 -0.1448122 -0.083581954 -0.2002334
0003a0 56 16 39 be aa c5 65 3e 96 d4 0e be 1a 41 0e 3e
       -0.18074927 0.22438684 -0.13948283 0.13892022
0003b0 e2 4e 06 3e 5e 6b 4d 3e 40 1c 35 3c 54 a9 be bd
       0.13116029 0.20060489 0.011054099 -0.093096405
0003c0 e4 e0 54 3e 70 47 4e bd a4 8b c3 bd 80 20 21 bd
       0.20788914 -0.050361097 -0.09548119 -0.039337635
0003d0 20 5e 07 bd 60 4c 58 3c 20 35 a2 bd e6 38 49 be
       -0.03304875 0.013201803 -0.07920289 -0.19650611
0003e0 b0 99 69 be 94 d8 ba bd e0 fb 4e bc 00 b5 1a 3e
       -0.22812533 -0.0912334 -0.012633294 0.15108109
0003f0 60 80 47 3c 06 55 1b be c4 1b 76 be 06 e8 2f 3e
       0.012176603 -0.15169153 -0.24034029 0.17178354

EEGNet1.block2.2.weight f4 [16]
000000 00 00 80 3f 00 00 80 3f 00 00 80 3f 00 00 80 3f
       1.0 1.0 1.0 1.0
000010 00 00 80 3f 00 00 80 3f 00 00 80 3f 00 00 80 3f
       1.0 1.0 1.0 1.0
000020 00 00 80 3f 00 00 80 3f 00 00 80 3f 00 00 80 3f
       1.0 1.0 1.0 1.0
000030 00 00 80 3f 00 00 80 3f 00 00 80 3f 00 00 80 3f
       1.0 1.0 1.0 1.0

EEGNet1.block2.2.bias f4 [16]
000000 00 00 00 00 00 00 00 00 00 00 00 00 00 00 00 00
       0.0 0.0 0.0 0.0
000010 00 00 00 00 00 00 00 00 00 00 00 00 00 00 00 00
       0.0 0.0 0.0 0.0
000020 00 00 00 00 00 00 00 00 00 00 00 00 00 00 00 00
       0.0 0.0 0.0 0.0
000030 00 00 00 00 00 00 00 00 00 00 00 00 00 00 00 00
       0.0 0.0 0.0 0.0

EEGNet1.block2.2.running_mean f4 [16]
000000 4c 1a e0 37 fb c3 93 39 49 8d 29 ba 92 6a e1 39
       2.6715126e-05 0.00028184042 -0.00064678915 0.00042994745
000010 52 5c 71 ba 6f 93 9f 39 2e fe 7a 38 66 d0 3b 39
       -0.0009207177 0.0003043669 5.9841368e-05 0.00017911344
000020 99 44 e8 b9 9e 7e 8d b9 56 9c ad 39 de 1f 1d 3a
       -0.00044301598 -0.00026987953 0.0003311361 0.0005993823
000030 a5 a2 7f 38 a5 67 a5 b9 d3 ae 32 b8 5d 7e 02 3a
       6.0948212e-05 -0.00031548474 -4.2601325e-05 0.0004977936

EEGNet1.block2.2.running_var f4 [16]
000000 c5 f7 7a 3f 76 14 7b 3f d6 30 7b 3f bf 0f 7b 3f
       0.98034316 0.98078096 0.9812139 0.980709
000010 2a 10 7b 3f 1e 26 7b 3f 4f 04 7b 3f ee 1e 7b 3f
       0.9807154 0.9810504 0.9805345 0.9809407
000020 ce 19 7b 3f fd 14 7b 3f 2a 0d 7b 3f 7d 13 7b 3f
       0.9808625 0.980789 0.9806696 0.9807661
000030 64 16 7b 3f e9 08 7b 3f c3 14 7b 3f e5 12 7b 3f
       0.9808104 0.9806047 0.98078555 0.98075706

EEGNet1.lin.weight f4 [100, 624]
000000 9c 69 bd 3c 48 42 9d 3c c8 d0 ee 3b 00 98 41 bb
       0.023121648 0.019196644 0.0072880723 -0.0029540062
000010 50 d3 c4 bc 68 86 14 bc ad bc 84 bc c0 60 d3 3a
       -0.024026543 -0.009065248 -0.016203249 0.0016126856
000020 c8 42 d5 bb 42 5f 76 bc a8 77 36 3c 94 42 fc 3c
       -0.006508205 -0.01503736 0.011136927 0.030793466
000030 94 e6 44 3c 34 6c ef bc 5a 61 be bc c6 3f 86 3c
       0.012017865 -0.0292264 -0.02323978 0.016387831
000040 4c 27 bc 3c 0b 9a 11 bd 58 7b d5 bb 4a 8a 9a 3c
       0.022967957 -0.035547297 -0.006514948 0.01886477
000050 ac 6b d3 3c 00 2b 91 ba 55 52 0e bd cc 95 1b 3d
       0.025808178 -0.0011075437 -0.034746487 0.037984654
000060 09 37 20 bd 80 c3 0f bd fc 56 09 3d 1c f9 10 3d
       -0.039114986 -0.035098553 0.03353022 0.03539382
000070 90 b3 6b bb 1d 55 12 bd 28 01 8c bb f4 b2 03 3d
       -0.0035965182 -0.0357257 -0.004272599 0.032153085
000080 68 4e d0 3c 40 34 33 3c 2e 32 51 bc 38 4f 0b bc
       0.025428012 0.01093775 -0.012768311 -0.008502774
000090 ab 07 13 bd a6 1b bc bc db b0 80 bc 06 41 98 3c
       -0.035895985 -0.022962403 -0.015709331 0.018585693
0000a0 ea 71 11 bc de e4 a5 bc 72 09 ac 3c e5 fb 8c bc
       -0.008877257 -0.020250734 0.021000598 -0.017209956
0000b0 7c ba ce bc 1c 9e c3 3c ee d8 06 bd 40 d5 8c 3b
       -0.025235407 0.023879103 -0.032921724 0.0042978823
0000c0 88 68 cc 3c 60 50 df 3b 64 7c e5 3c 32 cc 1a bd
       0.024952188 0.0068150014 0.028013416 -0.037792392
0000d0 06 37 c1 bc a0 11 0f 3d 60 c2 c0 3b a0 8c b5 3c
       -0.023585808 0.034928918 0.0058825463 0.022161782
0000e0 28 02 ca 3c 74 73 ad bc 00 e1 e9 3c 40 99 84 3a
       0.024659231 -0.021173216 0.028549671 0.0010116473
0000f0 f0 01 80 bb 7e 26 d0 bc 44 12 6d bc 04 cf 1e 3c
       -0.003906481 -0.02540898 -0.014469687 0.009692911
000100 71 94 08 bd dc 4f 21 3d da 9d 31 bc 86 5e 8d 3c
       -0.03334469 0.0393828 -0.010840857 0.017256986
000110 30 5e 26 bc ae 29 67 bc 0c 26 c9 3c ec f1 1d bd
       -0.010154292 -0.014109058 0.024554275 -0.038560793
000120 e4 78 b3 3c 39 53 bc bc 83 bc b3 bc c8 3a ed 3c
       0.021908231 -0.022988902 -0.021940475 0.028958693
000130 86 21 ac 3c 10 47 04 3c 78 31 c9 bc d6 f2 94 bc
       0.021012079 0.008073583 -0.024559721 -0.0181822
000140 67 03 ea bc 48 cb 6e 3c a8 b1 d1 3c 20 cd 24 bb
       -0.028566075 0.014574833 0.025597408 -0.0025146678
000150 e0 3a 6b bc c0 54 22 3d e0 82 5b bb 88 95 eb bc
       -0.014357299 0.039631605 -0.0033494756 -0.028757825
000160 28 e5 68 bc ca 72 03 3d 02 a9 5d bc f8 4a ac 3b
       -0.014214791 0.032091893 -0.013529064 0.0052579604
000170 10 93 5c 3c 60 26 cd 3c a0 ac b8 bc 49 12 dc bc
       0.013462797 0.025042713 -0.022543252 -0.026864188
000180 13 c6 b8 bc 38 62 49 bc 08 bb 04 3d 5c 49 c9 3c
       -0.022555387 -0.012291484 0.03240493 0.024571113
000190 88 7c c7 3c 4e ed 00 bd 76 32 1c bc a0 ff b0 3c
       0.024351373 -0.03147631 -0.009533515 0.021606266
0001a0 78 ec c5 3b 48 da 70 bc d2 c9 2c bc f8 13 ad 3c
       0.006040152 -0.01470048 -0.010546165 0.021127686
0001b0 21 83 f5 bc 50 47 7a bc a8 c1 62 bc c0 23 c4 3a
       -0.029969754 -0.015275791 -0.013840117 0.0014964268
0001c0 66 57 13 3d 6c bc e0 3c 60 87 ca 3c 7e da 40 bc
       0.03597202 0.027433597 0.024722755 -0.011770843
0001d0 72 f4 bd bc 50 b9 19 3b 1c 26 de bc e1 aa 04 bd
       -0.02318785 0.0023456402 -0.027117781 -0.032389525
0001e0 a8 cd ee 3b fc aa 8d bc 50 43 85 bc b4 eb 61 bc
       0.0072876997 -0.017293446 -0.016267449 -0.013789106
0001f0 d6 cb af 3c 90 94 d8 bc 32 a8 d1 bc 70 db d3 3b
       0.021459501 -0.026438028 -0.025592897 0.006465368
000200 68 a7 a3 bc 5d a9 d1 bc 5e 69 01 bd cc fb bb 3c
       -0.019977286 -0.025593454 -0.031594627 0.022947215
000210 28 d1 38 3c ae 32 2d bc be 19 b7 bc 08 54 ef 3c
       0.0112803355 -0.010571165 -0.022351142 0.029214874
000220 3c f0 f7 3c 5a 59 d8 bc 34 cd 4d bc 2f 3c 9b bc
       0.03026592 -0.026409794 -0.012561131 -0.018949596
000230 ca 62 47 bc f3 98 14 bd a0 7a e8 3a f4 da 0b 3d
       -0.012169549 -0.036278676 0.001773674 0.034144357
000240 c2 dc a0 bc 3c 6e a7 3c 30 88 a4 3c b6 3d 86 3c
       -0.019636516 0.020438306 0.02008447 0.016386848
000250 1c 89 be 3c 93 48 1e bd 10 be bc 3c 70 43 15 bc
       0.023258738 -0.03864343 0.023039848 -0.009110317
000260 7c 46 0f 3d 00 65 7f 3c 87 9b 11 bd 69 b5 a7 bc
       0.03497933 0.015588045 -0.035548713 -0.020472245
000270 f0 52 fb 3b fa 15 22 bd 20 9c 1f 3b c0 72 02 3d
       0.007669799 -0.03957174 0.0024354532 0.031847715
000280 10 40 e0 3b 94 f5 1b 3d d0 17 99 3c 9d d6 8e bc
       0.0068435743 0.038076 0.018688112 -0.01743632
000290 58 c0 84 3c b4 ce 79 3c 10 09 87 3c fa a1 e7 bc
       0.016204998 0.015247036 0.016483814 -0.028275479
0002a0 cc 4e 40 bc e0 94 b1 3a 20 0c 0f 3c 4c dc 07 3c
       -0.011737537 0.0013548397 0.008730918 0.008292269
0002b0 c0 1e 14 bd de 6d e0 bc d9 b0 0d bd 6e b2 0a 3d
       -0.036162138 -0.027396139 -0.034592483 0.03386157
0002c0 80 e2 fe bc b4 53 0a bc 68 ef d7 bc b7 09 a2 bc
       -0.031113863 -0.008442808 -0.026359275 -0.019780023
0002d0 02 4a 1e 3d 2d ee 1f bd 80 20 0d 3d 24 14 cb 3c
       0.038644798 -0.0390455 0.034454823 0.024789877
0002e0 70 95 e5 bb d1 08 ae bc 32 f2 17 3d a8 b2 3b bc
       -0.0070063397 -0.021244438 0.03709621 -0.011456169
0002f0 56 3f f9 bc b6 79 79 bc 00 fb d9 3c 92 c2 83 3c
       -0.030425709 -0.015226772 0.026608944 0.01608399
000300 bc 67 c9 3c 92 83 4e bc f0 f1 f3 3b 48 f3 68 bc
       0.024585597 -0.012604611 0.0074446127 -0.014218159
000310 f5 a1 09 bd b0 cd 9c 3b d0 d2 19 bb f4 b0 6e 3c
       -0.03360172 0.004785262 -0.0023471601 0.014568556
000320 0c 01 3a 3c f0 d1 ec bc 8c b8 93 3c 30 f6 71 bc
       0.011352789 -0.0289087 0.018032335 -0.014768168
000330 70 7a 23 3c 77 46 08 bd 40 05 93 bc 9a bb f0 bc
       0.009977922 -0.033270326 -0.01794684 -0.02938633
000340 8a 46 d8 bc cf 11 91 bc 19 3c f0 bc f4 a3 06 3d
       -0.026400823 -0.017708687 -0.029325532 0.0328712
000350 57 56 0e bd 18 89 07 3c 50 bb 29 bb 10 b2 cc 3b
       -0.03475031 0.008272432 -0.0025899 0.0062468126
000360 e8 98 14 bc 70 e0 20 bd d8 e8 e5 3c b4 a9 e3 3c
       -0.009069659 -0.03927654 0.02806513 0.027790882
000370 a6 ba 10 bc d4 48 0e bc da fe 9c 3c 78 fb 79 3c
       -0.008833563 -0.008684356 0.019164491 0.015257709
000380 58 24 0f bd 14 7d 9f 3c e0 cd f7 3c 00 1c 0b 38
       -0.03494677 0.019468822 0.030249536 3.316626e-05
000390 92 de 09 bd c8 b0 eb bb 47 7f 0b bd 80 12 fb 3a
       -0.033659525 -0.007192705 -0.034056928 0.0019155294
0003a0 60 98 43 bb 0a 28 08 3d d6 9a 8c bc b6 25 f9 bc
       -0.0029845461 0.03324131 -0.017163675 -0.03041349
0003b0 b8 63 a3 3b 3c 6b 81 3c b6 20 0d 3d 68 29 a6 3b
       0.0049862526 0.015798204 0.034455024 0.005070854
0003c0 40 c1 94 ba b8 9f c9 3c 58 b8 dc 3c de 28 8b 3c
       -0.0011349097 0.024612293 0.02694337 0.01698726
0003d0 5e 2b 0e 3d 88 e8 07 bc b4 ac d7 bc c0 a5 ac 3c
       0.034709327 -0.008295186 -0.026327468 0.02107513
0003e0 e0 47 5e bc ec 7f 95 3c 58 62 21 bd 8c 5f c7 3c
       -0.013566941 0.018249474 -0.03940043 0.024337552
0003f0 0b 02 d8 bc f0 3d f6 bb 84 69 c0 3c 80 37 7f bb
       -0.026368162 -0.0075147077 0.023487814 -0.0038942993

EEGNet2.block1.0.weight f4 [8, 1, 1, 64]
000000 70 c7 e8 3d 32 4e 99 3d 6c 58 3e bd c2 d4 de 3d
       0.11366165 0.07485618 -0.046471044 0.10880424
000010 b0 70 91 bd bc b1 98 bd 48 d8 fe 3c 82 f5 d7 3d
       -0.071015716 -0.07455775 0.03110899 0.10544874
000020 14 68 1e 3d 68 19 63 3d dc de f0 3d 00 0d fd bd
       0.038673475 0.05544415 0.11761257 -0.12355995
000030 70 e9 8e 3d 28 08 a4 3c a6 3a fa 3d 90 24 42 3c
       0.069781184 0.02002342 0.122182176 0.0118495375
000040 26 77 d4 bd 36 58 f0 3d 80 b3 68 3b 2c cc c5 3d
       -0.10374288 0.11735575 0.003550738 0.09658083
000050 60 b2 9c 3b cc 3b 52 3d fc 19 53 3d 04 67 88 3d
       0.004782006 0.051326558 0.051538453 0.06660274
000060 30 2e 2f bd 54 c1 01 bd fe 48 e1 bd 00 64 05 b9
       -0.042768657 -0.031678513 -0.1100025 -0.00012721121
000070 10 e7 79 bc c0 f9 ba 3b 90 5d 95 3c f4 b5 0b 3d
       -0.0152528435 0.005706042 0.01823309 0.03410907
000080 f4 7e e2 bd 6c 42 70 bd d4 4b f2 bd fc d2 0d bd
       -0.11059371 -0.058657095 -0.11830869 -0.03462504
000090 70 c5 c6 3c a0 86 e7 3b 80 85 36 bc 7c ad 62 3d
       0.024264067 0.007065609 -0.011140227 0.05534123
0000a0 94 39 44 bd 36 00 f0 3d 48 91 d3 bd a6 0b a7 3d
       -0.047906473 0.1171879 -0.103304446 0.08156519
0000b0 90 17 92 3c f8 fc 6b 3d ac 2f 3e bd 32 1f ca bd
       0.017833501 0.057614297 -0.046432182 -0.09869231
0000c0 d4 b5 ff 3d 90 8a 70 3c c8 8d c8 3c b0 6c 13 bc
       0.12485853 0.014681473 0.024481669 -0.008998081
0000d0 60 b9 c2 3d 20 33 28 3d ea 34 e4 3d 58 b4 8f 3c
       0.09508014 0.04106438 0.11142905 0.01754205
0000e0 78 31 65 3d b0 e5 d1 bc e4 3d 4d 3d b0 b5 ea 3c
       0.05595538 -0.025622219 0.05010785 0.028651088
0000f0 8a 9a d0 3d 78 d6 c1 3c d0 95 53 3d 6c 52 c9 bd
       0.10185726 0.023661837 0.051656544 -0.09830174
000100 e8 d7 c5 bd b8 e2 cd bc d4 7c d1 bd 10 17 68 3c
       -0.096603215 -0.025132522 -0.10228887 0.014165655
000110 50 3a 8b 3c 20 59 a4 bd 10 da 3f bd 54 61 19 bd
       0.016995579 -0.08024812 -0.04683882 -0.037446335
000120 10 24 f1 bd ae b2 a6 3d 56 bd ca bd a4 64 11 3d
       -0.117744565 0.08139549 -0.09899394 0.03549637
000130 08 27 ae bc 7c 5c 01 bd 60 f8 c3 3b f0 eb be bc
       -0.021258846 -0.03158234 0.0059805363 -0.023305863
000140 82 0b ed bd 1a 6e f6 bd 50 cc 89 bd 78 af 1f 3d
       -0.115744606 -0.12032719 -0.06728423 0.0389857
000150 74 39 6f bd 30 ea ec 3d 94 1f a8 3d 44 dc cf bd
       -0.0584044 0.11568105 0.08209148 -0.10149434
000160 4c 31 14 bd e0 0b 84 bc ac e4 bd 3d 1c c0 b3 bd
       -0.036179826 -0.016118944 0.09272131 -0.08776876
000170 80 e0 85 3b 64 20 d9 bd 04 af e1 bd 18 08 c1 bd
       0.0040856004 -0.10601881 -0.1101971 -0.09425372
000180 18 fc 53 3d 8a d2 fe 3d 20 7d 1b 3c 70 50 a0 bd
       0.051754087 0.12442501 0.009490281 -0.07827842
000190 5c d6 1c 3d a0 41 0a bd fa d0 cf bd c4 57 41 bd
       0.038290367 -0.03375399 -0.10147281 -0.04720284
0001a0 90 19 67 3d ee e6 91 3d 34 28 e1 bd b4 74 48 bd
       0.056420863 0.071241245 -0.10993996 -0.04893942
0001b0 80 86 e9 3c b0 40 32 bc ba 60 9b 3d b2 77 b1 3d
       0.028506517 -0.0108796805 0.075868085 0.08665408
0001c0 e0 79 b5 3b f4 22 32 bd ca 43 82 bd 4e 16 e8 3d
       0.0055382103 -0.043490365 -0.06360586 0.11332379
0001d0 38 56 c8 3c 1a 92 ed 3d e2 26 cf 3d 80 39 f6 3b
       0.024455175 0.11600132 0.10114838 0.0075141788
0001e0 18 12 50 bd c8 42 32 bd 38 e1 ed bd ca f4 95 bd
       -0.050798506 -0.04352072 -0.11615223 -0.073220804
0001f0 58 76 f6 3c e8 bc 82 3d 20 77 ae 3d 88 d7 46 bd
       0.030085728 0.06383687 0.08518815 -0.04854539
000200 92 09 b7 3d 74 e3 0e 3d 4c 02 ed 3d 66 25 b9 bd
       0.08937372 0.034884885 0.11572704 -0.09040336
000210 a0 ad 42 3d 14 1a 13 3d ec c7 5e bd 04 35 5c 3d
       0.047528863 0.035913542 -0.05438988 0.053761497
000220 3e 62 8e 3d 94 49 ce bd 80 d5 80 bd 4a 9a 87 3d
       0.06952332 -0.10072628 -0.06290722 0.06621225
000230 90 16 a0 bc 20 9b 91 3b f0 e5 a3 bd b8 fe d7 bd
       -0.019542009 0.004443541 -0.080028415 -0.105466306
000240 bc b8 61 bd 38 71 b2 bc 68 81 91 bd cc 43 ba bd
       -0.055107817 -0.021782503 -0.071047604 -0.090949625
000250 f2 1c dd 3d 22 dd d1 3d 04 44 29 bd e4 6b 1e 3d
       0.107965365 0.10247256 -0.04132463 0.03867711
000260 40 66 6b 3d 8c ce 63 bd b4 49 dd 3d 60 46 63 3c
       0.05747056 -0.0556169 0.108050734 0.013871759
000270 e8 76 5a 3d c8 06 aa 3c 30 40 c3 3c d2 f4 b8 3d
       0.053336054 0.020755187 0.023834318 0.09031071
000280 68 bb 22 bd 74 90 01 bd 74 1b ca 3d b0 1c 93 bc
       -0.039729506 -0.0316319 0.098685175 -0.017958015
000290 16 eb ff 3d a0 53 1d bd 00 65 91 bd 30 a6 c5 bc
       0.12496011 -0.03840983 -0.07099342 -0.024127096
0002a0 1a 34 df bd 3e 55 bd bd 70 7f 0c bc 70 7d 6f 3c
       -0.108986095 -0.09244774 -0.008575305 0.014617309
0002b0 c0 0e 42 bb 60 e7 cc 3c 3e f2 f2 bd 28 48 e2 3c
       -0.0029610842 0.025012672 -0.1186261 0.027622297
0002c0 2e a3 e6 bd 30 ac 75 bd 70 f1 2f 3d 94 1b 2c 3d
       -0.11261593 -0.059978664 0.042954862 0.042018488
0002d0 5a 84 94 3d 68 6a 97 3c 70 84 69 3c 80 55 f6 bc
       0.072518066 0.018483356 0.014252767 -0.030070066
0002e0 0c 27 c4 3d 74 fb 76 bd 58 c4 e1 3d 78 0a 46 3d
       0.0957776 -0.060298398 0.11023778 0.048349828
0002f0 d4 be d6 3d 40 45 5e bd 80 4d f6 3c c6 84 8b 3d
       0.10485616 -0.05426526 0.030066252 0.06812434
000300 a0 71 bd bc d8 9c cb bc d8 da bf 3d 30 f3 9b 3c
       -0.02312547 -0.024855062 0.09367913 0.01903686
000310 a8 32 e0 3d 28 6b 00 3d 08 b5 c4 bd 98 e9 81 3d
       0.10947162 0.031352192 -0.096048415 0.063433826
000320 6c 91 1d bd 18 0c e6 bd 7c 26 0d bd 6c 44 9a 3d
       -0.038468763 -0.112327754 -0.03446053 0.07532582
000330 76 49 a9 bd 62 67 8c 3d 20 39 de 3d 3e f4 e8 bd
       -0.08265965 0.06855656 0.108507395 -0.113747105
000340 12 58 eb 3d 60 7a 54 bc 56 93 ce 3d 60 10 75 3c
       0.114914075 -0.01296863 0.10086696 0.014957517
000350 78 76 0a bd c0 95 06 bd e0 c4 1c 3c 22 92 96 bd
       -0.033804387 -0.032857656 0.009568423 -0.07352091
000360 18 30 3b bd 08 56 d0 bc 1a 0c e2 bd b6 d4 91 bd
       -0.045700163 -0.025431648 -0.110374644 -0.071206495
000370 12 14 bb 3d 6a 4c 8f bd 34 68 42 3d 3e 1e ec bd
       0.091346875 -0.06996997 0.047462657 -0.11529206
000380 96 7a b9 3d 52 ad a9 bd 30 07 cd 3c 80 67 c9 bb
       0.090565845 -0.08285011 0.025027841 -0.0061463714
000390 50 ac 9a 3d 28 37 2e bd f0 dc ae bd a2 7b 84 bd
       0.07552397 -0.04253307 -0.08538234 -0.064688936
0003a0 d0 a8 09 bc 76 55 89 bd a0 2d aa bd 30 81 48 bc
       -0.008402064 -0.067057535 -0.083094835 -0.012237832
0003b0 00 89 62 ba c8 06 1e bd 70 95 a2 3c a4 95 72 3d
       -0.00086416304 -0.038580686 0.019846648 0.05922474
0003c0 0a 6b b0 bd 78 dd 9e 3c d8 d4 74 bd 1a 52 8c 3d
       -0.08614166 0.019392714 -0.059773296 0.06851597
0003d0 6e 11 db bd 0c 1f f1 3d ec 29 8d 3d c8 2d dc bd
       -0.10696684 0.117735 0.068927616 -0.107509196
0003e0 70 34 a0 bd b4 67 ab bd 60 ce 90 bd 38 c1 d0 bd
       -0.07822502 -0.08369389 -0.07070613 -0.101931036
0003f0 a8 f4 85 3d 10 c8 f2 3c 88 34 e6 bc 58 60 ab 3d
       0.06540805 0.029636413 -0.02810122 0.083679855

EEGNet2.block1.1.weight f4 [8]
000000 00 00 80 3f 00 00 80 3f 00 00 80 3f 00 00 80 3f
       1.0 1.0 1.0 1.0
000010 00 00 80 3f 00 00 80 3f 00 00 80 3f 00 00 80 3f
       1.0 1.0 1.0 1.0

EEGNet2.block1.1.bias f4 [8]
000000 00 00 00 00 00 00 00 00 00 00 00 00 00 00 00 00
       0.0 0.0 0.0 0.0
000010 00 00 00 00 00 00 00 00 00 00 00 00 00 00 00 00
       0.0 0.0 0.0 0.0

EEGNet2.block1.1.running_mean f4 [8]
000000 82 10 d5 38 62 03 4c b9 c9 d0 9c 37 65 75 51 b8
       0.00010159706 -0.00019456216 1.8693872e-05 -4.9938815e-05
000010 15 38 dd 37 57 83 7c b7 bb 2e 4d b8 86 04 90 b8
       2.6371368e-05 -1.505095e-05 -4.891933e-05 -6.8672976e-05

EEGNet2.block1.1.running_var f4 [8]
000000 88 15 b8 3f 8e c6 d3 3f 30 93 af 3f 94 1a c2 3f
       1.4381571 1.6544969 1.3716793 1.5164361
000010 0e af ae 3f 91 2a cd 3f 81 f7 bb 3f 0b a0 b9 3f
       1.3647172 1.6028615 1.4684907 1.4501966
